rp_lidar_f1tenth/rp_f1_tenth_model.tflite (tflite, 68408 bytes, 18 tensors)

sequential/dense_3/MatMul f4 [2, 10]
00000000: 6921 8dbe 3920 f53e 7e77 8cbe d464 7e3e
00000010: 5420 02bf 5273 02be f19e 00bf ca1f 993e
00000020: 3ecb 4d3e 262d 27bf a1e7 c2be 2405 19bf
00000030: 04d0 333f 18b4 0ebf 5255 a8be 575c c23e
00000040: 6ad6 b83e bf89 273f 6345 fabe 3662 10bf
-0.27564552 0.47876146 -0.27434915 0.2484315 -0.5083058 -0.12739304 -0.50242525 0.29907066
0.20097062 -0.65303266 -0.38067344 -0.5977347 0.7023928 -0.5574355 -0.32877594 0.37961075
0.36101085 0.6544456 -0.48881063 -0.5639986

sequential/dense_2/MatMul f4 [10, 50]
00000000: 1a9b 87be 4aea 80be 75e0 393c 169c 23bd
00000010: 7c3c 52bd f5df 4f3e 606e 77bc 6f1d 9fbe
00000020: 267b 8bbd db24 0a3e 1cb5 5d3d 25a0 3dbe
00000030: caaf fb3c 69f1 553e a5e5 98be 4a31 63be
00000040: 70ba a33c 4145 a6bd 283c 953d 4bcb b93c
00000050: b1b4 2bbe 2800 6b3e 4295 a53e df9a 75bc
00000060: 8243 733e 81f6 f63d aae8 7b3e 882c 7ebb
00000070: 61d3 293c 6e01 2abe 720b febc bfa9 223e
00000080: 05af e23c 8f15 f23d baf7 8dbd 223c fa3d
00000090: a575 16be 5fc2 a53e 421c 55be ee32 57bb
000000a0: 025e e83d 4bf1 913e 4fc3 c23d 1618 033e
000000b0: dc09 35be 3a11 05be 047b ac3e 871b 5f3e
000000c0: 6fea ac3c 19a9 11be ebce c4bd 44f3 353e
000000d0: d4e1 523e 7543 a0be 6194 81be 272e 6a3c
000000e0: b36c 95be 4f12 21be cd9f ffbd f7d2 603c
000000f0: 9e5d a4be a528 33be 2804 8bbe 134d 993e
00000100: 3a8e 6e3e db81 f43d 463a 323e 9763 7c3e
00000110: b271 653d 89a7 92be 1f24 b9bc e50a 81bd
00000120: bd52 113b cd1f 5fbe dab8 1abe b6bd 82be
00000130: a8f9 15be ba45 3abe 941c e03d a6ff 723e
00000140: 2de2 76be 0dca 4fbe 480e 303e 182a 4cbe
00000150: 0701 d93c c2d1 203e c0eb 6bbe b8d2 643e
00000160: 37d5 c43d 90f1 b43c b313 7d3e fef3 94be
00000170: 5274 5bbe 6254 65be 560d cb3c 834d 983e
00000180: 28b7 69be 8a4f 28bd 7426 9dbd 3ddd 9ebe
00000190: ac10 77be 8861 88be ad01 da3d 0389 93be
000001a0: 1c22 0f3e 5105 9a3e 509c e23c 2093 663e
000001b0: 5495 f5bd 67e4 9bbe cd17 17be 2200 0cbb
000001c0: 4b8e b1bd 6891 1abe 2f0d b3bd 5844 ecbd
000001d0: d25a 1dbe 4b77 8d3e e6a5 a5bd 5f5a 923e
000001e0: de59 2dbe edb0 acbd ce1d 82be 0174 5a3d
000001f0: 4c89 db3d 49c2 1bbe 4d3e dabd 4daa 873e
00000200: a5ec 83bc fc63 4b3e d961 923e 3d05 fbbd
00000210: feea 9d3e 86fd a93e e847 9d3e 4b41 89be
00000220: 9cf8 85be 0a37 8a3e 0885 663e 72e1 d3bd
00000230: f6fd 413e 33a6 87be 611c 043d 926f 9f3e
00000240: e928 2bbe 8824 0abe 3c58 67be 7db1 aa3e
00000250: b4de e73d 7907 45be 59be 3bbe 8e00 2c3e
00000260: c846 543d 2a43 953e 6d0c 993d f9cb 393e
00000270: c641 0d3e eab2 42be 1abb f6bd 8fff f13d
00000280: 3f81 cf3c 274d ae3d a48d af3d cffd f93d
00000290: dd09 423e 399b 7ebd 1f9a 7cbe f897 863e
000002a0: f2ba 5fbd f930 79be aaab 5fbd d8e3 6bbd
000002b0: b333 013e 3a26 393e 38ad 503d 9ca6 d6bc
000002c0: 8ef8 62bd 6aea c43b 4473 83bc 74c9 863e
000002d0: b32c 8dbe 933e 32be c9e2 fc3d f107 793e
000002e0: 6ec3 483e 8a5b fbbd 0a34 9b3e 410d cfbd
000002f0: 9e91 7dbd e82e 33be fbb0 943e 1955 89be
00000300: 4dba 7ebd 081e 8bbe 82fb 98be 537a 4a3d
00000310: e87f 77be fba6 7dbe f725 f8bd a703 50bd
00000320: 763f a03e fc70 09be d3fa 4ebe c16b 83be
00000330: 0283 96be 90ae 67be a00e 863c 8f2d c33d
00000340: afcf 923e 9b6d 8fbe fd76 2e3e 7472 f8bc
00000350: 74a4 643a f496 8c3e dcc6 24be ab81 933e
00000360: e4d5 513e b063 9ebe e11d 1ebe 1335 15bc
00000370: 5502 11be cc90 3c3b 6ee1 80bc 2159 9b3e
00000380: 4375 833e cd77 84be 4c38 993e c34c 863d
00000390: 88c8 1b3e a539 97be 914c 393e d8fc 1fbd
000003a0: d953 883e 2e0d 48be b98f d2bd 6a10 2ebd
000003b0: 9876 74bd 54bc 813d b159 35be 9229 053e
000003c0: 30a5 923e 54dc 17bd 36f4 533d 093d 64bc
000003d0: b21c 89be 2f48 05be 2e0a 1a3e 3f42 81bd
000003e0: e137 163d 7e3a 4f3e 4d15 92be cd94 29be
000003f0: 3d0f e1bc 966a 89be 5483 623e 0a0d 333e
-0.2648552 -0.25178748 0.011345019 -0.039943777 -0.051327214 0.20300277 -0.015101999 -0.31077144
-0.06810598 0.13490622 0.054127797 -0.18518122 0.030723471 0.20892872 -0.29862705 -0.22186771
0.019986361 -0.08118678 0.072868645 0.022679945 -0.16768147 0.22949278 0.32340437 -0.014990537
0.23756221 0.12058736 0.24600473 -0.0038783867 0.010365338 -0.16602108 -0.031011317 0.15885065
0.027671346 0.11820518 -0.06932016 0.12218501 -0.14693315 0.32374856 -0.20811561 -0.0032836753
0.113460556 0.28504404 0.095099084 0.12802157 -0.17679542 -0.12994853 0.33687603 0.21787845
0.02110788 -0.14224662 -0.09609779 0.1776858 0.20593959 -0.31301466 -0.25308517 0.01429323
-0.29184493 -0.1572964 -0.124816515 0.013722173 -0.32102674 -0.17495973 -0.27151608 0.29941615
0.23296443 0.119388305 0.17405042 0.24647366 0.05601663 -0.28643444 -0.022600232 -0.06300906
0.002217456 -0.21789475 -0.15109578 -0.25535363 -0.14646018 -0.18190661 0.10942951 0.23730335
-0.24109717 -0.2029192 0.17192948 -0.19937932 0.026489748 0.15705016 -0.2303915 0.22346008
0.0961098 0.022087842 0.24714546 -0.290924 -0.21431091 -0.2239547 0.024786633 0.29746637
-0.22823775 -0.04109148 -0.0767335 -0.31028166 -0.24127454 -0.2663691 0.10644851 -0.2881547
0.13977855 0.3008218 0.027662426 0.22517061 -0.11991373 -0.30447695 -0.14755173 -0.0021362384
-0.08669718 -0.1509453 -0.08742749 -0.11536473 -0.15366676 0.27630076 -0.08088283 0.28584573
-0.16928813 -0.084321834 -0.25413364 0.053333286 0.10719547 -0.15210833 -0.10656414 0.26497117
-0.016104052 0.1986236 0.28590277 -0.122568585 0.30843347 0.33201236 0.30718923 -0.26807627
-0.26166236 0.26995116 0.22511685 -0.10345735 0.18944535 -0.26493987 0.032253627 0.3113981
-0.16714825 -0.13490498 -0.22592252 0.33338538 0.11321774 -0.19241132 -0.1833433 0.16797087
0.051825315 0.29152805 0.07473073 0.18144216 0.13794622 -0.19013563 -0.120474055 0.11816322
0.025330184 0.085108094 0.08571938 0.12206613 0.18949075 -0.06215975 -0.24668168 0.26287818
-0.054621644 -0.24335088 -0.05460707 -0.057590336 0.12617378 0.18080989 0.050946444 -0.026202492
-0.05541282 0.0060093896 -0.016046174 0.26325572 -0.27573165 -0.17406683 0.12347943 0.24319436
0.196058 -0.12273319 0.3031314 -0.1010995 -0.06190645 -0.17498362 0.29041275 -0.26822737
-0.06218939 -0.2717135 -0.29879385 0.049433064 -0.24169886 -0.24770729 -0.12116616 -0.050784733
0.31298417 -0.13422006 -0.2021287 -0.25668147 -0.29396826 -0.22625184 0.016364396 0.09530174
0.28674075 -0.2801331 0.17037578 -0.030328013 0.0008722015 0.27458918 -0.16091484 0.28809866
0.20491749 -0.3093543 -0.15441085 -0.009106892 -0.14161046 0.002877283 -0.015732493 0.30341437
0.256754 -0.2587265 0.29925764 0.0655761 0.15213215 -0.29536167 0.18095614 -0.03905949
0.2662647 -0.19536278 -0.10281319 -0.042496122 -0.059683412 0.06334749 -0.17709996 0.13004139
0.28641653 -0.037075356 0.05174657 -0.013930568 -0.26779705 -0.13015817 0.15042946 -0.063114636
0.036674384 0.20237157 -0.28531876 -0.16560669 -0.027473086 -0.2683913 0.2212041 0.17485443

sequential/dense_1/BiasAdd/ReadVariableOp f4 [50]
00000000: f291 7ebb 0bc1 5ebc e5be f13b 97cc 40bb
00000010: e265 343c be2e 5c3c 0000 0000 13df 6b3c
00000020: 3969 b7b9 c5a4 50ba 004c 2abc b348 e339
00000030: 2546 54bb a4df 47bc 2c6e 36b9 ae32 623b
00000040: f3a3 26bc 2634 013d 1246 1e3b 5b90 c83c
00000050: a361 84bb ea2f 413c 3459 b2bc ba71 79bc
00000060: 0000 0000 55fd 15bc bd70 01bb ceff 553c
00000070: cc47 3abc 7467 6c3b 156f 2f3c 5768 323b
00000080: a974 0cbb 78ed 11bc c608 923c 8e29 13bb
00000090: 2c89 5cba e9c8 643c 22c4 353c 8827 313a
000000a0: 258e ad3b 20bd 853c fd2b 1d3c de67 0c3b
000000b0: 7cd0 28bb ab18 0fbc 55c6 4abc b7f1 7f3c
000000c0: e7be 0c3b 1d9c 4dbc
-0.0038844314 -0.01359583 0.0073774927 -0.002941882 0.011010619 0.013438879 0.0 0.014396447
-0.00034982877 -0.0007959123 -0.010394096 0.0004335098 -0.0032390442 -0.012199316 -0.00017397915 0.003451507
-0.0101709245 0.031543873 0.0024150652 0.024482897 -0.0040399595 0.011791209 -0.021771051 -0.015224868
0.0 -0.009154637 -0.0019751035 0.013061477 -0.011369657 0.0036072405 0.010707636 0.0027222836
-0.002143184 -0.008906715 0.01782645 -0.0022455188 -0.0008412774 0.013963916 0.011094125 0.0006757905
0.005296486 0.016325533 0.009593007 0.0021424214 -0.0025759032 -0.008733909 -0.012376388 0.015621594
0.0021476091 -0.012549427

sequential/dense_2/BiasAdd/ReadVariableOp f4 [10]
00000000: 6cec ebbb 07a6 c33b dff3 633c d639 10bc
00000010: cb13 d2ba 7c38 d53c 060a 513c 6399 1a3c
00000020: 824b 3dbb 13b2 c2bb
-0.0071998145 0.0059707197 0.013913124 -0.008802852 -0.0016027627 0.02602791 0.012758737 0.009435984
-0.0028884117 -0.0059416383

sequential/dense_3/BiasAdd/ReadVariableOp f4 [2]
00000000: 104a cbbb 6035 113c
-0.0062038973 0.008862823

sequential/dense/BiasAdd/ReadVariableOp f4 [100]
00000000: f341 48bb 6566 c73b 6a53 1c3b c1d7 b1bb
00000010: f655 873b 2188 e93c e21a 7a3b 92ec 0c3d
00000020: 7ec4 80ba 235b 46bb dac4 f7ba 7186 fbbb
00000030: e605 61bb ea59 0eba 0a5f 573c b22a 2abc
00000040: 544e fb3b d916 df39 b6ba 463c d464 1abc
00000050: 9a2e 91bb ae08 f93b 0000 0000 baa5 033c
00000060: 0000 0000 04b0 d2bb 9ea2 e43b 04c6 6d3c
00000070: a052 bdbb 3538 a73c 7e91 3fbb bfef e83b
00000080: 0b73 e03b 9ae3 b73b f316 bbbb bdbe 34bc
00000090: 59a8 813b 57e0 8dbc f073 64bc e0a3 753c
000000a0: a31e d93b 2a45 07bc 0705 8a3c cb90 6cbc
000000b0: e809 843b 499d ca3c 2ea5 e1bb 609a 633c
000000c0: 706b 623b a9f2 c839 8bdc f2bb 6cb0 6cba
000000d0: 3694 853b f2b7 93bb 0ebb 733a 99b7 943a
000000e0: 0000 0000 cebb 943c 8553 e73c 0836 463a
000000f0: 98b3 0339 54a0 a4ba 3d7d 803c 428d a9bc
00000100: 8e91 3ebb 88d5 843a db9f 7bba ab83 c43b
00000110: 5117 86bb 27a6 73bc 4d49 d93a 3bde e1ba
00000120: 7ee2 2f3c 4ea6 13bb 2304 95bc f56b 2b3c
00000130: 7cb6 3d3c dacd 28bb 7df8 c2bb 09d5 71b9
00000140: e976 a83c 7c80 6bbb 02cc 35bc be06 9d3c
00000150: a0ed 283b 4138 683c e331 f739 bde8 193c
00000160: 4407 45bc 3fb3 7f3a 30ec 23bc 5dcf 04bc
00000170: 29d3 11bb b2cb 143a 13af cbba c74c 20bb
00000180: f07b 643a c301 103b 0000 0000 23dc 7fbc
-0.0030556887 0.0060852044 0.002385343 -0.005427331 0.0041301204 0.028507294 0.0038162996 0.0344053
-0.0009824184 -0.0030266724 -0.0018903271 -0.007675939 -0.003433579 -0.00054302684 0.013145218 -0.010386156
0.0076692495 0.00042550897 0.012129476 -0.009423453 -0.004430604 0.0075999117 0.0 0.008035118
0.0 -0.006429674 0.0069773933 0.014512543 -0.005777672 0.020412544 -0.0029231007 0.007108658
0.0068496517 0.005611849 -0.005709523 -0.011031804 0.003956836 -0.017318888 -0.013943657 0.014992684
0.0066259666 -0.008256236 0.0168481 -0.014438818 0.004029501 0.024733203 -0.006886146 0.013891786
0.00345489 0.0003832777 -0.0074115447 -0.00090289745 0.004076506 -0.004508012 0.00092975877 0.001134622
0.0 0.018155959 0.028238067 0.0007561152 0.00012560037 -0.0012559989 0.015684718 -0.02069724
-0.0029078457 0.0010134438 -0.00095987105 0.0059971414 -0.004092135 -0.014871157 0.0016577631 -0.0017232368
0.010735152 -0.0022529545 -0.01819045 0.010462751 0.011579152 -0.0025757463 -0.0059500323 -0.00023062913
0.020564513 -0.0035934737 -0.0110960025 0.019168254 0.00257764 0.014173568 0.0004714868 0.009393868
-0.012025658 0.0009754188 -0.010005042 -0.00810608 -0.0022251105 0.0005676105 -0.0015539847 -0.0024459825
0.0008715978 0.0021973706 0.0 -0.0156164495

sequential/conv1d/BiasAdd/ReadVariableOp f4 [24]
00000000: 2ab6 663c 2557 303c 2f7d 9b3c 9f5d 153c
00000010: ed77 b83c d87b 4b3b 6d0d ee3c 38b5 ba3c
00000020: db49 b5ba a919 d73c dbda 8ebc 1542 013b
00000030: 0f4c 633c b243 a13c 5b14 b13b cbc0 11ba
00000040: 39f5 3d3c 932c c9ba 9492 333c 5ece dd38
00000050: 79ca 63bc 30df 12bb f8d3 0d3d 25a7 99bb
0.014081517 0.010762964 0.01898059 0.009116559 0.022518123 0.0031049158 0.029059136 0.02279149
-0.0013831215 0.026257353 -0.017438343 0.0019723226 0.013873114 0.0196856 0.005404038 -0.00055600394
0.01159411 -0.0015348367 0.01096024 0.0001057654 -0.013903254 -0.0022410862 0.034625977 -0.0046891146

sequential/conv1d_1/BiasAdd/ReadVariableOp f4 [36]
00000000: 2ec6 413c 0000 0000 5701 543c baeb 603c
00000010: 9807 7bbb 58a5 8abc 6793 c13c 752d 323c
00000020: ee52 6239 ab5a d4ba ae59 d0bc e172 453c
00000030: 15ad 5b3c 19e8 643c 67ba c7bb 0826 78ba
00000040: 89b8 363c 31c4 943c e1f6 c93c 2499 923c
00000050: 8527 39bc c7b5 8f3a 6973 943c a862 3ebc
00000060: 052f 3b3c 1b47 be3c e3b0 b93b 8b23 bd3b
00000070: 34a0 20bb b659 1ebc 98eb 003c 10a2 1abc
00000080: cab5 9f3b 63fc 843c 0b07 a1bc 5278 38bb
0.011827035 0.0 0.012939773 0.013728077 -0.0038304087 -0.016924545 0.023629857 0.010875096
0.00021583933 -0.0016201338 -0.025433388 0.012051315 0.013407965 0.013971352 -0.006095219 -0.00094661163
0.011152395 0.018159958 0.024653854 0.017895289 -0.011300926 0.0010964208 0.018121438 -0.011620201
0.011424785 0.023227265 0.0056668385 0.0057720593 -0.002450955 -0.009664943 0.00786867 -0.009438053
0.004873966 0.016233629 -0.019656679 -0.0028147888

sequential/conv1d_2/BiasAdd/ReadVariableOp f4 [48]
00000000: 6450 153c cb46 8d3c 518b c33c 13e5 0abc
00000010: a2a9 533c 6495 49bc 3757 963b 610b 513c
00000020: ed11 c4bb 03d8 8e3c 5508 29bc 6c4d 0f3d
00000030: 0a09 6bba 0000 0000 0d0d 4dba c650 223c
00000040: 62e0 fe3b f6c2 b2bb 5229 b13c b840 cb38
00000050: 68ba 5f3c 80be ae3c c184 6d3b ef60 183a
00000060: dfce 103b d9c8 803c 194d b13b 930f 80bc
00000070: 0c63 523c 1129 0dbb d26a d83c 5654 2bbb
00000080: 196c 0bbc f1c8 643c d581 48bc 2629 eb3b
00000090: ecec 31ba c78d ed3c f41c bcbb 7527 363c
000000a0: 7038 2b3c 9e01 1d3c 4d72 1dbc fa20 ac3b
000000b0: 607c 57bc 5a86 58bc 3077 9e3c 8fbf fd3b
0.009113405 0.01724567 0.023870142 -0.008477467 0.012918862 -0.012303684 0.0045880335 0.012759061
-0.005983582 0.017436987 -0.010316928 0.034985945 -0.00089658855 0.0 -0.0007822074 0.009906953
0.0077782134 -0.00545537 0.021626148 9.691849e-05 0.013655283 0.021331072 0.0036242458 0.0005812784
0.002209596 0.015720772 0.005410802 -0.015632426 0.012840997 -0.002153937 0.026418123 -0.0026142797
-0.008509659 0.013963924 -0.012237986 0.007176536 -0.0006787318 0.028998269 -0.005740756 0.011117806
0.0104504675 0.009582905 -0.009609771 0.0052529546 -0.013152212 -0.013215626 0.019343942 0.007743783

sequential/conv1d_3/BiasAdd/ReadVariableOp f4 [64]
00000000: f570 d8bb ef7b 3bbb 9809 ce3b 6f22 3a3c
00000010: 5471 a4bb 2f89 743c 7bd8 31bc d82b 64b7
00000020: 2a0f 26bb 24a1 333c 7d47 6fb9 7d8d b039
00000030: 110f 2a3c 2b78 f23b 8e58 9e3c 04b7 3dbc
00000040: 7559 9fbb e3ce b03c 9115 213c 382d c2b9
00000050: 4f9f b23c 37e4 63bb 86c8 ac3c 0000 0000
00000060: 0000 0000 0000 0000 05c3 4e3b d4db 0f3d
00000070: 59ff 913a 23a8 34bb 6c1c 503c 5bba 3138
00000080: 63a8 8ebc 13c2 21bb 82ac 18bc a063 213c
00000090: 62a5 3bbb 055e 563a 095b 003b c297 86bb
000000a0: 460d 8ab9 34a7 043c c035 43ba 17fe cbb8
000000b0: e361 71bb a615 fcbb 1b89 bf3b 8250 d8bb
000000c0: 8346 213c 559f c43b 5af7 533b d925 c63b
000000d0: 19a3 3a3b 0198 f0b9 be05 c4bb 2d09 7dbb
000000e0: 7f42 feba 919e 2d3c f325 1a3a 336a d13c
000000f0: f6a5 4839 a380 d43b bfa7 f93b 2c08 4bbb
-0.0066052624 -0.0028607806 0.0062877648 0.011360749 -0.0050183926 0.014925285 -0.010854836 -1.3600067e-05
-0.0025338628 0.010963712 -0.00022819448 0.00033674753 0.010379569 0.007399579 0.019329336 -0.011579279
-0.004862959 0.021583026 0.009831802 -0.00037036254 0.02180448 -0.0034773478 0.02109171 0.0
0.0 0.0 0.0031549346 0.035121754 0.0011138722 -0.0027566038 0.012702089 4.2373646e-05
-0.017414277 -0.0024682328 -0.009318473 0.009850413 -0.0028632511 0.0008177462 0.0019585511 -0.0041074464
-0.000263313 0.008096505 -0.0007446669 -9.727122e-05 -0.0036832027 -0.0076930104 0.0058452017 -0.006601394
0.009843471 0.006000439 0.0032343478 0.0060469923 0.0028478561 -0.0004588962 -0.00598213 -0.0038610206
-0.001939848 0.010596887 0.00058802887 0.025563335 0.00019135312 0.0064850613 0.007618874 -0.0030980213

sequential/conv1d_4/BiasAdd/ReadVariableOp f4 [64]
00000000: 7929 683c b130 72bb 800d b2b9 fcea d3ba
00000010: 2916 80bc 4bac 933a c48c 25bb 12af 9b3a
00000020: a4fc 0b3c bd68 393b d64a 4ebc 1052 7abc
00000030: 3e89 a5bb 6eaf 3d3a ed11 49bb 9126 d73b
00000040: 6ce4 0f3a 2607 f83b 7a8a c0bc ad15 1dbc
00000050: 4754 513c 0238 bbbb 3756 4f3b 5e1c 843c
00000060: 203d a2bb 43f0 bab9 7fca be39 2359 b43c
00000070: 9bca c6bb 67ad 953c d77e 47bc 0356 54bc
00000080: 56cc 913c 4a84 ff3a 493a ae3c 31b6 5a3b
00000090: 30d0 703b b913 17ba 9e65 8dbb c99a 293c
000000a0: 8d4b c03b 79fe 63bb 0000 0000 024c 573c
000000b0: 13bd 80bb bdfe 1f3c e989 ca3a 1335 823c
000000c0: 0243 22bc 8978 2c3b 1974 44bb dbbf 5bbc
000000d0: ed39 6bbb 5d9c a63b 5053 1a35 f23a 1b3c
000000e0: 6487 333b d0a0 133b 2f79 053b c786 913c
000000f0: 71af 073c 6b5a 26bb ffac 823a b028 e03a
0.014170044 -0.0036955292 -0.00033960864 -0.0016168053 -0.015635567 0.0011266557 -0.0025260905 0.0011877737
0.008544121 0.0028291189 -0.012591084 -0.015278354 -0.005051761 0.0007235919 -0.003068085 0.006565877
0.00054890546 0.0075692115 -0.02350353 -0.009587687 0.012776441 -0.0057134638 0.0031637081 0.016126808
-0.0049511343 -0.00035655694 0.00036390495 0.02201516 -0.006066633 0.018271161 -0.012176237 -0.01295996
0.01779763 0.0019494381 0.021268027 0.0033372755 0.0036745183 -0.0005763132 -0.004315092 0.010351845
0.0058683814 -0.0034789129 0.0 0.01314068 -0.0039287894 0.009765324 0.0015452477 0.015894448
-0.009903671 0.0026316962 -0.0029976426 -0.013412441 -0.003589268 0.005084558 5.7490706e-07 0.009474503
0.0027393932 0.0022526272 0.002036642 0.017764462 0.008281575 -0.0025383483 0.000996977 0.001710197

sequential/conv1d/Conv1D f4 [24, 1, 10, 1]
00000000: 6802 eb3c 9908 65bc 1e2c 113e 0805 083c
00000010: eb26 9e3b 1314 b83d a351 73bd fafb e03d
00000020: e9cd b53a 5c7c e83d c018 89bc 903d e7bd
00000030: c591 d4bc 880f c33d 4b7f 223e 259b 173e
00000040: 76fb d0bd e5c6 7e3d ebb8 133e cec3 173d
00000050: 961d f2bd a1d4 aa3c 43bc b43c e086 1d3e
00000060: 841d fa3d aad9 58bc 0ec6 01be a459 f93d
00000070: 4f48 c83d 60cf 6bbd 7dab 05be 0f40 dfbc
00000080: 5ac6 a13c 1ae7 223d da34 bd3c 8dc1 883d
00000090: e342 2fbb 0f46 f73d 1f16 ee3d ce3e 243b
000000a0: 19a8 f1b8 ff44 193d 8f29 95bd 4620 a83c
000000b0: 49d7 84bd 269c 48bd 3caa 073d d5a4 243e
000000c0: 7793 12bd 8661 13be 20f5 0bbe 9dc2 e8bd
000000d0: d070 46bd 4916 be3d d1e9 023e 2b9b 263e
000000e0: ac62 83bd 5550 fc3c 9ba0 d5bd 4590 75bd
000000f0: 661d f63d baec d0bb b437 b4bd 15c8 b33c
00000100: aa55 d6bd 03eb d4bd 1a8c 2e3e fdda fbbd
00000110: 0294 5dbd 45d8 f8bd 99c2 6e3d 3ffb 1cba
00000120: 8744 acbc 1265 35bd fea7 163e d887 963d
00000130: 085c 0f3e 8091 99bd 538b 103d de13 533d
00000140: 6555 163e be7d 153c c035 203e 40a1 80bd
00000150: b9e8 0c3e fecd 093e 754e 913c 7f94 68bd
00000160: 623e 8b3d 2d73 9b3c 255d 82bc 1fc2 bc3d
00000170: 1d6b 91bd 5c56 8abd 3121 183e 8172 dc3d
00000180: 76e7 98bd e56c 5ebd 6a40 bebd ae68 193e
00000190: df54 07bd e843 babd 53d2 8d3d 702a 6fba
000001a0: dc4c 093d d572 f83c f27e a03c 8314 da3d
000001b0: 8bbe 8c3c 1df5 1dbe 107d 733d 605f f83d
000001c0: e6af a03c bfff 1abe 9f1a 1c3e 1dc6 20be
000001d0: 8f4d 9c3d 09db 6ebc b33f 8d3d 8ba6 cebd
000001e0: f6bb 913d 2571 fe3d 7228 da3d 36b4 033e
000001f0: 3eab 433d 4c85 72bc 3967 af3d e38f fc3d
00000200: 06f1 e6bc 393e a8bd 5a94 15bd d5e1 33bd
00000210: 7e6e 093e 8892 173e 67bb a9bd a0e1 1a3e
00000220: 7e6e 9e3d ca72 183e a3f5 c2bd f176 bf3d
00000230: b942 18be 42b5 db3b 408e 553d 8111 f2bd
00000240: 2418 dfbc 7705 d6bd 5513 f9bc 521c cf3d
00000250: b650 1e3e 3405 8f3c d1b6 003e 33b5 c6bd
00000260: ead5 ebbd 0a1c 033e 40bf 02be d6dd 1e3e
00000270: 047b 3e3d 9f41 c7bd cfba 0c3d 662d acbd
00000280: 2b57 0fbe 4bae 9cbd c961 2f3c 87d2 d2bd
00000290: b5d5 90bd 1514 97bd 9eca aebd ca54 873d
000002a0: bf13 023e 2fde 05be 8ecb 17be 8424 833d
000002b0: 0ba2 043c 93ea 97bd c253 58bd a772 383c
000002c0: 1634 f13d fa46 d4bd 59b8 a23d da77 51bb
000002d0: a7e8 583d 8c46 7f3d c633 abbd 06bb a83c
000002e0: 5e2a bc3d 8fce 1c3e b0ee 07be 2ecf 87ba
000002f0: 2053 7a3d 66aa c03d 975f 23bd 9ab9 de3d
00000300: f773 8fbd 7b88 8bbb 6b7d 17be 816c b93d
00000310: 629e c63d e33f 06bd 9b07 d1bc dc1a aa3c
00000320: 78ff 003e d182 0abe 4411 c23c aab3 cdbd
00000330: 26c3 02be e34c d53d 7018 0e3e 3bdc e4bd
00000340: c6ce 0c3e 7984 83bd 6f9f 8b3c c08c bbba
00000350: 6b70 c1bd dc4c 4a3c 5cfe 053e 3c3a bdbd
00000360: 6d53 b4bd 6083 1dbe 93bf 09be 381e 70bd
00000370: e528 8a3d 0026 95bd 7a02 da3d 2432 c53d
00000380: 926c 703d 4e3d f7bc 65f2 f43c 03d7 0fbe
00000390: 3727 a1bd 3689 243e 098e 8e3b 8b90 11be
000003a0: 6e8a 103e 0a66 123d a497 123e 987d 86bc
000003b0: 3615 bbbd 713c 0e3e a05d 0c3e a616 033e
0.02868767 -0.013979101 0.14176986 0.008301981 0.0048264167 0.08988204 -0.059404027 0.10985561
0.001387057 0.11351845 -0.016735435 -0.11291039 -0.025948415 0.09524447 0.15868871 0.14805277
-0.10204212 0.0622014 0.1442601 0.03705197 -0.11822049 0.020853342 0.022062426 0.15383482
0.12212661 -0.013235489 -0.12673208 0.12175301 0.09779417 -0.057570815 -0.13053699 -0.027252225
0.019747902 0.039771177 0.02309649 0.06677542 -0.0026742748 0.120739095 0.11625313 0.0025061849
-0.00011523086 0.037419315 -0.07283317 0.020523202 -0.06486375 -0.04897704 0.033121333 0.16078503
-0.035785165 -0.14392671 -0.13667727 -0.113652445 -0.04844743 0.09281594 0.12784506 0.1627013
-0.064153045 0.030800024 -0.10431024 -0.05995204 0.12017326 -0.0063758763 -0.08799687 0.021945992
-0.10465558 -0.103963874 0.17045632 -0.12297628 -0.05409623 -0.12150625 0.05829105 -0.00059883663
-0.02102877 -0.04428584 0.14712521 0.07350129 0.13999951 -0.07498455 0.03528912 0.05153262
0.14681013 0.009124218 0.15645504 -0.06280756 0.13760652 0.13457486 0.017737607 -0.056782242
0.06799008 0.018975819 -0.015913555 0.09216713 -0.07100508 -0.06754753 0.14856412 0.107640274
-0.07466023 -0.05430307 -0.0928963 0.14981338 -0.033039924 -0.09094983 0.06924882 -0.000912345
0.033520564 0.030328194 0.019591782 0.106484435 0.017180702 -0.15425535 0.05944544 0.12127566
0.019615125 -0.15136622 0.1524453 -0.15700574 0.07631981 -0.014578589 0.06896915 -0.10090359
0.07115929 0.12423924 0.106522456 0.12861714 0.04777073 -0.014802288 0.0856461 0.12332132
-0.0281911 -0.08214993 -0.036518432 -0.043916542 0.13421056 0.14801991 -0.08287697 0.15125132
0.077359185 0.14887539 -0.09519508 0.09348858 -0.14869203 0.006704957 0.052137613 -0.11819745
-0.02723319 -0.10450261 -0.030404726 0.101128235 0.15460476 0.017458536 0.12569739 -0.0970253
-0.1151541 0.12803665 -0.12768269 0.15514311 0.046504036 -0.09729313 0.034357842 -0.084070966
-0.13998096 -0.07650431 0.010704466 -0.10294061 -0.070720114 -0.07376877 -0.0853474 0.06607969
0.12702845 -0.13073038 -0.14823744 0.06403449 0.008095275 -0.07417788 -0.052814253 0.011257804
0.11777513 -0.103651 0.07945318 -0.0031962306 0.05295625 0.062323138 -0.083594844 0.020596992
0.091877684 0.15313171 -0.13274646 -0.0010361427 0.06111443 0.09407501 -0.039886083 0.108752444
-0.070045404 -0.004258213 -0.14793937 0.090538986 0.09698178 -0.03277577 -0.025516322 0.02076476
0.12597454 -0.13526465 0.023689874 -0.10044034 -0.12769756 0.104150556 0.1387651 -0.11174818
0.13750753 -0.064217515 0.017043797 -0.0014308915 -0.0944527 0.012347426 0.13085312 -0.09239623
-0.08804975 -0.15382147 -0.13451986 -0.05862257 0.06746081 -0.072826385 0.106450036 0.09628704
0.05869729 -0.0301806 0.029900739 -0.14046864 -0.07868808 0.16067967 0.004350428 -0.14215295
0.14115307 0.035741843 0.14315659 -0.01641731 -0.09134905 0.13890244 0.1370759 0.12801608

sequential/conv1d_1/Conv1D i1 [36, 1, 8, 24]
00000000: 12b8 04fa 229b bbca 40dc fdda b32c 47e7
00000010: d0b5 f5a5 43a8 03e5 0ba4 4e99 124f 8ed4
00000020: d8d7 1218 2641 2ee8 ef9e cc32 3524 e5f9
00000030: a4c7 d34c 56f6 3706 ade0 351f b33e bcae
00000040: cf12 55c2 c814 5727 1811 8bc5 54a6 3437
00000050: 25d1 0ec6 11cd 432f aa45 e02c 75aa 6d4a
00000060: ed0d abce 263e e04c 435a 32e6 1ca3 3afa
00000070: 23bf 57f7 afa9 d3d2 3dff 9a40 2fde 195b
00000080: 454a 5951 11d0 4435 a2d3 a57f c000 8cfa
00000090: dcd5 18f2 4243 d1dc 0412 c5d6 1ac0 1951
000000a0: 3557 bba4 2d05 3bf0 9ac0 d2b1 51a4 3863
000000b0: 1463 446f 9930 b712 e810 a701 43d9 df42
000000c0: f8b5 c919 8697 b500 e912 6a3c 84ec 3cd0
000000d0: 9ff2 cdff ccec 3bb4 6ad9 bf60 3ae7 5f4f
000000e0: d0ef 5b30 0ded fb0f 7107 671e 45d6 cae0
000000f0: 65cd c3c3 6021 1303 cc1e 7a1b 238a 5283
18 -72 4 -6 34 -101 -69 -54
64 -36 -3 -38 -77 44 71 -25
-48 -75 -11 -91 67 -88 3 -27
11 -92 78 -103 18 79 -114 -44
-40 -41 18 24 38 65 46 -24
-17 -98 -52 50 53 36 -27 -7
-92 -57 -45 76 86 -10 55 6
-83 -32 53 31 -77 62 -68 -82
-49 18 85 -62 -56 20 87 39
24 17 -117 -59 84 -90 52 55
37 -47 14 -58 17 -51 67 47
-86 69 -32 44 117 -86 109 74
-19 13 -85 -50 38 62 -32 76
67 90 50 -26 28 -93 58 -6
35 -65 87 -9 -81 -87 -45 -46
61 -1 -102 64 47 -34 25 91
69 74 89 81 17 -48 68 53
-94 -45 -91 127 -64 0 -116 -6
-36 -43 24 -14 66 67 -47 -36
4 18 -59 -42 26 -64 25 81
53 87 -69 -92 45 5 59 -16
-102 -64 -46 -79 81 -92 56 99
20 99 68 111 -103 48 -73 18
-24 16 -89 1 67 -39 -33 66
-8 -75 -55 25 -122 -105 -75 0
-23 18 106 60 -124 -20 60 -48
-97 -14 -51 -1 -52 -20 59 -76
106 -39 -65 96 58 -25 95 79
-48 -17 91 48 13 -19 -5 15
113 7 103 30 69 -42 -54 -32
101 -51 -61 -61 96 33 19 3
-52 30 122 27 35 -118 82 -125

sequential/conv1d_2/Conv1D i1 [48, 1, 4, 36]
00000000: 339a 7fa7 ed2d f91c b9be 0bf9 87ad ffcf
00000010: b327 18a8 63dc fcb7 e3e3 2bdc 9677 ab46
00000020: 72d8 eb47 ba2f 4866 1907 a424 daf3 eae6
00000030: 6c43 e21e 2373 a5b3 ffe9 61ae 0404 1863
00000040: 040d 43d1 70c6 edd3 c113 a9ed bdf1 5ab6
00000050: 7c50 a5a4 f6d7 146c a3c4 fda9 3cee fe17
00000060: 5324 9a5e fbfd 0f04 c8e3 cceb 332f 7ba3
00000070: ef65 2319 53b2 f2fc 00e6 b4d3 d425 3526
00000080: 13d9 fce8 f9ad 7c42 c8fd c004 7c52 3328
00000090: c63b 1226 1ce3 41ce c7af 1854 0d71 b5f2
000000a0: 18b9 3a51 fbaf 5cc5 b8e1 e3f6 c754 3876
000000b0: 01f5 dd27 c02a 28db 4852 60f5 d2bd ecbe
000000c0: c9c6 1a5f de3c f54a 2bea b24d c7ba f7ca
000000d0: c82f ef56 57be ffe2 b1cf daa2 3aeb bb11
000000e0: da48 b118 697f 7211 2d0f d7a6 eba4 64cc
000000f0: 415f b1df 1ce4 5333 1fbb a2af 0854 656d
51 -102 127 -89 -19 45 -7 28
-71 -66 11 -7 -121 -83 -1 -49
-77 39 24 -88 99 -36 -4 -73
-29 -29 43 -36 -106 119 -85 70
114 -40 -21 71 -70 47 72 102
25 7 -92 36 -38 -13 -22 -26
108 67 -30 30 35 115 -91 -77
-1 -23 97 -82 4 4 24 99
4 13 67 -47 112 -58 -19 -45
-63 19 -87 -19 -67 -15 90 -74
124 80 -91 -92 -10 -41 20 108
-93 -60 -3 -87 60 -18 -2 23
83 36 -102 94 -5 -3 15 4
-56 -29 -52 -21 51 47 123 -93
-17 101 35 25 83 -78 -14 -4
0 -26 -76 -45 -44 37 53 38
19 -39 -4 -24 -7 -83 124 66
-56 -3 -64 4 124 82 51 40
-58 59 18 38 28 -29 65 -50
-57 -81 24 84 13 113 -75 -14
24 -71 58 81 -5 -81 92 -59
-72 -31 -29 -10 -57 84 56 118
1 -11 -35 39 -64 42 40 -37
72 82 96 -11 -46 -67 -20 -66
-55 -58 26 95 -34 60 -11 74
43 -22 -78 77 -57 -70 -9 -54
-56 47 -17 86 87 -66 -1 -30
-79 -49 -38 -94 58 -21 -69 17
-38 72 -79 24 105 127 114 17
45 15 -41 -90 -21 -92 100 -52
65 95 -79 -33 28 -28 83 51
31 -69 -94 -81 8 84 101 109

sequential/conv1d_3/Conv1D i1 [64, 1, 3, 48]
00000000: 591c abbc ed14 4027 b3ba b6b7 e62f da12
00000010: 26a2 3ed5 37ae c353 fbcd c924 27e7 cbe5
00000020: 4ab0 fa51 2afd fcf2 07d2 f235 d825 4334
00000030: 1fd4 3126 cbf1 1b2b d51d 2552 36df bf62
00000040: 4460 13fe 5218 20a3 525d 5bee 63b7 97bd
00000050: e1f0 d25a ddbb db2e 29cd 1b1f 2243 d7ce
00000060: dba0 44be 30aa 484d fd9f cdc8 f2d4 3881
00000070: 29d4 5bfc 28b6 2cc5 cbda d5d2 2b18 d6fb
00000080: 3027 b84b 0844 c2f7 510c 1ee3 4229 ef0c
00000090: 0854 2d47 c391 ab42 eba0 6ce7 3d4b ab11
000000a0: c4df a5b9 5f29 6b67 bb90 b1c7 5e1c f639
000000b0: fb9e 4000 1f61 e5ba f2ed 00de 9f59 e9d0
000000c0: 373a 52ef cac0 a0c3 d115 0060 5602 2ab7
000000d0: 58c6 ad46 960a 9446 a6fb fa8f 7cce c999
000000e0: b7c2 e9d1 a4f0 9a8c 031e 04b1 dc30 c434
000000f0: 542a 1219 dff8 a901 56f1 9501 4811 6aa8
89 28 -85 -68 -19 20 64 39
-77 -70 -74 -73 -26 47 -38 18
38 -94 62 -43 55 -82 -61 83
-5 -51 -55 36 39 -25 -53 -27
74 -80 -6 81 42 -3 -4 -14
7 -46 -14 53 -40 37 67 52
31 -44 49 38 -53 -15 27 43
-43 29 37 82 54 -33 -65 98
68 96 19 -2 82 24 32 -93
82 93 91 -18 99 -73 -105 -67
-31 -16 -46 90 -35 -69 -37 46
41 -51 27 31 34 67 -41 -50
-37 -96 68 -66 48 -86 72 77
-3 -97 -51 -56 -14 -44 56 -127
41 -44 91 -4 40 -74 44 -59
-53 -38 -43 -46 43 24 -42 -5
48 39 -72 75 8 68 -62 -9
81 12 30 -29 66 41 -17 12
8 84 45 71 -61 -111 -85 66
-21 -96 108 -25 61 75 -85 17
-60 -33 -91 -71 95 41 107 103
-69 -112 -79 -57 94 28 -10 57
-5 -98 64 0 31 97 -27 -70
-14 -19 0 -34 -97 89 -23 -48
55 58 82 -17 -54 -64 -96 -61
-47 21 0 96 86 2 42 -73
88 -58 -83 70 -106 10 -108 70
-90 -5 -6 -113 124 -50 -55 -103
-73 -62 -23 -47 -92 -16 -102 -116
3 30 4 -79 -36 48 -60 52
84 42 18 25 -33 -8 -87 1
86 -15 -107 1 72 17 106 -88

sequential/conv1d_4/Conv1D i1 [64, 1, 3, 64]
00000000: 9de7 54d8 9417 4764 0415 30ae 7b42 a1fc
00000010: 16ee c943 48e7 ac61 2db0 e6fe 152d 35d6
00000020: 3207 8dd3 0127 ddc9 23bb d79d c72d a355
00000030: f031 179f e5b5 2464 2e2d 4db9 3343 afd8
00000040: c530 a70c 0fce 19bd 0d74 2112 5cde c5fc
00000050: 65e5 0c3b 481f c6ef e90b b6c4 e00a 5b8f
00000060: d44e 4dcf f05f fa63 dc0b 28a0 f65d e76e
00000070: 2337 e627 6269 4ccb fac3 c0d9 ca3d 9eab
00000080: 55f0 fbf6 c3ba b671 ad47 03da 0e4b 2a51
00000090: 5352 35a4 f560 c7b8 3a58 e4e9 3044 2854
000000a0: ddb6 afa0 abdc cf2a 4348 a132 200d de59
000000b0: c0b6 b923 ac01 a8d9 52a5 d17f 5b5d 11c8
000000c0: 9f11 ff8b 4773 9c29 1322 3cfb 54dc d030
000000d0: 1914 33cc fba1 8123 250d 9c0a f360 3012
000000e0: 5fb2 c54c 9a53 44f8 4896 c7fa 4210 27ec
000000f0: e65b 2b02 b05b 58f8 f5b3 dfa6 05f8 def3
-99 -25 84 -40 -108 23 71 100
4 21 48 -82 123 66 -95 -4
22 -18 -55 67 72 -25 -84 97
45 -80 -26 -2 21 45 53 -42
50 7 -115 -45 1 39 -35 -55
35 -69 -41 -99 -57 45 -93 85
-16 49 23 -97 -27 -75 36 100
46 45 77 -71 51 67 -81 -40
-59 48 -89 12 15 -50 25 -67
13 116 33 18 92 -34 -59 -4
101 -27 12 59 72 31 -58 -17
-23 11 -74 -60 -32 10 91 -113
-44 78 77 -49 -16 95 -6 99
-36 11 40 -96 -10 93 -25 110
35 55 -26 39 98 105 76 -53
-6 -61 -64 -39 -54 61 -98 -85
85 -16 -5 -10 -61 -70 -74 113
-83 71 3 -38 14 75 42 81
83 82 53 -92 -11 96 -57 -72
58 88 -28 -23 48 68 40 84
-35 -74 -81 -96 -85 -36 -49 42
67 72 -95 50 32 13 -34 89
-64 -74 -71 35 -84 1 -88 -39
82 -91 -47 127 91 93 17 -56
-97 17 -1 -117 71 115 -100 41
19 34 60 -5 84 -36 -48 48
25 20 51 -52 -5 -95 -127 35
37 13 -100 10 -13 96 48 18
95 -78 -59 76 -102 83 68 -8
72 -106 -57 -6 66 16 39 -20
-26 91 43 2 -80 91 88 -8
-11 -77 -33 -90 5 -8 -34 -13

sequential/dense/MatMul i1 [100, 128] scale=0.0016177363 zero_point=0
00000000: b03e f821 f7f9 0346 cf15 4431 035f 4d05
00000010: e853 b557 550c 9fdc cacb cbc5 1e02 45ae
00000020: f84b fc27 2c4d 515c f4f4 e935 fcf7 4943
00000030: eb0f 9ef5 2f33 17bd 5ec0 d49e bda5 bb93
00000040: 155b 39cc 2f0e 03f2 fd55 b1d6 20c6 a742
00000050: b9f8 c306 0ce9 63ed b3a0 b9e5 a334 d39d
00000060: f817 fedc fd55 50d2 b4c0 5015 bbcc a808
00000070: 2aa0 a7cd b1f9 d2da 5b48 36e8 e3ca e79d
00000080: 4419 2b16 d53a 4c35 c1b6 6144 b85e e92b
00000090: 2014 2da6 51b2 2130 1002 003a 442e c210
000000a0: 955d 5fb8 12b3 f55d c50e c267 43ed b01c
000000b0: 024a 555e ad5c 2f2c a8da 1708 2efd 0513
000000c0: 42ee 03e1 60be 0fca 25d6 f71a ce33 36f3
000000d0: 4ec9 3337 443a 2d4b 5c55 eb29 f608 f655
000000e0: c1a6 682f d9cc db16 0eec 5763 ec34 452e
000000f0: 4f19 aa32 b9a9 e03b 0bc0 a300 00bc bac5
-0.12941891 0.10029965 -0.01294189 0.0533853 -0.014559627 -0.011324154 0.004853209 0.11324154
-0.07926908 0.03397246 0.11000607 0.07926908 0.004853209 0.15368494 0.1245657 0.008088682
-0.038825672 0.13427211 -0.121330224 0.14074306 0.13750759 0.019412836 -0.15692042 -0.058238506
-0.08735776 -0.08574002 -0.08574002 -0.095446445 0.048532087 0.0032354726 0.1116238 -0.13265438
-0.01294189 0.121330224 -0.006470945 0.06309172 0.071180396 0.1245657 0.13103664 0.14883174
-0.019412836 -0.019412836 -0.037207935 0.08574002 -0.006470945 -0.014559627 0.11809475 0.108388335
-0.03397246 0.024266044 -0.15853816 -0.017795099 0.07603361 0.08250455 0.037207935 -0.108388335
0.15206721 -0.10353512 -0.071180396 -0.15853816 -0.108388335 -0.14721401 -0.1116238 -0.17633326
0.03397246 0.14721401 0.09221097 -0.084122285 0.07603361 0.022648308 0.004853209 -0.022648308
-0.004853209 0.13750759 -0.12780116 -0.06794492 0.05176756 -0.09382871 -0.14397854 0.1067706
-0.114859276 -0.01294189 -0.09868191 0.009706418 0.019412836 -0.037207935 0.16015589 -0.03073699
-0.1245657 -0.15530269 -0.114859276 -0.04367888 -0.15044947 0.084122285 -0.07279813 -0.16015589
-0.01294189 0.037207935 -0.0032354726 -0.058238506 -0.004853209 0.13750759 0.12941891 -0.07441587
-0.12294796 -0.10353512 0.12941891 0.03397246 -0.1116238 -0.084122285 -0.14236079 0.01294189
0.06794492 -0.15530269 -0.14397854 -0.08250455 -0.12780116 -0.011324154 -0.07441587 -0.06147398
0.14721401 0.11647701 0.08735776 -0.038825672 -0.046914354 -0.08735776 -0.04044341 -0.16015589
0.11000607 0.04044341 0.06956266 0.035590198 -0.06956266 0.09382871 0.12294796 0.08574002
-0.101917386 -0.11971249 0.15692042 0.11000607 -0.11647701 0.15206721 -0.037207935 0.06956266
0.05176756 0.032354727 0.07279813 -0.14559627 0.13103664 -0.12618344 0.0533853 0.077651344
0.02588378 0.0032354726 0.0 0.09382871 0.11000607 0.07441587 -0.10029965 0.02588378
-0.17309779 0.15044947 0.15368494 -0.11647701 0.029119253 -0.1245657 -0.017795099 0.15044947
-0.095446445 0.022648308 -0.10029965 0.16662684 0.108388335 -0.03073699 -0.12941891 0.045296617
0.0032354726 0.11971249 0.13750759 0.15206721 -0.13427211 0.14883174 0.07603361 0.071180396
-0.14236079 -0.06147398 0.037207935 0.01294189 0.07441587 -0.004853209 0.008088682 0.03073699
0.1067706 -0.029119253 0.004853209 -0.050149824 0.15530269 -0.1067706 0.024266044 -0.08735776
0.059856243 -0.06794492 -0.014559627 0.042061143 -0.08088682 0.08250455 0.08735776 -0.021030571
0.12618344 -0.0889755 0.08250455 0.0889755 0.11000607 0.09382871 0.07279813 0.121330224
0.14883174 0.13750759 -0.03397246 0.06632719 -0.016177364 0.01294189 -0.016177364 0.13750759
-0.101917386 -0.14559627 0.16824457 0.07603361 -0.06309172 -0.084122285 -0.059856243 0.035590198
0.022648308 -0.032354727 0.14074306 0.16015589 -0.032354727 0.084122285 0.1116238 0.07441587
0.12780116 0.04044341 -0.13912532 0.08088682 -0.114859276 -0.14074306 -0.05176756 0.095446445
0.017795099 -0.10353512 -0.15044947 0.0 0.0 -0.11000607 -0.11324154 -0.095446445

sequential/dense_1/MatMul i1 [50, 100] scale=0.0019577492 zero_point=0
00000000: eaac 2010 5c01 30fa d6d3 5d2f d5cc d449
00000010: 44b3 9e31 04b2 eb04 a29a abae 5729 4db7
00000020: 11d0 45b6 de54 dadf a134 6089 bd00 dab6
00000030: fa2d fb0c c1f4 dcb2 f4cf 4df3 1732 4b1e
00000040: b364 ba2f d4c9 4bb8 1bb9 591f 2f9d 9a2f
00000050: 1a45 eeea 4c4c ab2f 27f3 46f7 134f ad31
00000060: 365a b796 d49e 595d bb30 d1e2 fc9e 39f4
00000070: 56b5 c029 d921 b80a 2115 be3f 4927 07f2
00000080: cef6 ae46 e525 39fb 3963 729e 0568 e895
00000090: 581b 3443 16b3 060b e54c a6e4 d640 97f9
000000a0: 9e11 d266 653d 90ad 9eed a2a9 6131 55c0
000000b0: 57b4 5f0f c6ab 46f6 bb37 d9d4 af23 4202
000000c0: 2819 ddb1 3aa7 38a7 b1e2 4d36 f79b 9507
000000d0: 3e5b 6349 ca91 21ca 22d0 60b5 b240 0463
000000e0: cdb1 c4fa 07f8 b322 0071 403d 5c00 53ed
000000f0: 1c4a 3d30 06d2 b1e6 b3ac acee 2116 5524
-0.043070484 -0.16445094 0.062647976 0.031323988 0.18011293 0.0019577492 0.09397197 -0.011746496
-0.08222547 -0.08809872 0.18207069 0.092014216 -0.084183216 -0.10180296 -0.08614097 0.1429157
0.13312694 -0.15074669 -0.19185942 0.09592971 0.007830997 -0.15270445 -0.041112736 0.007830997
-0.18402843 -0.19969042 -0.16640869 -0.16053544 0.17032419 0.08026772 0.15074669 -0.1429157
0.033281736 -0.09397197 0.1350847 -0.14487344 -0.06656347 0.16445094 -0.07439447 -0.06460573
-0.18598618 0.10180296 0.18794394 -0.23297216 -0.1311692 0.0 -0.07439447 -0.14487344
-0.011746496 0.08809872 -0.009788746 0.023492992 -0.1233382 -0.023492992 -0.070478976 -0.15270445
-0.023492992 -0.09592971 0.15074669 -0.02545074 0.045028232 0.097887464 0.1468312 0.058732476
-0.15074669 0.19577493 -0.13704245 0.092014216 -0.08614097 -0.10767621 0.1468312 -0.14095795
0.052859228 -0.13900019 0.17423968 0.060690228 0.092014216 -0.19381717 -0.19969042 0.092014216
0.05090148 0.1350847 -0.035239488 -0.043070484 0.14878894 0.14878894 -0.16640869 0.092014216
0.076352224 -0.02545074 0.13704245 -0.017619744 0.037197236 0.15466219 -0.16249318 0.09592971
0.105718456 0.17619744 -0.1429157 -0.20752142 -0.08614097 -0.19185942 0.17423968 0.18207069
-0.1350847 0.09397197 -0.092014216 -0.058732476 -0.007830997 -0.19185942 0.111591704 -0.023492992
0.16836643 -0.1468312 -0.12529595 0.08026772 -0.076352224 0.06460573 -0.14095795 0.019577492
0.06460573 0.041112736 -0.12921146 0.1233382 0.1429157 0.076352224 0.013704245 -0.02740849
-0.097887464 -0.019577492 -0.16053544 0.13704245 -0.052859228 0.07243672 0.111591704 -0.009788746
0.111591704 0.19381717 0.22318341 -0.19185942 0.009788746 0.20360592 -0.046985984 -0.20947917
0.17228194 0.052859228 0.10180296 0.1311692 0.043070484 -0.15074669 0.011746496 0.021535242
-0.052859228 0.14878894 -0.17619744 -0.05481698 -0.08222547 0.12529595 -0.20556366 -0.013704245
-0.19185942 0.033281736 -0.090056464 0.19969042 0.19773267 0.119422704 -0.21926792 -0.16249318
-0.19185942 -0.037197236 -0.18402843 -0.17032419 0.18990168 0.09592971 0.16640869 -0.12529595
0.17032419 -0.14878894 0.18598618 0.029366238 -0.113549456 -0.16640869 0.13704245 -0.019577492
-0.1350847 0.10767621 -0.076352224 -0.08614097 -0.1585777 0.068521224 0.12921146 0.0039154985
0.07830997 0.048943732 -0.068521224 -0.15466219 0.113549456 -0.17423968 0.10963396 -0.17423968
-0.15466219 -0.058732476 0.15074669 0.105718456 -0.017619744 -0.19773267 -0.20947917 0.013704245
0.121380456 0.17815518 0.19381717 0.1429157 -0.105718456 -0.21731016 0.06460573 -0.105718456
0.06656347 -0.09397197 0.18794394 -0.1468312 -0.15270445 0.12529595 0.007830997 0.19381717
-0.09984521 -0.15466219 -0.11746495 -0.011746496 0.013704245 -0.015661994 -0.15074669 0.06656347
0.0 0.22122566 0.12529595 0.119422704 0.18011293 0.0 0.16249318 -0.037197236
0.05481698 0.14487344 0.119422704 0.09397197 0.011746496 -0.090056464 -0.15466219 -0.05090148
-0.15074669 -0.16445094 -0.16445094 -0.035239488 0.06460573 0.043070484 0.16640869 0.070478976
