rp_lidar_f1tenth/rp_f1_tenth_model_micro.tflite (tflite, 70616 bytes, 9 tensors)

sequential/dense_3/MatMul i1 [2, 10] scale=0.005530652 zero_point=0
0	0xce	-0.27653262
1	0x57	0.48116672
2	0xce	-0.27653262
3	0x2d	0.24887934
4	0xa4	-0.50882
5	0xe9	-0.127205
6	0xa5	-0.50328934
7	0x36	0.2986552
8	0x24	0.19910347
9	0x8a	-0.652617
10	0xbb	-0.38161498
11	0x94	-0.5973104
12	0x7f	0.7023928
13	0x9b	-0.55859584
14	0xc5	-0.3263085
15	0x45	0.38161498
16	0x41	0.3594924
17	0x76	0.652617
18	0xa8	-0.48669738
19	0x9a	-0.5641265

sequential/dense_2/MatMul i1 [10, 50] scale=0.002652567 zero_point=0
0	0x9c	-0.2652567
1	0xa1	-0.25199386
2	0x04	0.010610268
3	0xf1	-0.039788507
4	0xed	-0.050398774
5	0x4d	0.20424767
6	0xfa	-0.015915403
7	0x8b	-0.31035036
8	0xe6	-0.06896675
9	0x33	0.13528092
10	0x14	0.05305134
11	0xba	-0.1856797
12	0x0c	0.031830806
13	0x4f	0.2095528
14	0x8f	-0.29974008
15	0xac	-0.22281563
16	0x08	0.021220537
17	0xe1	-0.08222958
18	0x1b	0.07161931
19	0x09	0.023873104
20	0xc1	-0.16711172
21	0x57	0.23077334
22	0x7a	0.3236132
23	0xfa	-0.015915403
24	0x5a	0.23873104
25	0x2d	0.11936552
26	0x5d	0.24668874
27	0xff	-0.002652567
28	0x04	0.010610268
29	0xc1	-0.16711172
30	0xf4	-0.031830806
31	0x3c	0.15915403
32	0x0a	0.02652567
33	0x2d	0.11936552
34	0xe6	-0.06896675
35	0x2e	0.122018084
36	0xc9	-0.14589119
37	0x7a	0.3236132
38	0xb2	-0.20690024
39	0xff	-0.002652567
40	0x2b	0.11406039
41	0x6b	0.28382468
42	0x24	0.095492415
43	0x30	0.12732323
44	0xbd	-0.17772199
45	0xcf	-0.1299758
46	0x7f	0.33687603
47	0x52	0.2175105
48	0x08	0.021220537
49	0xca	-0.14323862
50	0xdc	-0.095492415
51	0x43	0.17772199
52	0x4e	0.20690024
53	0x8a	-0.3130029
54	0xa1	-0.25199386
55	0x05	0.013262835
56	0x92	-0.29178238
57	0xc5	-0.15650146
58	0xd1	-0.124670655
59	0x05	0.013262835
60	0x87	-0.3209606
61	0xbe	-0.17506944
62	0x9a	-0.27056184
63	0x71	0.29974008
64	0x58	0.2334259
65	0x2d	0.11936552
66	0x42	0.17506944
67	0x5d	0.24668874
68	0x15	0.05570391
69	0x94	-0.28647724
70	0xf7	-0.023873104
71	0xe8	-0.06366161
72	0x01	0.002652567
73	0xae	-0.2175105
74	0xc7	-0.15119633
75	0xa0	-0.25464645
76	0xc9	-0.14589119
77	0xbb	-0.18302713
78	0x29	0.10875525
79	0x59	0.23607847
80	0xa5	-0.24138361
81	0xb4	-0.2015951
82	0x41	0.17241687
83	0xb5	-0.19894253
84	0x0a	0.02652567
85	0x3b	0.15650146
86	0xa9	-0.23077334
87	0x54	0.22281563
88	0x24	0.095492415
89	0x08	0.021220537
90	0x5d	0.24668874
91	0x92	-0.29178238
92	0xaf	-0.21485794
93	0xac	-0.22281563
94	0x09	0.023873104
95	0x70	0.29708752
96	0xaa	-0.22812077
97	0xf1	-0.039788507
98	0xe3	-0.07692444
99	0x8b	-0.31035036
100	0xa5	-0.24138361
101	0x9c	-0.2652567
102	0x28	0.10610268
103	0x93	-0.28912982
104	0x35	0.14058606
105	0x71	0.29974008
106	0x0a	0.02652567
107	0x55	0.2254682
108	0xd3	-0.11936552
109	0x8d	-0.30504522
110	0xc8	-0.14854376
111	0xff	-0.002652567
112	0xdf	-0.08753472
113	0xc7	-0.15119633
114	0xdf	-0.08753472
115	0xd5	-0.11406039
116	0xc6	-0.15384889
117	0x68	0.275867
118	0xe2	-0.079577014
119	0x6c	0.28647724
120	0xc0	-0.1697643
121	0xe0	-0.08488215
122	0xa0	-0.25464645
123	0x14	0.05305134
124	0x28	0.10610268
125	0xc7	-0.15119633
126	0xd8	-0.10610268
127	0x64	0.2652567
128	0xfa	-0.015915403
129	0x4b	0.19894253
130	0x6c	0.28647724
131	0xd2	-0.122018084
132	0x74	0.30769777
133	0x7d	0.3315709
134	0x74	0.30769777
135	0x9b	-0.2679093
136	0x9d	-0.26260415
137	0x66	0.27056184
138	0x55	0.2254682
139	0xd9	-0.10345012
140	0x47	0.18833226
141	0x9c	-0.2652567
142	0x0c	0.031830806
143	0x75	0.31035036
144	0xc1	-0.16711172
145	0xcd	-0.13528092
146	0xab	-0.2254682
147	0x7e	0.33422345
148	0x2b	0.11406039
149	0xb7	-0.1936374
150	0xbb	-0.18302713
151	0x3f	0.16711172
152	0x14	0.05305134
153	0x6e	0.29178238
154	0x1c	0.07427188
155	0x44	0.18037456
156	0x34	0.1379335
157	0xb8	-0.19098483
158	0xd3	-0.11936552
159	0x2d	0.11936552
160	0x0a	0.02652567
161	0x20	0.08488215
162	0x20	0.08488215
163	0x2e	0.122018084
164	0x47	0.18833226
165	0xe9	-0.061009042
166	0xa3	-0.24668874
167	0x63	0.26260415
168	0xeb	-0.05570391
169	0xa4	-0.24403617
170	0xeb	-0.05570391
171	0xea	-0.058356475
172	0x30	0.12732323
173	0x44	0.18037456
174	0x13	0.050398774
175	0xf6	-0.02652567
176	0xeb	-0.05570391
177	0x02	0.005305134
178	0xfa	-0.015915403
179	0x63	0.26260415
180	0x98	-0.275867
181	0xbe	-0.17506944
182	0x2f	0.124670655
183	0x5c	0.24403617
184	0x4a	0.19628997
185	0xd2	-0.122018084
186	0x72	0.30239266
187	0xda	-0.10079755
188	0xe9	-0.061009042
189	0xbe	-0.17506944
190	0x6d	0.28912982
191	0x9b	-0.2679093
192	0xe9	-0.061009042
193	0x9a	-0.27056184
194	0x8f	-0.29974008
195	0x13	0.050398774
196	0xa5	-0.24138361
197	0xa3	-0.24668874
198	0xd2	-0.122018084
199	0xed	-0.050398774
200	0x76	0.3130029
201	0xcd	-0.13528092
202	0xb4	-0.2015951
203	0x9f	-0.257299
204	0x91	-0.29443493
205	0xab	-0.2254682
206	0x06	0.015915403
207	0x24	0.095492415
208	0x6c	0.28647724
209	0x96	-0.28117213
210	0x40	0.1697643
211	0xf5	-0.029178238
212	0x00	0.0
213	0x68	0.275867
214	0xc3	-0.1618066
215	0x6d	0.28912982
216	0x4d	0.20424767
217	0x8b	-0.31035036
218	0xc6	-0.15384889
219	0xfd	-0.007957702
220	0xcb	-0.14058606
221	0x01	0.002652567
222	0xfa	-0.015915403
223	0x72	0.30239266
224	0x61	0.257299
225	0x9e	-0.2599516
226	0x71	0.29974008
227	0x19	0.066314176
228	0x39	0.15119633
229	0x91	-0.29443493
230	0x44	0.18037456
231	0xf1	-0.039788507
232	0x64	0.2652567
233	0xb6	-0.19628997
234	0xd9	-0.10345012
235	0xf0	-0.042441074
236	0xe9	-0.061009042
237	0x18	0.06366161
238	0xbd	-0.17772199
239	0x31	0.1299758
240	0x6c	0.28647724
241	0xf2	-0.03713594
242	0x14	0.05305134
243	0xfb	-0.013262835
244	0x9b	-0.2679093
245	0xcf	-0.1299758
246	0x39	0.15119633
247	0xe8	-0.06366161
248	0x0e	0.03713594
249	0x4c	0.2015951
250	0x94	-0.28647724
251	0xc2	-0.16445915
252	0xf6	-0.02652567
253	0x9b	-0.2679093
254	0x53	0.22016308
255	0x42	0.17506944

sequential/dense_1/MatMul i1 [50, 100] scale=0.0019577492 zero_point=0
0	0xea	-0.043070484
1	0xac	-0.16445094
2	0x20	0.062647976
3	0x10	0.031323988
4	0x5c	0.18011293
5	0x01	0.0019577492
6	0x30	0.09397197
7	0xfa	-0.011746496
8	0xd6	-0.08222547
9	0xd3	-0.08809872
10	0x5d	0.18207069
11	0x2f	0.092014216
12	0xd5	-0.084183216
13	0xcc	-0.10180296
14	0xd4	-0.08614097
15	0x49	0.1429157
16	0x44	0.13312694
17	0xb3	-0.15074669
18	0x9e	-0.19185942
19	0x31	0.09592971
20	0x04	0.007830997
21	0xb2	-0.15270445
22	0xeb	-0.041112736
23	0x04	0.007830997
24	0xa2	-0.18402843
25	0x9a	-0.19969042
26	0xab	-0.16640869
27	0xae	-0.16053544
28	0x57	0.17032419
29	0x29	0.08026772
30	0x4d	0.15074669
31	0xb7	-0.1429157
32	0x11	0.033281736
33	0xd0	-0.09397197
34	0x45	0.1350847
35	0xb6	-0.14487344
36	0xde	-0.06656347
37	0x54	0.16445094
38	0xda	-0.07439447
39	0xdf	-0.06460573
40	0xa1	-0.18598618
41	0x34	0.10180296
42	0x60	0.18794394
43	0x89	-0.23297216
44	0xbd	-0.1311692
45	0x00	0.0
46	0xda	-0.07439447
47	0xb6	-0.14487344
48	0xfa	-0.011746496
49	0x2d	0.08809872
50	0xfb	-0.009788746
51	0x0c	0.023492992
52	0xc1	-0.1233382
53	0xf4	-0.023492992
54	0xdc	-0.070478976
55	0xb2	-0.15270445
56	0xf4	-0.023492992
57	0xcf	-0.09592971
58	0x4d	0.15074669
59	0xf3	-0.02545074
60	0x17	0.045028232
61	0x32	0.097887464
62	0x4b	0.1468312
63	0x1e	0.058732476
64	0xb3	-0.15074669
65	0x64	0.19577493
66	0xba	-0.13704245
67	0x2f	0.092014216
68	0xd4	-0.08614097
69	0xc9	-0.10767621
70	0x4b	0.1468312
71	0xb8	-0.14095795
72	0x1b	0.052859228
73	0xb9	-0.13900019
74	0x59	0.17423968
75	0x1f	0.060690228
76	0x2f	0.092014216
77	0x9d	-0.19381717
78	0x9a	-0.19969042
79	0x2f	0.092014216
80	0x1a	0.05090148
81	0x45	0.1350847
82	0xee	-0.035239488
83	0xea	-0.043070484
84	0x4c	0.14878894
85	0x4c	0.14878894
86	0xab	-0.16640869
87	0x2f	0.092014216
88	0x27	0.076352224
89	0xf3	-0.02545074
90	0x46	0.13704245
91	0xf7	-0.017619744
92	0x13	0.037197236
93	0x4f	0.15466219
94	0xad	-0.16249318
95	0x31	0.09592971
96	0x36	0.105718456
97	0x5a	0.17619744
98	0xb7	-0.1429157
99	0x96	-0.20752142
100	0xd4	-0.08614097
101	0x9e	-0.19185942
102	0x59	0.17423968
103	0x5d	0.18207069
104	0xbb	-0.1350847
105	0x30	0.09397197
106	0xd1	-0.092014216
107	0xe2	-0.058732476
108	0xfc	-0.007830997
109	0x9e	-0.19185942
110	0x39	0.111591704
111	0xf4	-0.023492992
112	0x56	0.16836643
113	0xb5	-0.1468312
114	0xc0	-0.12529595
115	0x29	0.08026772
116	0xd9	-0.076352224
117	0x21	0.06460573
118	0xb8	-0.14095795
119	0x0a	0.019577492
120	0x21	0.06460573
121	0x15	0.041112736
122	0xbe	-0.12921146
123	0x3f	0.1233382
124	0x49	0.1429157
125	0x27	0.076352224
126	0x07	0.013704245
127	0xf2	-0.02740849
128	0xce	-0.097887464
129	0xf6	-0.019577492
130	0xae	-0.16053544
131	0x46	0.13704245
132	0xe5	-0.052859228
133	0x25	0.07243672
134	0x39	0.111591704
135	0xfb	-0.009788746
136	0x39	0.111591704
137	0x63	0.19381717
138	0x72	0.22318341
139	0x9e	-0.19185942
140	0x05	0.009788746
141	0x68	0.20360592
142	0xe8	-0.046985984
143	0x95	-0.20947917
144	0x58	0.17228194
145	0x1b	0.052859228
146	0x34	0.10180296
147	0x43	0.1311692
148	0x16	0.043070484
149	0xb3	-0.15074669
150	0x06	0.011746496
151	0x0b	0.021535242
152	0xe5	-0.052859228
153	0x4c	0.14878894
154	0xa6	-0.17619744
155	0xe4	-0.05481698
156	0xd6	-0.08222547
157	0x40	0.12529595
158	0x97	-0.20556366
159	0xf9	-0.013704245
160	0x9e	-0.19185942
161	0x11	0.033281736
162	0xd2	-0.090056464
163	0x66	0.19969042
164	0x65	0.19773267
165	0x3d	0.119422704
166	0x90	-0.21926792
167	0xad	-0.16249318
168	0x9e	-0.19185942
169	0xed	-0.037197236
170	0xa2	-0.18402843
171	0xa9	-0.17032419
172	0x61	0.18990168
173	0x31	0.09592971
174	0x55	0.16640869
175	0xc0	-0.12529595
176	0x57	0.17032419
177	0xb4	-0.14878894
178	0x5f	0.18598618
179	0x0f	0.029366238
180	0xc6	-0.113549456
181	0xab	-0.16640869
182	0x46	0.13704245
183	0xf6	-0.019577492
184	0xbb	-0.1350847
185	0x37	0.10767621
186	0xd9	-0.076352224
187	0xd4	-0.08614097
188	0xaf	-0.1585777
189	0x23	0.068521224
190	0x42	0.12921146
191	0x02	0.0039154985
192	0x28	0.07830997
193	0x19	0.048943732
194	0xdd	-0.068521224
195	0xb1	-0.15466219
196	0x3a	0.113549456
197	0xa7	-0.17423968
198	0x38	0.10963396
199	0xa7	-0.17423968
200	0xb1	-0.15466219
201	0xe2	-0.058732476
202	0x4d	0.15074669
203	0x36	0.105718456
204	0xf7	-0.017619744
205	0x9b	-0.19773267
206	0x95	-0.20947917
207	0x07	0.013704245
208	0x3e	0.121380456
209	0x5b	0.17815518
210	0x63	0.19381717
211	0x49	0.1429157
212	0xca	-0.105718456
213	0x91	-0.21731016
214	0x21	0.06460573
215	0xca	-0.105718456
216	0x22	0.06656347
217	0xd0	-0.09397197
218	0x60	0.18794394
219	0xb5	-0.1468312
220	0xb2	-0.15270445
221	0x40	0.12529595
222	0x04	0.007830997
223	0x63	0.19381717
224	0xcd	-0.09984521
225	0xb1	-0.15466219
226	0xc4	-0.11746495
227	0xfa	-0.011746496
228	0x07	0.013704245
229	0xf8	-0.015661994
230	0xb3	-0.15074669
231	0x22	0.06656347
232	0x00	0.0
233	0x71	0.22122566
234	0x40	0.12529595
235	0x3d	0.119422704
236	0x5c	0.18011293
237	0x00	0.0
238	0x53	0.16249318
239	0xed	-0.037197236
240	0x1c	0.05481698
241	0x4a	0.14487344
242	0x3d	0.119422704
243	0x30	0.09397197
244	0x06	0.011746496
245	0xd2	-0.090056464
246	0xb1	-0.15466219
247	0xe6	-0.05090148
248	0xb3	-0.15074669
249	0xac	-0.16445094
250	0xac	-0.16445094
251	0xee	-0.035239488
252	0x21	0.06460573
253	0x16	0.043070484
254	0x55	0.16640869
255	0x24	0.070478976

sequential/dense/MatMul i1 [100, 128] scale=0.0016177363 zero_point=0
0	0xb0	-0.12941891
1	0x3e	0.10029965
2	0xf8	-0.01294189
3	0x21	0.0533853
4	0xf7	-0.014559627
5	0xf9	-0.011324154
6	0x03	0.004853209
7	0x46	0.11324154
8	0xcf	-0.07926908
9	0x15	0.03397246
10	0x44	0.11000607
11	0x31	0.07926908
12	0x03	0.004853209
13	0x5f	0.15368494
14	0x4d	0.1245657
15	0x05	0.008088682
16	0xe8	-0.038825672
17	0x53	0.13427211
18	0xb5	-0.121330224
19	0x57	0.14074306
20	0x55	0.13750759
21	0x0c	0.019412836
22	0x9f	-0.15692042
23	0xdc	-0.058238506
24	0xca	-0.08735776
25	0xcb	-0.08574002
26	0xcb	-0.08574002
27	0xc5	-0.095446445
28	0x1e	0.048532087
29	0x02	0.0032354726
30	0x45	0.1116238
31	0xae	-0.13265438
32	0xf8	-0.01294189
33	0x4b	0.121330224
34	0xfc	-0.006470945
35	0x27	0.06309172
36	0x2c	0.071180396
37	0x4d	0.1245657
38	0x51	0.13103664
39	0x5c	0.14883174
40	0xf4	-0.019412836
41	0xf4	-0.019412836
42	0xe9	-0.037207935
43	0x35	0.08574002
44	0xfc	-0.006470945
45	0xf7	-0.014559627
46	0x49	0.11809475
47	0x43	0.108388335
48	0xeb	-0.03397246
49	0x0f	0.024266044
50	0x9e	-0.15853816
51	0xf5	-0.017795099
52	0x2f	0.07603361
53	0x33	0.08250455
54	0x17	0.037207935
55	0xbd	-0.108388335
56	0x5e	0.15206721
57	0xc0	-0.10353512
58	0xd4	-0.071180396
59	0x9e	-0.15853816
60	0xbd	-0.108388335
61	0xa5	-0.14721401
62	0xbb	-0.1116238
63	0x93	-0.17633326
64	0x15	0.03397246
65	0x5b	0.14721401
66	0x39	0.09221097
67	0xcc	-0.084122285
68	0x2f	0.07603361
69	0x0e	0.022648308
70	0x03	0.004853209
71	0xf2	-0.022648308
72	0xfd	-0.004853209
73	0x55	0.13750759
74	0xb1	-0.12780116
75	0xd6	-0.06794492
76	0x20	0.05176756
77	0xc6	-0.09382871
78	0xa7	-0.14397854
79	0x42	0.1067706
80	0xb9	-0.114859276
81	0xf8	-0.01294189
82	0xc3	-0.09868191
83	0x06	0.009706418
84	0x0c	0.019412836
85	0xe9	-0.037207935
86	0x63	0.16015589
87	0xed	-0.03073699
88	0xb3	-0.1245657
89	0xa0	-0.15530269
90	0xb9	-0.114859276
91	0xe5	-0.04367888
92	0xa3	-0.15044947
93	0x34	0.084122285
94	0xd3	-0.07279813
95	0x9d	-0.16015589
96	0xf8	-0.01294189
97	0x17	0.037207935
98	0xfe	-0.0032354726
99	0xdc	-0.058238506
100	0xfd	-0.004853209
101	0x55	0.13750759
102	0x50	0.12941891
103	0xd2	-0.07441587
104	0xb4	-0.12294796
105	0xc0	-0.10353512
106	0x50	0.12941891
107	0x15	0.03397246
108	0xbb	-0.1116238
109	0xcc	-0.084122285
110	0xa8	-0.14236079
111	0x08	0.01294189
112	0x2a	0.06794492
113	0xa0	-0.15530269
114	0xa7	-0.14397854
115	0xcd	-0.08250455
116	0xb1	-0.12780116
117	0xf9	-0.011324154
118	0xd2	-0.07441587
119	0xda	-0.06147398
120	0x5b	0.14721401
121	0x48	0.11647701
122	0x36	0.08735776
123	0xe8	-0.038825672
124	0xe3	-0.046914354
125	0xca	-0.08735776
126	0xe7	-0.04044341
127	0x9d	-0.16015589
128	0x44	0.11000607
129	0x19	0.04044341
130	0x2b	0.06956266
131	0x16	0.035590198
132	0xd5	-0.06956266
133	0x3a	0.09382871
134	0x4c	0.12294796
135	0x35	0.08574002
136	0xc1	-0.101917386
137	0xb6	-0.11971249
138	0x61	0.15692042
139	0x44	0.11000607
140	0xb8	-0.11647701
141	0x5e	0.15206721
142	0xe9	-0.037207935
143	0x2b	0.06956266
144	0x20	0.05176756
145	0x14	0.032354727
146	0x2d	0.07279813
147	0xa6	-0.14559627
148	0x51	0.13103664
149	0xb2	-0.12618344
150	0x21	0.0533853
151	0x30	0.077651344
152	0x10	0.02588378
153	0x02	0.0032354726
154	0x00	0.0
155	0x3a	0.09382871
156	0x44	0.11000607
157	0x2e	0.07441587
158	0xc2	-0.10029965
159	0x10	0.02588378
160	0x95	-0.17309779
161	0x5d	0.15044947
162	0x5f	0.15368494
163	0xb8	-0.11647701
164	0x12	0.029119253
165	0xb3	-0.1245657
166	0xf5	-0.017795099
167	0x5d	0.15044947
168	0xc5	-0.095446445
169	0x0e	0.022648308
170	0xc2	-0.10029965
171	0x67	0.16662684
172	0x43	0.108388335
173	0xed	-0.03073699
174	0xb0	-0.12941891
175	0x1c	0.045296617
176	0x02	0.0032354726
177	0x4a	0.11971249
178	0x55	0.13750759
179	0x5e	0.15206721
180	0xad	-0.13427211
181	0x5c	0.14883174
182	0x2f	0.07603361
183	0x2c	0.071180396
184	0xa8	-0.14236079
185	0xda	-0.06147398
186	0x17	0.037207935
187	0x08	0.01294189
188	0x2e	0.07441587
189	0xfd	-0.004853209
190	0x05	0.008088682
191	0x13	0.03073699
192	0x42	0.1067706
193	0xee	-0.029119253
194	0x03	0.004853209
195	0xe1	-0.050149824
196	0x60	0.15530269
197	0xbe	-0.1067706
198	0x0f	0.024266044
199	0xca	-0.08735776
200	0x25	0.059856243
201	0xd6	-0.06794492
202	0xf7	-0.014559627
203	0x1a	0.042061143
204	0xce	-0.08088682
205	0x33	0.08250455
206	0x36	0.08735776
207	0xf3	-0.021030571
208	0x4e	0.12618344
209	0xc9	-0.0889755
210	0x33	0.08250455
211	0x37	0.0889755
212	0x44	0.11000607
213	0x3a	0.09382871
214	0x2d	0.07279813
215	0x4b	0.121330224
216	0x5c	0.14883174
217	0x55	0.13750759
218	0xeb	-0.03397246
219	0x29	0.06632719
220	0xf6	-0.016177364
221	0x08	0.01294189
222	0xf6	-0.016177364
223	0x55	0.13750759
224	0xc1	-0.101917386
225	0xa6	-0.14559627
226	0x68	0.16824457
227	0x2f	0.07603361
228	0xd9	-0.06309172
229	0xcc	-0.084122285
230	0xdb	-0.059856243
231	0x16	0.035590198
232	0x0e	0.022648308
233	0xec	-0.032354727
234	0x57	0.14074306
235	0x63	0.16015589
236	0xec	-0.032354727
237	0x34	0.084122285
238	0x45	0.1116238
239	0x2e	0.07441587
240	0x4f	0.12780116
241	0x19	0.04044341
242	0xaa	-0.13912532
243	0x32	0.08088682
244	0xb9	-0.114859276
245	0xa9	-0.14074306
246	0xe0	-0.05176756
247	0x3b	0.095446445
248	0x0b	0.017795099
249	0xc0	-0.10353512
250	0xa3	-0.15044947
251	0x00	0.0
252	0x00	0.0
253	0xbc	-0.11000607
254	0xba	-0.11324154
255	0xc5	-0.095446445

sequential/conv1d_4/Conv1D i1 [64, 1, 3, 64]
0	0x9d	-99
1	0xe7	-25
2	0x54	84
3	0xd8	-40
4	0x94	-108
5	0x17	23
6	0x47	71
7	0x64	100
8	0x04	4
9	0x15	21
10	0x30	48
11	0xae	-82
12	0x7b	123
13	0x42	66
14	0xa1	-95
15	0xfc	-4
16	0x16	22
17	0xee	-18
18	0xc9	-55
19	0x43	67
20	0x48	72
21	0xe7	-25
22	0xac	-84
23	0x61	97
24	0x2d	45
25	0xb0	-80
26	0xe6	-26
27	0xfe	-2
28	0x15	21
29	0x2d	45
30	0x35	53
31	0xd6	-42
32	0x32	50
33	0x07	7
34	0x8d	-115
35	0xd3	-45
36	0x01	1
37	0x27	39
38	0xdd	-35
39	0xc9	-55
40	0x23	35
41	0xbb	-69
42	0xd7	-41
43	0x9d	-99
44	0xc7	-57
45	0x2d	45
46	0xa3	-93
47	0x55	85
48	0xf0	-16
49	0x31	49
50	0x17	23
51	0x9f	-97
52	0xe5	-27
53	0xb5	-75
54	0x24	36
55	0x64	100
56	0x2e	46
57	0x2d	45
58	0x4d	77
59	0xb9	-71
60	0x33	51
61	0x43	67
62	0xaf	-81
63	0xd8	-40
64	0xc5	-59
65	0x30	48
66	0xa7	-89
67	0x0c	12
68	0x0f	15
69	0xce	-50
70	0x19	25
71	0xbd	-67
72	0x0d	13
73	0x74	116
74	0x21	33
75	0x12	18
76	0x5c	92
77	0xde	-34
78	0xc5	-59
79	0xfc	-4
80	0x65	101
81	0xe5	-27
82	0x0c	12
83	0x3b	59
84	0x48	72
85	0x1f	31
86	0xc6	-58
87	0xef	-17
88	0xe9	-23
89	0x0b	11
90	0xb6	-74
91	0xc4	-60
92	0xe0	-32
93	0x0a	10
94	0x5b	91
95	0x8f	-113
96	0xd4	-44
97	0x4e	78
98	0x4d	77
99	0xcf	-49
100	0xf0	-16
101	0x5f	95
102	0xfa	-6
103	0x63	99
104	0xdc	-36
105	0x0b	11
106	0x28	40
107	0xa0	-96
108	0xf6	-10
109	0x5d	93
110	0xe7	-25
111	0x6e	110
112	0x23	35
113	0x37	55
114	0xe6	-26
115	0x27	39
116	0x62	98
117	0x69	105
118	0x4c	76
119	0xcb	-53
120	0xfa	-6
121	0xc3	-61
122	0xc0	-64
123	0xd9	-39
124	0xca	-54
125	0x3d	61
126	0x9e	-98
127	0xab	-85
128	0x55	85
129	0xf0	-16
130	0xfb	-5
131	0xf6	-10
132	0xc3	-61
133	0xba	-70
134	0xb6	-74
135	0x71	113
136	0xad	-83
137	0x47	71
138	0x03	3
139	0xda	-38
140	0x0e	14
141	0x4b	75
142	0x2a	42
143	0x51	81
144	0x53	83
145	0x52	82
146	0x35	53
147	0xa4	-92
148	0xf5	-11
149	0x60	96
150	0xc7	-57
151	0xb8	-72
152	0x3a	58
153	0x58	88
154	0xe4	-28
155	0xe9	-23
156	0x30	48
157	0x44	68
158	0x28	40
159	0x54	84
160	0xdd	-35
161	0xb6	-74
162	0xaf	-81
163	0xa0	-96
164	0xab	-85
165	0xdc	-36
166	0xcf	-49
167	0x2a	42
168	0x43	67
169	0x48	72
170	0xa1	-95
171	0x32	50
172	0x20	32
173	0x0d	13
174	0xde	-34
175	0x59	89
176	0xc0	-64
177	0xb6	-74
178	0xb9	-71
179	0x23	35
180	0xac	-84
181	0x01	1
182	0xa8	-88
183	0xd9	-39
184	0x52	82
185	0xa5	-91
186	0xd1	-47
187	0x7f	127
188	0x5b	91
189	0x5d	93
190	0x11	17
191	0xc8	-56
192	0x9f	-97
193	0x11	17
194	0xff	-1
195	0x8b	-117
196	0x47	71
197	0x73	115
198	0x9c	-100
199	0x29	41
200	0x13	19
201	0x22	34
202	0x3c	60
203	0xfb	-5
204	0x54	84
205	0xdc	-36
206	0xd0	-48
207	0x30	48
208	0x19	25
209	0x14	20
210	0x33	51
211	0xcc	-52
212	0xfb	-5
213	0xa1	-95
214	0x81	-127
215	0x23	35
216	0x25	37
217	0x0d	13
218	0x9c	-100
219	0x0a	10
220	0xf3	-13
221	0x60	96
222	0x30	48
223	0x12	18
224	0x5f	95
225	0xb2	-78
226	0xc5	-59
227	0x4c	76
228	0x9a	-102
229	0x53	83
230	0x44	68
231	0xf8	-8
232	0x48	72
233	0x96	-106
234	0xc7	-57
235	0xfa	-6
236	0x42	66
237	0x10	16
238	0x27	39
239	0xec	-20
240	0xe6	-26
241	0x5b	91
242	0x2b	43
243	0x02	2
244	0xb0	-80
245	0x5b	91
246	0x58	88
247	0xf8	-8
248	0xf5	-11
249	0xb3	-77
250	0xdf	-33
251	0xa6	-90
252	0x05	5
253	0xf8	-8
254	0xde	-34
255	0xf3	-13

sequential/conv1d_3/Conv1D i1 [64, 1, 3, 48]
0	0x59	89
1	0x1c	28
2	0xab	-85
3	0xbc	-68
4	0xed	-19
5	0x14	20
6	0x40	64
7	0x27	39
8	0xb3	-77
9	0xba	-70
10	0xb6	-74
11	0xb7	-73
12	0xe6	-26
13	0x2f	47
14	0xda	-38
15	0x12	18
16	0x26	38
17	0xa2	-94
18	0x3e	62
19	0xd5	-43
20	0x37	55
21	0xae	-82
22	0xc3	-61
23	0x53	83
24	0xfb	-5
25	0xcd	-51
26	0xc9	-55
27	0x24	36
28	0x27	39
29	0xe7	-25
30	0xcb	-53
31	0xe5	-27
32	0x4a	74
33	0xb0	-80
34	0xfa	-6
35	0x51	81
36	0x2a	42
37	0xfd	-3
38	0xfc	-4
39	0xf2	-14
40	0x07	7
41	0xd2	-46
42	0xf2	-14
43	0x35	53
44	0xd8	-40
45	0x25	37
46	0x43	67
47	0x34	52
48	0x1f	31
49	0xd4	-44
50	0x31	49
51	0x26	38
52	0xcb	-53
53	0xf1	-15
54	0x1b	27
55	0x2b	43
56	0xd5	-43
57	0x1d	29
58	0x25	37
59	0x52	82
60	0x36	54
61	0xdf	-33
62	0xbf	-65
63	0x62	98
64	0x44	68
65	0x60	96
66	0x13	19
67	0xfe	-2
68	0x52	82
69	0x18	24
70	0x20	32
71	0xa3	-93
72	0x52	82
73	0x5d	93
74	0x5b	91
75	0xee	-18
76	0x63	99
77	0xb7	-73
78	0x97	-105
79	0xbd	-67
80	0xe1	-31
81	0xf0	-16
82	0xd2	-46
83	0x5a	90
84	0xdd	-35
85	0xbb	-69
86	0xdb	-37
87	0x2e	46
88	0x29	41
89	0xcd	-51
90	0x1b	27
91	0x1f	31
92	0x22	34
93	0x43	67
94	0xd7	-41
95	0xce	-50
96	0xdb	-37
97	0xa0	-96
98	0x44	68
99	0xbe	-66
100	0x30	48
101	0xaa	-86
102	0x48	72
103	0x4d	77
104	0xfd	-3
105	0x9f	-97
106	0xcd	-51
107	0xc8	-56
108	0xf2	-14
109	0xd4	-44
110	0x38	56
111	0x81	-127
112	0x29	41
113	0xd4	-44
114	0x5b	91
115	0xfc	-4
116	0x28	40
117	0xb6	-74
118	0x2c	44
119	0xc5	-59
120	0xcb	-53
121	0xda	-38
122	0xd5	-43
123	0xd2	-46
124	0x2b	43
125	0x18	24
126	0xd6	-42
127	0xfb	-5
128	0x30	48
129	0x27	39
130	0xb8	-72
131	0x4b	75
132	0x08	8
133	0x44	68
134	0xc2	-62
135	0xf7	-9
136	0x51	81
137	0x0c	12
138	0x1e	30
139	0xe3	-29
140	0x42	66
141	0x29	41
142	0xef	-17
143	0x0c	12
144	0x08	8
145	0x54	84
146	0x2d	45
147	0x47	71
148	0xc3	-61
149	0x91	-111
150	0xab	-85
151	0x42	66
152	0xeb	-21
153	0xa0	-96
154	0x6c	108
155	0xe7	-25
156	0x3d	61
157	0x4b	75
158	0xab	-85
159	0x11	17
160	0xc4	-60
161	0xdf	-33
162	0xa5	-91
163	0xb9	-71
164	0x5f	95
165	0x29	41
166	0x6b	107
167	0x67	103
168	0xbb	-69
169	0x90	-112
170	0xb1	-79
171	0xc7	-57
172	0x5e	94
173	0x1c	28
174	0xf6	-10
175	0x39	57
176	0xfb	-5
177	0x9e	-98
178	0x40	64
179	0x00	0
180	0x1f	31
181	0x61	97
182	0xe5	-27
183	0xba	-70
184	0xf2	-14
185	0xed	-19
186	0x00	0
187	0xde	-34
188	0x9f	-97
189	0x59	89
190	0xe9	-23
191	0xd0	-48
192	0x37	55
193	0x3a	58
194	0x52	82
195	0xef	-17
196	0xca	-54
197	0xc0	-64
198	0xa0	-96
199	0xc3	-61
200	0xd1	-47
201	0x15	21
202	0x00	0
203	0x60	96
204	0x56	86
205	0x02	2
206	0x2a	42
207	0xb7	-73
208	0x58	88
209	0xc6	-58
210	0xad	-83
211	0x46	70
212	0x96	-106
213	0x0a	10
214	0x94	-108
215	0x46	70
216	0xa6	-90
217	0xfb	-5
218	0xfa	-6
219	0x8f	-113
220	0x7c	124
221	0xce	-50
222	0xc9	-55
223	0x99	-103
224	0xb7	-73
225	0xc2	-62
226	0xe9	-23
227	0xd1	-47
228	0xa4	-92
229	0xf0	-16
230	0x9a	-102
231	0x8c	-116
232	0x03	3
233	0x1e	30
234	0x04	4
235	0xb1	-79
236	0xdc	-36
237	0x30	48
238	0xc4	-60
239	0x34	52
240	0x54	84
241	0x2a	42
242	0x12	18
243	0x19	25
244	0xdf	-33
245	0xf8	-8
246	0xa9	-87
247	0x01	1
248	0x56	86
249	0xf1	-15
250	0x95	-107
251	0x01	1
252	0x48	72
253	0x11	17
254	0x6a	106
255	0xa8	-88

sequential/conv1d_2/Conv1D i1 [48, 1, 4, 36]
0	0x33	51
1	0x9a	-102
2	0x7f	127
3	0xa7	-89
4	0xed	-19
5	0x2d	45
6	0xf9	-7
7	0x1c	28
8	0xb9	-71
9	0xbe	-66
10	0x0b	11
11	0xf9	-7
12	0x87	-121
13	0xad	-83
14	0xff	-1
15	0xcf	-49
16	0xb3	-77
17	0x27	39
18	0x18	24
19	0xa8	-88
20	0x63	99
21	0xdc	-36
22	0xfc	-4
23	0xb7	-73
24	0xe3	-29
25	0xe3	-29
26	0x2b	43
27	0xdc	-36
28	0x96	-106
29	0x77	119
30	0xab	-85
31	0x46	70
32	0x72	114
33	0xd8	-40
34	0xeb	-21
35	0x47	71
36	0xba	-70
37	0x2f	47
38	0x48	72
39	0x66	102
40	0x19	25
41	0x07	7
42	0xa4	-92
43	0x24	36
44	0xda	-38
45	0xf3	-13
46	0xea	-22
47	0xe6	-26
48	0x6c	108
49	0x43	67
50	0xe2	-30
51	0x1e	30
52	0x23	35
53	0x73	115
54	0xa5	-91
55	0xb3	-77
56	0xff	-1
57	0xe9	-23
58	0x61	97
59	0xae	-82
60	0x04	4
61	0x04	4
62	0x18	24
63	0x63	99
64	0x04	4
65	0x0d	13
66	0x43	67
67	0xd1	-47
68	0x70	112
69	0xc6	-58
70	0xed	-19
71	0xd3	-45
72	0xc1	-63
73	0x13	19
74	0xa9	-87
75	0xed	-19
76	0xbd	-67
77	0xf1	-15
78	0x5a	90
79	0xb6	-74
80	0x7c	124
81	0x50	80
82	0xa5	-91
83	0xa4	-92
84	0xf6	-10
85	0xd7	-41
86	0x14	20
87	0x6c	108
88	0xa3	-93
89	0xc4	-60
90	0xfd	-3
91	0xa9	-87
92	0x3c	60
93	0xee	-18
94	0xfe	-2
95	0x17	23
96	0x53	83
97	0x24	36
98	0x9a	-102
99	0x5e	94
100	0xfb	-5
101	0xfd	-3
102	0x0f	15
103	0x04	4
104	0xc8	-56
105	0xe3	-29
106	0xcc	-52
107	0xeb	-21
108	0x33	51
109	0x2f	47
110	0x7b	123
111	0xa3	-93
112	0xef	-17
113	0x65	101
114	0x23	35
115	0x19	25
116	0x53	83
117	0xb2	-78
118	0xf2	-14
119	0xfc	-4
120	0x00	0
121	0xe6	-26
122	0xb4	-76
123	0xd3	-45
124	0xd4	-44
125	0x25	37
126	0x35	53
127	0x26	38
128	0x13	19
129	0xd9	-39
130	0xfc	-4
131	0xe8	-24
132	0xf9	-7
133	0xad	-83
134	0x7c	124
135	0x42	66
136	0xc8	-56
137	0xfd	-3
138	0xc0	-64
139	0x04	4
140	0x7c	124
141	0x52	82
142	0x33	51
143	0x28	40
144	0xc6	-58
145	0x3b	59
146	0x12	18
147	0x26	38
148	0x1c	28
149	0xe3	-29
150	0x41	65
151	0xce	-50
152	0xc7	-57
153	0xaf	-81
154	0x18	24
155	0x54	84
156	0x0d	13
157	0x71	113
158	0xb5	-75
159	0xf2	-14
160	0x18	24
161	0xb9	-71
162	0x3a	58
163	0x51	81
164	0xfb	-5
165	0xaf	-81
166	0x5c	92
167	0xc5	-59
168	0xb8	-72
169	0xe1	-31
170	0xe3	-29
171	0xf6	-10
172	0xc7	-57
173	0x54	84
174	0x38	56
175	0x76	118
176	0x01	1
177	0xf5	-11
178	0xdd	-35
179	0x27	39
180	0xc0	-64
181	0x2a	42
182	0x28	40
183	0xdb	-37
184	0x48	72
185	0x52	82
186	0x60	96
187	0xf5	-11
188	0xd2	-46
189	0xbd	-67
190	0xec	-20
191	0xbe	-66
192	0xc9	-55
193	0xc6	-58
194	0x1a	26
195	0x5f	95
196	0xde	-34
197	0x3c	60
198	0xf5	-11
199	0x4a	74
200	0x2b	43
201	0xea	-22
202	0xb2	-78
203	0x4d	77
204	0xc7	-57
205	0xba	-70
206	0xf7	-9
207	0xca	-54
208	0xc8	-56
209	0x2f	47
210	0xef	-17
211	0x56	86
212	0x57	87
213	0xbe	-66
214	0xff	-1
215	0xe2	-30
216	0xb1	-79
217	0xcf	-49
218	0xda	-38
219	0xa2	-94
220	0x3a	58
221	0xeb	-21
222	0xbb	-69
223	0x11	17
224	0xda	-38
225	0x48	72
226	0xb1	-79
227	0x18	24
228	0x69	105
229	0x7f	127
230	0x72	114
231	0x11	17
232	0x2d	45
233	0x0f	15
234	0xd7	-41
235	0xa6	-90
236	0xeb	-21
237	0xa4	-92
238	0x64	100
239	0xcc	-52
240	0x41	65
241	0x5f	95
242	0xb1	-79
243	0xdf	-33
244	0x1c	28
245	0xe4	-28
246	0x53	83
247	0x33	51
248	0x1f	31
249	0xbb	-69
250	0xa2	-94
251	0xaf	-81
252	0x08	8
253	0x54	84
254	0x65	101
255	0x6d	109

sequential/conv1d_1/Conv1D i1 [36, 1, 8, 24]
0	0x12	18
1	0xb8	-72
2	0x04	4
3	0xfa	-6
4	0x22	34
5	0x9b	-101
6	0xbb	-69
7	0xca	-54
8	0x40	64
9	0xdc	-36
10	0xfd	-3
11	0xda	-38
12	0xb3	-77
13	0x2c	44
14	0x47	71
15	0xe7	-25
16	0xd0	-48
17	0xb5	-75
18	0xf5	-11
19	0xa5	-91
20	0x43	67
21	0xa8	-88
22	0x03	3
23	0xe5	-27
24	0x0b	11
25	0xa4	-92
26	0x4e	78
27	0x99	-103
28	0x12	18
29	0x4f	79
30	0x8e	-114
31	0xd4	-44
32	0xd8	-40
33	0xd7	-41
34	0x12	18
35	0x18	24
36	0x26	38
37	0x41	65
38	0x2e	46
39	0xe8	-24
40	0xef	-17
41	0x9e	-98
42	0xcc	-52
43	0x32	50
44	0x35	53
45	0x24	36
46	0xe5	-27
47	0xf9	-7
48	0xa4	-92
49	0xc7	-57
50	0xd3	-45
51	0x4c	76
52	0x56	86
53	0xf6	-10
54	0x37	55
55	0x06	6
56	0xad	-83
57	0xe0	-32
58	0x35	53
59	0x1f	31
60	0xb3	-77
61	0x3e	62
62	0xbc	-68
63	0xae	-82
64	0xcf	-49
65	0x12	18
66	0x55	85
67	0xc2	-62
68	0xc8	-56
69	0x14	20
70	0x57	87
71	0x27	39
72	0x18	24
73	0x11	17
74	0x8b	-117
75	0xc5	-59
76	0x54	84
77	0xa6	-90
78	0x34	52
79	0x37	55
80	0x25	37
81	0xd1	-47
82	0x0e	14
83	0xc6	-58
84	0x11	17
85	0xcd	-51
86	0x43	67
87	0x2f	47
88	0xaa	-86
89	0x45	69
90	0xe0	-32
91	0x2c	44
92	0x75	117
93	0xaa	-86
94	0x6d	109
95	0x4a	74
96	0xed	-19
97	0x0d	13
98	0xab	-85
99	0xce	-50
100	0x26	38
101	0x3e	62
102	0xe0	-32
103	0x4c	76
104	0x43	67
105	0x5a	90
106	0x32	50
107	0xe6	-26
108	0x1c	28
109	0xa3	-93
110	0x3a	58
111	0xfa	-6
112	0x23	35
113	0xbf	-65
114	0x57	87
115	0xf7	-9
116	0xaf	-81
117	0xa9	-87
118	0xd3	-45
119	0xd2	-46
120	0x3d	61
121	0xff	-1
122	0x9a	-102
123	0x40	64
124	0x2f	47
125	0xde	-34
126	0x19	25
127	0x5b	91
128	0x45	69
129	0x4a	74
130	0x59	89
131	0x51	81
132	0x11	17
133	0xd0	-48
134	0x44	68
135	0x35	53
136	0xa2	-94
137	0xd3	-45
138	0xa5	-91
139	0x7f	127
140	0xc0	-64
141	0x00	0
142	0x8c	-116
143	0xfa	-6
144	0xdc	-36
145	0xd5	-43
146	0x18	24
147	0xf2	-14
148	0x42	66
149	0x43	67
150	0xd1	-47
151	0xdc	-36
152	0x04	4
153	0x12	18
154	0xc5	-59
155	0xd6	-42
156	0x1a	26
157	0xc0	-64
158	0x19	25
159	0x51	81
160	0x35	53
161	0x57	87
162	0xbb	-69
163	0xa4	-92
164	0x2d	45
165	0x05	5
166	0x3b	59
167	0xf0	-16
168	0x9a	-102
169	0xc0	-64
170	0xd2	-46
171	0xb1	-79
172	0x51	81
173	0xa4	-92
174	0x38	56
175	0x63	99
176	0x14	20
177	0x63	99
178	0x44	68
179	0x6f	111
180	0x99	-103
181	0x30	48
182	0xb7	-73
183	0x12	18
184	0xe8	-24
185	0x10	16
186	0xa7	-89
187	0x01	1
188	0x43	67
189	0xd9	-39
190	0xdf	-33
191	0x42	66
192	0xf8	-8
193	0xb5	-75
194	0xc9	-55
195	0x19	25
196	0x86	-122
197	0x97	-105
198	0xb5	-75
199	0x00	0
200	0xe9	-23
201	0x12	18
202	0x6a	106
203	0x3c	60
204	0x84	-124
205	0xec	-20
206	0x3c	60
207	0xd0	-48
208	0x9f	-97
209	0xf2	-14
210	0xcd	-51
211	0xff	-1
212	0xcc	-52
213	0xec	-20
214	0x3b	59
215	0xb4	-76
216	0x6a	106
217	0xd9	-39
218	0xbf	-65
219	0x60	96
220	0x3a	58
221	0xe7	-25
222	0x5f	95
223	0x4f	79
224	0xd0	-48
225	0xef	-17
226	0x5b	91
227	0x30	48
228	0x0d	13
229	0xed	-19
230	0xfb	-5
231	0x0f	15
232	0x71	113
233	0x07	7
234	0x67	103
235	0x1e	30
236	0x45	69
237	0xd6	-42
238	0xca	-54
239	0xe0	-32
240	0x65	101
241	0xcd	-51
242	0xc3	-61
243	0xc3	-61
244	0x60	96
245	0x21	33
246	0x13	19
247	0x03	3
248	0xcc	-52
249	0x1e	30
250	0x7a	122
251	0x1b	27
252	0x23	35
253	0x8a	-118
254	0x52	82
255	0x83	-125

sequential/conv1d/Conv1D i1 [24, 1, 10, 1]
0	0x1a	26
1	0xf3	-13
2	0x7f	127
3	0x07	7
4	0x04	4
5	0x51	81
6	0xcb	-53
7	0x62	98
8	0x01	1
9	0x66	102
10	0xf3	-13
11	0xa6	-90
12	0xeb	-21
13	0x4c	76
14	0x7f	127
15	0x76	118
16	0xae	-82
17	0x32	50
18	0x73	115
19	0x1e	30
20	0x9e	-98
21	0x11	17
22	0x12	18
23	0x7f	127
24	0x65	101
25	0xf5	-11
26	0x97	-105
27	0x65	101
28	0x51	81
29	0xd0	-48
30	0x81	-127
31	0xe5	-27
32	0x13	19
33	0x27	39
34	0x16	22
35	0x41	65
36	0xfd	-3
37	0x75	117
38	0x71	113
39	0x02	2
40	0x00	0
41	0x1e	30
42	0xc6	-58
43	0x10	16
44	0xcd	-51
45	0xd9	-39
46	0x1a	26
47	0x7f	127
48	0xe4	-28
49	0x8e	-114
50	0x95	-107
51	0xa7	-89
52	0xda	-38
53	0x48	72
54	0x64	100
55	0x7f	127
56	0xce	-50
57	0x18	24
58	0xaf	-81
59	0xd1	-47
60	0x5a	90
61	0xfb	-5
62	0xbe	-66
63	0x10	16
64	0xb2	-78
65	0xb3	-77
66	0x7f	127
67	0xa4	-92
68	0xd8	-40
69	0xa5	-91
70	0x32	50
71	0xff	-1
72	0xee	-18
73	0xda	-38
74	0x7f	127
75	0x3f	63
76	0x79	121
77	0xbf	-65
78	0x1e	30
79	0x2c	44
80	0x77	119
81	0x07	7
82	0x7f	127
83	0xcd	-51
84	0x70	112
85	0x6d	109
86	0x0e	14
87	0xd2	-46
88	0x37	55
89	0x0f	15
90	0xf3	-13
91	0x4e	78
92	0xc4	-60
93	0xc7	-57
94	0x7e	126
95	0x5b	91
96	0xc1	-63
97	0xd2	-46
98	0xb1	-79
99	0x7f	127
100	0xe5	-27
101	0xb5	-75
102	0x39	57
103	0xff	-1
104	0x1c	28
105	0x19	25
106	0x10	16
107	0x58	88
108	0x0e	14
109	0x81	-127
110	0x30	48
111	0x62	98
112	0x10	16
113	0x86	-122
114	0x7b	123
115	0x81	-127
116	0x3e	62
117	0xf4	-12
118	0x38	56
119	0xae	-82
120	0x46	70
121	0x7b	123
122	0x69	105
123	0x7f	127
124	0x2f	47
125	0xf1	-15
126	0x55	85
127	0x7a	122
128	0xe4	-28
129	0xaf	-81
130	0xe1	-31
131	0xdb	-37
132	0x71	113
133	0x7c	124
134	0xba	-70
135	0x7f	127
136	0x41	65
137	0x7d	125
138	0xb0	-80
139	0x4e	78
140	0x86	-122
141	0x06	6
142	0x2b	43
143	0x9f	-97
144	0xea	-22
145	0xaa	-86
146	0xe7	-25
147	0x53	83
148	0x7f	127
149	0x0e	14
150	0x67	103
151	0xb1	-79
152	0xa2	-94
153	0x69	105
154	0x97	-105
155	0x7f	127
156	0x26	38
157	0xb0	-80
158	0x1c	28
159	0xbb	-69
160	0x81	-127
161	0xbb	-69
162	0x0a	10
163	0xa3	-93
164	0xc0	-64
165	0xbd	-67
166	0xb3	-77
167	0x3c	60
168	0x73	115
169	0x89	-119
170	0x81	-127
171	0x37	55
172	0x07	7
173	0xc0	-64
174	0xd3	-45
175	0x0a	10
176	0x65	101
177	0xa7	-89
178	0x44	68
179	0xfd	-3
180	0x2c	44
181	0x34	52
182	0xbb	-69
183	0x11	17
184	0x4c	76
185	0x7f	127
186	0x92	-110
187	0xff	-1
188	0x33	51
189	0x4e	78
190	0xde	-34
191	0x5d	93
192	0xc4	-60
193	0xfc	-4
194	0x81	-127
195	0x4e	78
196	0x53	83
197	0xe4	-28
198	0xea	-22
199	0x12	18
200	0x73	115
201	0x84	-124
202	0x16	22
203	0xa4	-92
204	0x8b	-117
205	0x5f	95
206	0x7f	127
207	0x9a	-102
208	0x7e	126
209	0xc5	-59
210	0x0e	14
211	0xff	-1
212	0xb2	-78
213	0x0a	10
214	0x6c	108
215	0xb4	-76
216	0xb7	-73
217	0x81	-127
218	0x91	-111
219	0xd0	-48
220	0x35	53
221	0xc6	-58
222	0x54	84
223	0x4c	76
224	0x2e	46
225	0xe8	-24
226	0x18	24
227	0x91	-111
228	0xc2	-62
229	0x7f	127
230	0x04	4
231	0x82	-126
232	0x7d	125
233	0x20	32
234	0x7f	127
235	0xf1	-15
236	0xaf	-81
237	0x7b	123
238	0x7a	122
239	0x72	114
