rp_lidar_f1tenth/rp_f1_tenth_model_noquantized.tflite (tflite, 225040 bytes, 18 tensors)

sequential/conv1d/BiasAdd/ReadVariableOp f4 [24]
0.014081517 0.010762964 0.01898059 0.009116559 0.022518123 0.0031049158 0.029059136 0.02279149
-0.0013831215 0.026257353 -0.017438343 0.0019723226 0.013873114 0.0196856 0.005404038 -0.00055600394
0.01159411 -0.0015348367 0.01096024 0.0001057654 -0.013903254 -0.0022410862 0.034625977 -0.0046891146
00000000: 2ab6 663c 2557 303c 2f7d 9b3c 9f5d 153c
00000010: ed77 b83c d87b 4b3b 6d0d ee3c 38b5 ba3c
00000020: db49 b5ba a919 d73c dbda 8ebc 1542 013b
00000030: 0f4c 633c b243 a13c 5b14 b13b cbc0 11ba
00000040: 39f5 3d3c 932c c9ba 9492 333c 5ece dd38
00000050: 79ca 63bc 30df 12bb f8d3 0d3d 25a7 99bb

sequential/conv1d_1/BiasAdd/ReadVariableOp f4 [36]
0.011827035 0.0 0.012939773 0.013728077 -0.0038304087 -0.016924545 0.023629857 0.010875096
0.00021583933 -0.0016201338 -0.025433388 0.012051315 0.013407965 0.013971352 -0.006095219 -0.00094661163
0.011152395 0.018159958 0.024653854 0.017895289 -0.011300926 0.0010964208 0.018121438 -0.011620201
0.011424785 0.023227265 0.0056668385 0.0057720593 -0.002450955 -0.009664943 0.00786867 -0.009438053
0.004873966 0.016233629 -0.019656679 -0.0028147888
00000000: 2ec6 413c 0000 0000 5701 543c baeb 603c
00000010: 9807 7bbb 58a5 8abc 6793 c13c 752d 323c
00000020: ee52 6239 ab5a d4ba ae59 d0bc e172 453c
00000030: 15ad 5b3c 19e8 643c 67ba c7bb 0826 78ba
00000040: 89b8 363c 31c4 943c e1f6 c93c 2499 923c
00000050: 8527 39bc c7b5 8f3a 6973 943c a862 3ebc
00000060: 052f 3b3c 1b47 be3c e3b0 b93b 8b23 bd3b
00000070: 34a0 20bb b659 1ebc 98eb 003c 10a2 1abc
00000080: cab5 9f3b 63fc 843c 0b07 a1bc 5278 38bb

sequential/conv1d_2/BiasAdd/ReadVariableOp f4 [48]
0.009113405 0.01724567 0.023870142 -0.008477467 0.012918862 -0.012303684 0.0045880335 0.012759061
-0.005983582 0.017436987 -0.010316928 0.034985945 -0.00089658855 0.0 -0.0007822074 0.009906953
0.0077782134 -0.00545537 0.021626148 9.691849e-05 0.013655283 0.021331072 0.0036242458 0.0005812784
0.002209596 0.015720772 0.005410802 -0.015632426 0.012840997 -0.002153937 0.026418123 -0.0026142797
-0.008509659 0.013963924 -0.012237986 0.007176536 -0.0006787318 0.028998269 -0.005740756 0.011117806
0.0104504675 0.009582905 -0.009609771 0.0052529546 -0.013152212 -0.013215626 0.019343942 0.007743783
00000000: 6450 153c cb46 8d3c 518b c33c 13e5 0abc
00000010: a2a9 533c 6495 49bc 3757 963b 610b 513c
00000020: ed11 c4bb 03d8 8e3c 5508 29bc 6c4d 0f3d
00000030: 0a09 6bba 0000 0000 0d0d 4dba c650 223c
00000040: 62e0 fe3b f6c2 b2bb 5229 b13c b840 cb38
00000050: 68ba 5f3c 80be ae3c c184 6d3b ef60 183a
00000060: dfce 103b d9c8 803c 194d b13b 930f 80bc
00000070: 0c63 523c 1129 0dbb d26a d83c 5654 2bbb
00000080: 196c 0bbc f1c8 643c d581 48bc 2629 eb3b
00000090: ecec 31ba c78d ed3c f41c bcbb 7527 363c
000000a0: 7038 2b3c 9e01 1d3c 4d72 1dbc fa20 ac3b
000000b0: 607c 57bc 5a86 58bc 3077 9e3c 8fbf fd3b

sequential/conv1d_3/BiasAdd/ReadVariableOp f4 [64]
-0.0066052624 -0.0028607806 0.0062877648 0.011360749 -0.0050183926 0.014925285 -0.010854836 -1.3600067e-05
-0.0025338628 0.010963712 -0.00022819448 0.00033674753 0.010379569 0.007399579 0.019329336 -0.011579279
-0.004862959 0.021583026 0.009831802 -0.00037036254 0.02180448 -0.0034773478 0.02109171 0.0
0.0 0.0 0.0031549346 0.035121754 0.0011138722 -0.0027566038 0.012702089 4.2373646e-05
-0.017414277 -0.0024682328 -0.009318473 0.009850413 -0.0028632511 0.0008177462 0.0019585511 -0.0041074464
-0.000263313 0.008096505 -0.0007446669 -9.727122e-05 -0.0036832027 -0.0076930104 0.0058452017 -0.006601394
0.009843471 0.006000439 0.0032343478 0.0060469923 0.0028478561 -0.0004588962 -0.00598213 -0.0038610206
-0.001939848 0.010596887 0.00058802887 0.025563335 0.00019135312 0.0064850613 0.007618874 -0.0030980213
00000000: f570 d8bb ef7b 3bbb 9809 ce3b 6f22 3a3c
00000010: 5471 a4bb 2f89 743c 7bd8 31bc d82b 64b7
00000020: 2a0f 26bb 24a1 333c 7d47 6fb9 7d8d b039
00000030: 110f 2a3c 2b78 f23b 8e58 9e3c 04b7 3dbc
00000040: 7559 9fbb e3ce b03c 9115 213c 382d c2b9
00000050: 4f9f b23c 37e4 63bb 86c8 ac3c 0000 0000
00000060: 0000 0000 0000 0000 05c3 4e3b d4db 0f3d
00000070: 59ff 913a 23a8 34bb 6c1c 503c 5bba 3138
00000080: 63a8 8ebc 13c2 21bb 82ac 18bc a063 213c
00000090: 62a5 3bbb 055e 563a 095b 003b c297 86bb
000000a0: 460d 8ab9 34a7 043c c035 43ba 17fe cbb8
000000b0: e361 71bb a615 fcbb 1b89 bf3b 8250 d8bb
000000c0: 8346 213c 559f c43b 5af7 533b d925 c63b
000000d0: 19a3 3a3b 0198 f0b9 be05 c4bb 2d09 7dbb
000000e0: 7f42 feba 919e 2d3c f325 1a3a 336a d13c
000000f0: f6a5 4839 a380 d43b bfa7 f93b 2c08 4bbb

sequential/conv1d_4/BiasAdd/ReadVariableOp f4 [64]
0.014170044 -0.0036955292 -0.00033960864 -0.0016168053 -0.015635567 0.0011266557 -0.0025260905 0.0011877737
0.008544121 0.0028291189 -0.012591084 -0.015278354 -0.005051761 0.0007235919 -0.003068085 0.006565877
0.00054890546 0.0075692115 -0.02350353 -0.009587687 0.012776441 -0.0057134638 0.0031637081 0.016126808
-0.0049511343 -0.00035655694 0.00036390495 0.02201516 -0.006066633 0.018271161 -0.012176237 -0.01295996
0.01779763 0.0019494381 0.021268027 0.0033372755 0.0036745183 -0.0005763132 -0.004315092 0.010351845
0.0058683814 -0.0034789129 0.0 0.01314068 -0.0039287894 0.009765324 0.0015452477 0.015894448
-0.009903671 0.0026316962 -0.0029976426 -0.013412441 -0.003589268 0.005084558 5.7490706e-07 0.009474503
0.0027393932 0.0022526272 0.002036642 0.017764462 0.008281575 -0.0025383483 0.000996977 0.001710197
00000000: 7929 683c b130 72bb 800d b2b9 fcea d3ba
00000010: 2916 80bc 4bac 933a c48c 25bb 12af 9b3a
00000020: a4fc 0b3c bd68 393b d64a 4ebc 1052 7abc
00000030: 3e89 a5bb 6eaf 3d3a ed11 49bb 9126 d73b
00000040: 6ce4 0f3a 2607 f83b 7a8a c0bc ad15 1dbc
00000050: 4754 513c 0238 bbbb 3756 4f3b 5e1c 843c
00000060: 203d a2bb 43f0 bab9 7fca be39 2359 b43c
00000070: 9bca c6bb 67ad 953c d77e 47bc 0356 54bc
00000080: 56cc 913c 4a84 ff3a 493a ae3c 31b6 5a3b
00000090: 30d0 703b b913 17ba 9e65 8dbb c99a 293c
000000a0: 8d4b c03b 79fe 63bb 0000 0000 024c 573c
000000b0: 13bd 80bb bdfe 1f3c e989 ca3a 1335 823c
000000c0: 0243 22bc 8978 2c3b 1974 44bb dbbf 5bbc
000000d0: ed39 6bbb 5d9c a63b 5053 1a35 f23a 1b3c
000000e0: 6487 333b d0a0 133b 2f79 053b c786 913c
000000f0: 71af 073c 6b5a 26bb ffac 823a b028 e03a

sequential/conv1d/Conv1D f4 [24, 1, 10, 1]
0.02868767 -0.013979101 0.14176986 0.008301981 0.0048264167 0.08988204 -0.059404027 0.10985561
0.001387057 0.11351845 -0.016735435 -0.11291039 -0.025948415 0.09524447 0.15868871 0.14805277
-0.10204212 0.0622014 0.1442601 0.03705197 -0.11822049 0.020853342 0.022062426 0.15383482
0.12212661 -0.013235489 -0.12673208 0.12175301 0.09779417 -0.057570815 -0.13053699 -0.027252225
0.019747902 0.039771177 0.02309649 0.06677542 -0.0026742748 0.120739095 0.11625313 0.0025061849
-0.00011523086 0.037419315 -0.07283317 0.020523202 -0.06486375 -0.04897704 0.033121333 0.16078503
-0.035785165 -0.14392671 -0.13667727 -0.113652445 -0.04844743 0.09281594 0.12784506 0.1627013
-0.064153045 0.030800024 -0.10431024 -0.05995204 0.12017326 -0.0063758763 -0.08799687 0.021945992
-0.10465558 -0.103963874 0.17045632 -0.12297628 -0.05409623 -0.12150625 0.05829105 -0.00059883663
-0.02102877 -0.04428584 0.14712521 0.07350129 0.13999951 -0.07498455 0.03528912 0.05153262
0.14681013 0.009124218 0.15645504 -0.06280756 0.13760652 0.13457486 0.017737607 -0.056782242
0.06799008 0.018975819 -0.015913555 0.09216713 -0.07100508 -0.06754753 0.14856412 0.107640274
-0.07466023 -0.05430307 -0.0928963 0.14981338 -0.033039924 -0.09094983 0.06924882 -0.000912345
0.033520564 0.030328194 0.019591782 0.106484435 0.017180702 -0.15425535 0.05944544 0.12127566
0.019615125 -0.15136622 0.1524453 -0.15700574 0.07631981 -0.014578589 0.06896915 -0.10090359
0.07115929 0.12423924 0.106522456 0.12861714 0.04777073 -0.014802288 0.0856461 0.12332132
-0.0281911 -0.08214993 -0.036518432 -0.043916542 0.13421056 0.14801991 -0.08287697 0.15125132
0.077359185 0.14887539 -0.09519508 0.09348858 -0.14869203 0.006704957 0.052137613 -0.11819745
-0.02723319 -0.10450261 -0.030404726 0.101128235 0.15460476 0.017458536 0.12569739 -0.0970253
-0.1151541 0.12803665 -0.12768269 0.15514311 0.046504036 -0.09729313 0.034357842 -0.084070966
-0.13998096 -0.07650431 0.010704466 -0.10294061 -0.070720114 -0.07376877 -0.0853474 0.06607969
0.12702845 -0.13073038 -0.14823744 0.06403449 0.008095275 -0.07417788 -0.052814253 0.011257804
0.11777513 -0.103651 0.07945318 -0.0031962306 0.05295625 0.062323138 -0.083594844 0.020596992
0.091877684 0.15313171 -0.13274646 -0.0010361427 0.06111443 0.09407501 -0.039886083 0.108752444
-0.070045404 -0.004258213 -0.14793937 0.090538986 0.09698178 -0.03277577 -0.025516322 0.02076476
0.12597454 -0.13526465 0.023689874 -0.10044034 -0.12769756 0.104150556 0.1387651 -0.11174818
0.13750753 -0.064217515 0.017043797 -0.0014308915 -0.0944527 0.012347426 0.13085312 -0.09239623
-0.08804975 -0.15382147 -0.13451986 -0.05862257 0.06746081 -0.072826385 0.106450036 0.09628704
0.05869729 -0.0301806 0.029900739 -0.14046864 -0.07868808 0.16067967 0.004350428 -0.14215295
0.14115307 0.035741843 0.14315659 -0.01641731 -0.09134905 0.13890244 0.1370759 0.12801608
00000000: 6802 eb3c 9908 65bc 1e2c 113e 0805 083c
00000010: eb26 9e3b 1314 b83d a351 73bd fafb e03d
00000020: e9cd b53a 5c7c e83d c018 89bc 903d e7bd
00000030: c591 d4bc 880f c33d 4b7f 223e 259b 173e
00000040: 76fb d0bd e5c6 7e3d ebb8 133e cec3 173d
00000050: 961d f2bd a1d4 aa3c 43bc b43c e086 1d3e
00000060: 841d fa3d aad9 58bc 0ec6 01be a459 f93d
00000070: 4f48 c83d 60cf 6bbd 7dab 05be 0f40 dfbc
00000080: 5ac6 a13c 1ae7 223d da34 bd3c 8dc1 883d
00000090: e342 2fbb 0f46 f73d 1f16 ee3d ce3e 243b
000000a0: 19a8 f1b8 ff44 193d 8f29 95bd 4620 a83c
000000b0: 49d7 84bd 269c 48bd 3caa 073d d5a4 243e
000000c0: 7793 12bd 8661 13be 20f5 0bbe 9dc2 e8bd
000000d0: d070 46bd 4916 be3d d1e9 023e 2b9b 263e
000000e0: ac62 83bd 5550 fc3c 9ba0 d5bd 4590 75bd
000000f0: 661d f63d baec d0bb b437 b4bd 15c8 b33c
00000100: aa55 d6bd 03eb d4bd 1a8c 2e3e fdda fbbd
00000110: 0294 5dbd 45d8 f8bd 99c2 6e3d 3ffb 1cba
00000120: 8744 acbc 1265 35bd fea7 163e d887 963d
00000130: 085c 0f3e 8091 99bd 538b 103d de13 533d
00000140: 6555 163e be7d 153c c035 203e 40a1 80bd
00000150: b9e8 0c3e fecd 093e 754e 913c 7f94 68bd
00000160: 623e 8b3d 2d73 9b3c 255d 82bc 1fc2 bc3d
00000170: 1d6b 91bd 5c56 8abd 3121 183e 8172 dc3d
00000180: 76e7 98bd e56c 5ebd 6a40 bebd ae68 193e
00000190: df54 07bd e843 babd 53d2 8d3d 702a 6fba
000001a0: dc4c 093d d572 f83c f27e a03c 8314 da3d
000001b0: 8bbe 8c3c 1df5 1dbe 107d 733d 605f f83d
000001c0: e6af a03c bfff 1abe 9f1a 1c3e 1dc6 20be
000001d0: 8f4d 9c3d 09db 6ebc b33f 8d3d 8ba6 cebd
000001e0: f6bb 913d 2571 fe3d 7228 da3d 36b4 033e
000001f0: 3eab 433d 4c85 72bc 3967 af3d e38f fc3d
00000200: 06f1 e6bc 393e a8bd 5a94 15bd d5e1 33bd
00000210: 7e6e 093e 8892 173e 67bb a9bd a0e1 1a3e
00000220: 7e6e 9e3d ca72 183e a3f5 c2bd f176 bf3d
00000230: b942 18be 42b5 db3b 408e 553d 8111 f2bd
00000240: 2418 dfbc 7705 d6bd 5513 f9bc 521c cf3d
00000250: b650 1e3e 3405 8f3c d1b6 003e 33b5 c6bd
00000260: ead5 ebbd 0a1c 033e 40bf 02be d6dd 1e3e
00000270: 047b 3e3d 9f41 c7bd cfba 0c3d 662d acbd
00000280: 2b57 0fbe 4bae 9cbd c961 2f3c 87d2 d2bd
00000290: b5d5 90bd 1514 97bd 9eca aebd ca54 873d
000002a0: bf13 023e 2fde 05be 8ecb 17be 8424 833d
000002b0: 0ba2 043c 93ea 97bd c253 58bd a772 383c
000002c0: 1634 f13d fa46 d4bd 59b8 a23d da77 51bb
000002d0: a7e8 583d 8c46 7f3d c633 abbd 06bb a83c
000002e0: 5e2a bc3d 8fce 1c3e b0ee 07be 2ecf 87ba
000002f0: 2053 7a3d 66aa c03d 975f 23bd 9ab9 de3d
00000300: f773 8fbd 7b88 8bbb 6b7d 17be 816c b93d
00000310: 629e c63d e33f 06bd 9b07 d1bc dc1a aa3c
00000320: 78ff 003e d182 0abe 4411 c23c aab3 cdbd
00000330: 26c3 02be e34c d53d 7018 0e3e 3bdc e4bd
00000340: c6ce 0c3e 7984 83bd 6f9f 8b3c c08c bbba
00000350: 6b70 c1bd dc4c 4a3c 5cfe 053e 3c3a bdbd
00000360: 6d53 b4bd 6083 1dbe 93bf 09be 381e 70bd
00000370: e528 8a3d 0026 95bd 7a02 da3d 2432 c53d
00000380: 926c 703d 4e3d f7bc 65f2 f43c 03d7 0fbe
00000390: 3727 a1bd 3689 243e 098e 8e3b 8b90 11be
000003a0: 6e8a 103e 0a66 123d a497 123e 987d 86bc
000003b0: 3615 bbbd 713c 0e3e a05d 0c3e a616 033e

sequential/conv1d_1/Conv1D f4 [36, 1, 8, 24]
0.018930336 -0.0760318 0.0042998516 -0.006836467 0.036255397 -0.1067985 -0.07336024 -0.057755522
0.06834723 -0.038103808 -0.0035800291 -0.040084925 -0.08177214 0.046347193 0.075529635 -0.02653018
-0.05046675 -0.0795131 -0.011549636 -0.09605937 0.07086041 -0.09348619 0.0030734828 -0.028924113
0.011700825 -0.09769949 0.08283633 -0.10880765 0.019470094 0.083455116 -0.12120604 -0.046266757
-0.041965038 -0.043496434 0.019044569 0.025405865 0.040186394 0.06947161 0.048852526 -0.025854018
-0.018329643 -0.10402928 -0.054961372 0.05296693 0.055718247 0.037761703 -0.028661326 -0.007266432
-0.09788074 -0.060857583 -0.047696516 0.080811165 0.09142174 -0.01059774 0.05799469 0.0062027336
-0.08815413 -0.033512324 0.05602965 0.033377394 -0.08119184 0.065787986 -0.07223417 -0.087190956
-0.05220153 0.019437835 0.08984337 -0.06613984 -0.059205614 0.020975364 0.09259471 0.041868478
0.025658311 0.017955918 -0.124120384 -0.062375203 0.08880682 -0.095778175 0.05556707 0.05871016
0.03917033 -0.05024463 0.015341863 -0.06171036 0.018508285 -0.054099053 0.07103597 0.050304323
-0.091414556 0.07335299 -0.034423634 0.0471064 0.12454662 -0.091220915 0.115463935 0.07886434
-0.02006343 0.013512665 -0.08990472 -0.052937873 0.040565137 0.0654886 -0.03424701 0.08040048
0.07125424 0.095874675 0.05354187 -0.027357709 0.029913994 -0.09869591 0.06131493 -0.0063934037
0.037546273 -0.06944711 0.09198145 -0.009974527 -0.08637251 -0.09271863 -0.047574215 -0.049041085
0.064403646 -0.0014479252 -0.10870234 0.0677027 0.049891412 -0.036102336 0.026285099 0.09703966
0.07345911 0.07876936 0.09447266 0.08622191 0.018519621 -0.050401956 0.07187585 0.056418963
-0.09975638 -0.04811503 -0.09650552 0.13474904 -0.06801661 0.00011846902 -0.12289521 -0.0061453423
-0.0385074 -0.045718092 0.025136357 -0.014804013 0.07007087 0.07064991 -0.04955333 -0.037836924
0.003920551 0.019365039 -0.06268978 -0.04452682 0.027132085 -0.0677978 0.026589204 0.08636719
0.056704096 0.09210848 -0.07327608 -0.09725967 0.047704823 0.0055417665 0.06241453 -0.017289402
-0.108550265 -0.06832066 -0.04882562 -0.08387321 0.08560581 -0.09795544 0.05921892 0.10484457
0.021219872 0.1048805 0.07174136 0.11746031 -0.10893711 0.050604653 -0.077389695 0.018700387
-0.025868308 0.017367478 -0.09396167 0.0008233093 0.070810154 -0.041445993 -0.034526344 0.070062906
-0.006484419 -0.06496416 -0.047702976 0.021327525 -0.10548174 -0.09030016 -0.06503069 -4.2170286e-05
-0.019530162 0.015813082 0.09148984 0.05196628 -0.10751516 -0.017637722 0.05144286 -0.041212693
-0.08396597 -0.012245558 -0.04432617 -0.00074828416 -0.045313694 -0.016870186 0.05105126 -0.06549506
0.09165254 -0.033546373 -0.056432366 0.08328931 0.050344914 -0.021794856 0.082264915 0.06863397
-0.041296817 -0.0149609 0.07831895 0.041443825 0.011360206 -0.016664885 -0.0046507567 0.012910835
0.097904444 0.0058055148 0.08906916 0.025835112 0.059338912 -0.03594768 -0.046470247 -0.027650513
0.08714113 -0.044175856 -0.052704338 -0.05235288 0.08313435 0.028656378 0.016472235 0.0025363192
-0.045318708 0.02570799 0.10513505 0.023709074 0.029954389 -0.10180769 0.071211204 -0.10822254
00000000: cb13 9b3c 8fb6 9bbd c5e5 8c3b 7104 e0bb
00000010: 8a80 143d 2cb9 dabd e53d 96bd 0e91 6cbd
00000020: a2f9 8b3d bd12 1cbd ec9e 6abb 1730 24bd
00000030: 2778 a7bd 8ed6 3d3d 48af 9a3d d255 d9bc
00000040: 39b6 4ebd c4d7 a2bd af3a 3dbc c6ba c4bd
00000050: 431f 913d b075 bfbd 7c6c 493b 43f2 ecbc
00000060: d1b4 3f3c ac16 c8bd 18a6 a93d 8cd6 debd
00000070: bf7f 9f3c 84ea aa3d df3a f8bd 3682 3dbd
00000080: 88e3 2bbd 5129 32bd 5b03 9c3c f61f d03c
00000090: 7d9a 243d 2247 8e3d 9619 483d cecb d3bc
000000a0: 0c28 96bc 4e0d d5bd 2d1f 61bd daf3 583d
000000b0: d138 643d 04ac 1a3d 28cb eabc 401b eebb
000000c0: b375 c8bd cd45 79bd 6c5d 43bd 5380 a53d
000000d0: 523b bb3d 25a2 2dbc d78b 6d3d 4d40 cb3b
000000e0: 278a b4bd 3844 09bd 597f 653d bcb6 083d
000000f0: e847 a6bd dabb 863d 82ef 93bd 2c91 b2bd
00000100: 46d1 55bd 183c 9f3c cdff b73d 5374 87bd
00000110: 9681 72bd 87d4 ab3c 4ca2 bd3d 487e 2b3d
00000120: 6131 d23c 4a18 933c d432 febd 247d 7fbd
00000130: 5ae0 b53d 5927 c4bd 4c9a 633d 117a 703d
00000140: 1171 203d 50cd 4dbd 705c 7b3c 01c4 7cbd
00000150: b09e 973c f896 5dbd 4e7b 913d e80b 4e3d
00000160: 8e37 bbbd 183a 963d ccff 0cbd a4f2 403d
00000170: 4c12 ff3d 08d2 babd 5b78 ec3d a183 a13d
00000180: 105c a4bc 3a64 5d3c f71f b8bd 62d5 58bd
00000190: a127 263d e31e 863d 9846 0cbd 02a9 a43d
000001a0: beed 913d f159 c43d b84e 5b3d 461d e0bc
000001b0: 310e f53c 1521 cabd 5d25 7b3d c27f d1bb
000001c0: 1fca 193d 493a 8ebd c560 bc3d 336c 23bc
000001d0: 12e4 b0bd 44e3 bdbd 2edd 42bd 4edf 48bd
000001e0: 0fe6 833d 4fc8 bdba 559f debd b7a7 8a3d
000001f0: f05a 4c3d 0be0 13bd d953 d73c bbbc c63d
00000200: bb71 963d d551 a13d e27a c13d 1d95 b03d
00000210: 76b6 973c 4872 4ebd a533 933d 9217 673d
00000220: 134d ccbd 4414 45bd b0a4 c5bd a7fb 093e
00000230: 4b4c 8bbd 9272 f838 7cb0 fbbd de5e c9bb
00000240: efb9 1dbd e542 3bbd c3ea cd3c 888c 72bc
00000250: 5181 8f3d e6b0 903d 6ff8 4abd e4fa 1abd
00000260: f777 803b 6ea3 9e3c 8063 80bd c161 36bd
00000270: 1b44 de3c 93d9 8abd 9ad1 d93c 48e1 b03d
00000280: 8e42 683d 5fa3 bc3d c511 96bd 1430 c7bd
00000290: 2266 433d b597 b53b 61a6 7f3d 81a2 8dbc
000002a0: 9a4f debd b4eb 8bbd 60fd 47bd b8c5 abbd
000002b0: 1952 af3d dd9c c8bd 8a8f 723d c0b8 d63d
000002c0: 4cd5 ad3c 96cb d63d 22ed 923d 088f f03d
000002d0: 6b1a dfbd d346 4f3d 7d7e 9ebd 8e31 993c
000002e0: c6e9 d3bc 3e46 8e3c fa6e c0bd 5ad3 573a
000002f0: ea04 913d 46c3 29bd 7f6b 0dbd 247d 8f3d
00000300: 407b d4bb ee0b 85bd 3264 43bd 10b7 ae3c
00000310: cf06 d8bd 4aef b8bd cf2e 85bd 00e0 30b8
00000320: b8fd 9fbc 708a 813c 065f bb3d 98da 543d
00000330: e930 dcbd fc7c 90bc c0b5 523d a4ce 28bd
00000340: 5af6 abbd 98a1 48bc 5c8f 35bd 8028 44ba
00000350: da9a 39bd 5833 8abc 201b 513d 4622 86bd
00000360: 54b4 bb3d ec67 09bd a025 67bd 9693 aa3d
00000370: 7836 4e3d 208b b2bc 827a a83d f88f 8c3d
00000380: da26 29bd 901e 75bc b065 a03d 00c1 293d
00000390: 2820 3a3c cc84 88bc 6065 98bb f887 533c
000003a0: 2082 c83d 303c be3b e469 b63d 28a4 d33c
000003b0: 5c0d 733d e03d 13bd 9657 3ebd 5483 e2bc
000003c0: 0c77 b23d bef1 34bd 81e0 57bd f96f 56bd
000003d0: 5842 aa3d c8c0 ea3c c8f0 863c 6038 263b
000003e0: 1ca0 39bd 9099 d23c 0c51 d73d 8839 c23c
000003f0: e862 f53c 8d80 d0bd 2ed7 913d c7a3 ddbd

sequential/conv1d_2/Conv1D f4 [48, 1, 4, 36]
0.058536083 -0.11787313 0.14690924 -0.10306847 -0.022513 0.052369084 -0.0077897743 0.03199245
-0.08168972 -0.07681029 0.013038305 -0.0077532753 -0.13994208 -0.095991746 -0.0010216676 -0.05638568
-0.08855414 0.04464226 0.027235013 -0.10224666 0.11496504 -0.04172102 -0.005098202 -0.084154606
-0.034049194 -0.03327056 0.049724206 -0.041240096 -0.123176485 0.13741452 -0.09866746 0.08074622
0.13224687 -0.04671841 -0.024304934 0.08213213 -0.080697566 0.054325283 0.08324815 0.11749595
0.028897237 0.008011416 -0.10585027 0.042070583 -0.04395056 -0.014487807 -0.025851823 -0.030227993
0.12486432 0.07783652 -0.03483632 0.034385465 0.040260702 0.13245143 -0.10495177 -0.089165255
-0.0015543158 -0.026687086 0.11220479 -0.095341444 0.0047949078 0.004688845 0.027293496 0.11474566
0.0042037 0.01481811 0.07716711 -0.05390182 0.1290674 -0.066905126 -0.02223359 -0.051945727
-0.07246565 0.02176629 -0.100393474 -0.02253844 -0.07788393 -0.01772276 0.104456 -0.08533657
0.14379871 0.092691466 -0.10569163 -0.10638769 -0.011804411 -0.046898317 0.02350965 0.12509717
-0.107573844 -0.068930976 -0.0033607306 -0.101107426 0.06976709 -0.021169553 -0.002122465 0.026542477
0.09631629 0.041395128 -0.117902726 0.10917301 -0.0055549466 -0.0030799736 0.017249424 0.0044748383
-0.06450984 -0.0336593 -0.0601977 -0.02441549 0.059373878 0.05458027 0.14240794 -0.10790277
-0.020118885 0.11644883 0.040022247 0.028894847 0.095627286 -0.0900723 -0.01614214 -0.0044065956
-0.00049742765 -0.029975727 -0.08809195 -0.051730715 -0.05042775 0.042286538 0.061540727 0.043702587
0.022070777 -0.04472228 -0.004154606 -0.027418569 -0.008162316 -0.09645254 0.1438897 0.07686491
-0.06460701 -0.004005529 -0.07434894 0.0048314864 0.14324209 0.09441505 0.058495052 0.046284493
-0.07619494 0.07669555 0.023578089 0.050027553 0.03651757 -0.037607003 0.08430909 -0.065262355
-0.07461934 -0.1057049 0.030829623 0.11024097 0.016379086 0.1476152 -0.09751046 -0.018600302
0.031202178 -0.09318547 0.075692624 0.1052634 -0.0066203196 -0.10578174 0.119925834 -0.07740972
-0.09414412 -0.040710974 -0.03819936 -0.013559754 -0.07387951 0.10971134 0.0730265 0.15366474
0.0013356204 -0.013973513 -0.045714118 0.05053733 -0.08404518 0.054304644 0.05182706 -0.048766587
0.09438619 0.10732899 0.12517227 -0.014706659 -0.060659163 -0.087479964 -0.025953166 -0.08620127
-0.07184502 -0.075162865 0.03436581 0.12451098 -0.04400149 0.078137666 -0.013887375 0.096717164
0.055675697 -0.02843073 -0.10187439 0.100028634 -0.074822746 -0.09190347 -0.012158278 -0.07036785
-0.07274101 0.061815504 -0.022430662 0.112112604 0.113715306 -0.08640467 -0.0018688424 -0.039093386
-0.103195205 -0.06430146 -0.049093395 -0.12322691 0.07548769 -0.026765116 -0.090436466 0.022362716
-0.04897361 0.09411219 -0.10266749 0.03150501 0.13729434 0.16578531 0.14878346 0.022608694
0.058112517 0.019032907 -0.053783294 -0.11742775 -0.027130036 -0.120033234 0.13040313 -0.06746392
0.085015625 0.12414843 -0.10320455 -0.043371066 0.036706805 -0.03718921 0.10823792 0.06601109
0.040522918 -0.09029517 -0.122187845 -0.10590156 0.011051334 0.109405026 0.13170002 0.14239915
00000000: 88c3 6f3d 7867 f1bd 606f 163e 9015 d3bd
00000010: 2f6d b8bc f780 563d 5d41 ffbb 840a 033d
00000020: f14c a7bd b74e 9dbd 9d9e 553c 300f febb
00000030: fa4c 0fbe 5297 c4bd 7ae9 85ba acf4 66bd
00000040: df5b b5bd cdda 363d f61b df3c b266 d1bd
00000050: ca72 eb3d a9e3 2abd d10e a7bb 4059 acbd
00000060: 2b77 0bbd b646 08bd 9cab 4b3d 60eb 28bd
00000070: f443 fcbd 64b6 0c3e 2a12 cabd 465e a53d
00000080: b96b 073e ce5b 3fbd 241b c7bc e434 a83d
00000090: c444 a5bd 3084 5e3d 027e aa3d b7a1 f03d
000000a0: e6b9 ec3c 5042 033c 07c8 d8bd 3452 2c3d
000000b0: 8105 34bd 445e 6dbc 34c7 d3bc b2a0 f7bc
000000c0: ddb8 ff3d c168 9f3d 87b0 0ebd c6d7 0c3d
000000d0: 68e8 243d 59a1 073e f4f0 d6bd 469c b6bd
000000e0: 2fba cbba e09e dabc a0cb e53d 6042 c3bd
000000f0: 9a1e 9d3b e2a4 993b 9c96 df3c c6ff ea3d
00000100: 31bf 893b a8c7 723c ca09 9e3d 28c8 5cbd
00000110: 3f2a 043e 8e05 89bd 3823 b6bc 0bc5 54bd
00000120: df68 94bd 384f b23c 189b cdbd 89a2 b8bc
00000130: 9c81 9fbd 522f 91bc 07ed d53d f1c4 aebd
00000140: f83f 133e 06d5 bd3d da74 d8bd cae1 d9bd
00000150: 4a67 41bc 7318 40bd 4f97 c03c 7919 003e
00000160: ad4f dcbd af2b 8dbd b43f 5cbb 6911 cfbd
00000170: 0ce2 8e3d c56b adbc 0e19 0bbb 9c6f d93c
00000180: 7a41 c53d f08d 293d fc76 f1bd 1996 df3d
00000190: 4506 b6bb 62d9 49bb aa4e 8d3c aaa1 923b
000001a0: bc1d 84bd 56de 09bd dd91 76bd fe02 c8bc
000001b0: 0632 733d 908f 5f3d 63d3 113e 21fc dcbd
000001c0: 5cd0 a4bc b97c ee3d 5eee 233d e3b4 ec3c
000001d0: 3dd8 c33d d377 b8bd 853c 84bc 3465 90bb
000001e0: ce65 02ba a88f f5bc 8d69 b4bd 96e3 53bd
000001f0: 548d 4ebd a634 2d3d 2112 7c3d 7c01 333d
00000200: c6cd b43c b62e 37bd 5c23 88bb e89c e0bc
00000210: 3cbb 05bc e988 c5bd d257 133e 5a6b 9d3d
00000220: ae50 84bd d040 83bb 4244 98bd 7251 9e3b
00000230: 0eae 123e ae5c c13d 8298 6f3d cf94 3d3d
00000240: 180c 9cbd 8e12 9d3d d626 c13c b1e9 4c3d
00000250: 7393 153d cd09 1abd 3faa ac3d 45a8 85bd
00000260: 06d2 98bd d07b d8bd 688e fc3c 05c6 e13d
00000270: 6f2d 863c 7028 173e 90b3 c7bd a95f 98bc
00000280: b69b ff3c 06d8 bebd bc04 9b3d 5694 d73d
00000290: 44ef d8bb 19a4 d8bd ad9b f53d fd88 9ebd
000002a0: a2ce c0bd 8dc0 26bd ef76 1cbd bb29 5ebc
000002b0: 244e 97bd 57b0 e03d eb8e 953d 4a5a 1d3e
000002c0: fc0f af3a 29f1 64bc ba3e 3bbd 3b00 4f3d
000002d0: e11f acbd 8c6e 5e3d 9c48 543d 79bf 47bd
000002e0: 8c4d c13d 4dcf db3d 292d 003e 33f4 70bc
000002f0: be75 78bd b228 b3bd bc9b d4bc 4b8a b0bd
00000300: 7b23 93bd fdee 99bd 2ac3 0c3d 9dff fe3d
00000310: e83a 34bd a406 a03d df87 63bc a613 c63d
00000320: 330c 643d 90e7 e8bc 85a3 d0bd d0db cc3d
00000330: ab3c 99bd e337 bcbd 8433 47bc 051d 90bd
00000340: 3df9 94bd 4132 7d3d 82c0 b7bc 4b9b e53d
00000350: 92e3 e83d eef4 b0bd f2f3 f4ba 6320 20bd
00000360: 0258 d3bd 7cb0 83bd 2816 49bd 645e fcbd
00000370: 4a99 9a3d 8442 dbbc c136 b9bd 0432 b73c
00000380: 8d98 48bd e4bd c03d 5543 d2bd 660b 013d
00000390: e396 0c3e a0c3 293e b15a 183e de35 b93c
000003a0: 6407 6e3d e6ea 9b3c df4b 5cbd f67d f0bd
000003b0: cf3f debc fcd3 f5bd 6688 053e 862a 8abd
000003c0: ac1c ae3d 8841 fe3d e85c d3bd dca5 31bd
000003d0: e059 163d b753 18bd d8ab dd3d d330 873d
000003e0: 5cfb 253d adec b8bd 9f3d fabd ebe2 d8bd
000003f0: a810 353c be0f e03d 5fdc 063e 15d1 113e

sequential/conv1d_3/Conv1D f4 [64, 1, 3, 48]
0.123642065 0.039455056 -0.11841297 -0.09444614 -0.026746139 0.027497236 0.089317635 0.05356859
-0.10678322 -0.0968837 -0.10223935 -0.10181499 -0.03613589 0.06510061 -0.052569233 0.02516665
0.05229008 -0.13090375 0.08605214 -0.059511703 0.07672858 -0.113485 -0.08477122 0.115621194
-0.0065930802 -0.07131674 -0.07602671 0.050247427 0.054575406 -0.03498701 -0.07300339 -0.037896212
0.10289992 -0.11131117 -0.008745106 0.11204804 0.058593795 -0.004484841 -0.0055784746 -0.019676507
0.009281162 -0.064529635 -0.018895471 0.07338662 -0.055939935 0.05117461 0.0927784 0.07254416
0.043351643 -0.061111994 0.06829557 0.053031016 -0.0738348 -0.020624852 0.03730256 0.059389163
-0.05948423 0.04058771 0.051940735 0.11333797 0.07552541 -0.046461947 -0.08970306 0.13604829
0.09377223 0.13380258 0.026805738 -0.0031382127 0.11397248 0.03363907 0.044568066 -0.12960337
0.11412075 0.12954792 0.1265878 -0.024409002 0.1375525 -0.10177215 -0.1461134 -0.092421785
-0.042679593 -0.021753332 -0.064358324 0.12454756 -0.04885295 -0.09571293 -0.05196474 0.0635265
0.057505276 -0.07108285 0.03728712 0.043065593 0.047787163 0.092941836 -0.05757614 -0.070041716
-0.05190992 -0.13271664 0.094421305 -0.0914348 0.06605595 -0.11994098 0.100335576 0.106729984
-0.00451476 -0.13456781 -0.070826456 -0.078081675 -0.019530457 -0.060540035 0.07714806 -0.1763509
0.0570613 -0.06103798 0.12592329 -0.005033637 0.055326242 -0.103301674 0.06046352 -0.08205688
-0.07396529 -0.052637104 -0.059742108 -0.06449406 0.06022736 0.033798814 -0.057970062 -0.007164726
0.066258736 0.053616643 -0.10058844 0.10429755 0.011098362 0.09480087 -0.086301476 -0.013132061
0.11281014 0.017032372 0.041443516 -0.040109005 0.09177826 0.057478063 -0.023208039 0.016421104
0.00914557 0.10160188 0.055103213 0.08629654 -0.074724995 -0.1346361 -0.10381025 0.080221586
-0.025121924 -0.11664959 0.13155402 -0.030636521 0.07458771 0.09068446 -0.10346963 0.020235403
-0.072456166 -0.040524628 -0.11106751 -0.086855985 0.11558009 0.050267994 0.12983453 0.12487038
-0.08431059 -0.13626646 -0.095918834 -0.06969792 0.11379173 0.034534674 -0.012156351 0.06909141
-0.0058651404 -0.11901722 0.077570006 -0.0005077984 0.03789592 0.11828806 -0.032796063 -0.08469117
-0.017496165 -0.023621066 0.00040467098 -0.041544445 -0.118172966 0.10865925 -0.02791924 -0.057859845
0.06694593 0.07070129 0.09958892 -0.021238554 -0.06612768 -0.078111224 -0.11679597 -0.07425649
-0.056627665 0.02524028 -0.00047419476 0.11705502 0.1047652 0.0027995706 0.05119755 -0.08846465
0.10687657 -0.07006399 -0.10126885 0.085368335 -0.12916023 0.011580098 -0.13118081 0.08458882
-0.10992442 -0.0063288943 -0.007309563 -0.13792506 0.15100248 -0.06086839 -0.06698229 -0.12523814
-0.08818608 -0.074833125 -0.027574344 -0.057196375 -0.111900456 -0.019275041 -0.12443342 -0.14080621
0.003749692 0.036843877 0.004761479 -0.09551698 -0.044086877 0.058568913 -0.07241483 0.0636565
0.10207934 0.05133585 0.022353733 0.029795224 -0.039557535 -0.010225605 -0.106049515 0.0012355369
0.10486224 -0.01773476 -0.13065521 0.0010148626 0.087741695 0.020911962 0.12847671 -0.10638964
00000000: 0d38 fd3d a09b 213d 8082 f2bd fa6c c1bd
00000010: b81a dbbc e241 e13c 2aec b63d bd6a 5b3d
00000020: 29b1 dabd f66a c6bd dd62 d1bd 6184 d0bd
00000030: 3a03 14bd 7853 853d d652 57bd 4a2a ce3c
00000040: 1f2e 563d a20b 06be 1b3c b03d 8bc2 73bd
00000050: e023 9d3d d36a e8bd 899c adbd ceca ec3d
00000060: c40a d8bb 830e 92bd e4b3 9bbd 3fd0 4d3d
00000070: 768a 5f3d 8a4e 0fbd cd82 95bd 0f39 1bbd
00000080: 31bd d23d 1cf7 e3bd a247 0fbc 7179 e53d
00000090: 0c00 703d 93f5 92bb a3cb b6bb a030 a1bc
000000a0: 0410 183c 1d28 84bd adca 9abc b94b 963d
000000b0: 4621 65bd 789c 513d 9a02 be3d 0892 943d
000000c0: 7e91 313d 9250 7abd 8cde 8b3d 0d37 593d
000000d0: b336 97bd 73f5 a8bc 92ca 183d 0d42 733d
000000e0: bca5 73bd 4c3f 263d cfbf 543d bd1d e83d
000000f0: 11ad 9a3d e24e 3ebd 3db6 b7bd 3e50 0b3e
00000100: a80b c03d 8b03 093e b597 db3c 79aa 4dbb
00000110: 676a e93d 1fc9 093d 018d 363d bfb6 04be
00000120: 24b8 e93d 36a8 043e 3ba0 013e 63f5 c7bc
00000130: 90da 0c3e eb6d d0bd c09e 15be a247 bdbd
00000140: ccd0 2ebd 0b34 b2bc 4cce 83bd cb12 ff3d
00000150: 081a 48bd 2405 c4bd fbd8 54bd 2e1a 823d
00000160: a78a 6b3d e393 91bd 61ba 183d 8c65 303d
00000170: 79bc 433d 4a58 be3d f5d4 6bbd 0872 8fbd
00000180: 7f9f 54bd dfe6 07be f55f c13d 2b42 bbbd
00000190: 5848 873d 9ea3 f5bd bd7c cd3d 4095 da3d
000001a0: 8df0 93bb 25cc 09be 760d 91bd 49e9 9fbd
000001b0: 56fe 9fbc d4f8 77bd cdff 9d3d 5595 34be
000001c0: 1cb9 693d f602 7abd 09f2 003e 35f1 a4bb
000001d0: c59d 623d d48f d3bd 99a8 773d 700d a8bd
000001e0: 1d7b 97bd 019a 57bd 24b4 74bd 7615 84bd
000001f0: f7b0 763d a070 0a3d 0472 6dbd 14c6 eabb
00000200: a9b2 873d 209d 5b3d 5001 cebd f499 d53d
00000210: e7d5 353c f526 c23d d4be b0bd db27 57bc
00000220: 0109 e73d 7987 8b3c adc0 293d 5749 24bd
00000230: 3ef6 bb3d 1e6e 6b3d c91e bebc 8d85 863c
00000240: 4dd7 153c a514 d03d e8b3 613d 3ebc b03d
00000250: 6b09 99bd 0cde 09be 789a d4bd 374b a43d
00000260: 7ecc cdbc fbe5 eebd 19b6 063e 71f9 fabc
00000270: 71c1 983d c6b8 b93d e3e7 d3bd b7c4 a53c
00000280: e663 94bd 27fd 25bd 5d77 e3bd 8de1 b1bd
00000290: 41b5 ec3d d0e5 4d3d 58f3 043e 0bbc ff3d
000002a0: 08ab acbd 6f89 0bbe 1871 c4bd c8bd 8ebd
000002b0: a30b e93d 3b74 0d3d 6e2b 47bc cc7f 8d3d
000002c0: 5d30 c0bb 4dbf f3bd 06dd 9e3d c61d 05ba
000002d0: c138 1b3d 0341 f23d 2a55 06bd 9072 adbd
000002e0: 1e54 8fbc f780 c1bc 052a d439 822a 2abd
000002f0: ab04 f2bd be88 de3d e4b6 e4bc 72fe 6cbd
00000300: f31a 893d d7cb 903d 47f5 cb3d 7afc adbc
00000310: f36d 87bd c7f8 9fbd ba32 efbd c913 98bd
00000320: 69f2 67bd b4c4 ce3c 589d f8b9 8bba ef3d
00000330: 238f d63d 0079 373b 86b4 513d f42c b5bd
00000340: 1ae2 da3d b67d 8fbd 0b66 cfbd 98d5 ae3d
00000350: 9442 04be 74ba 3d3c 4354 06be e73c ad3d
00000360: 0e20 e1bd 9d62 cfbb 0f85 efbb 3a3c 0dbe
00000370: 65a0 1a3e 2251 79bd 032e 89bd 6d3e 00be
00000380: e79a b4bd 1c42 99bd 97e3 e1bc bf46 6abd
00000390: 112c e5bd b1e6 9dbc f3d6 febd 812f 10be
000003a0: 65bd 753b 9be9 163d 2e06 9c3b 689e c3bd
000003b0: 7194 34bd f5e5 6f3d 3a4e 94bd 575e 823d
000003c0: f90e d13d 8a45 523d 2d1f b73c 1d15 f43c
000003d0: 1507 22bd 4c89 27bc 7d30 d9bd bdf1 a13a
000003e0: 04c2 d63d 7d48 91bc 7bca 05be 2305 853a
000003f0: ebb1 b33d 904f ab3c 668f 033e d0e2 d9bd

sequential/conv1d_4/Conv1D f4 [64, 1, 3, 64]
-0.11794739 -0.030371182 0.10037762 -0.047126822 -0.12860282 0.027391676 0.085039385 0.11981189
0.004532841 0.025211895 0.05763161 -0.09815234 0.14649475 0.07889475 -0.113425516 -0.005143127
0.026732553 -0.021419067 -0.06612672 0.07937371 0.08571119 -0.029654864 -0.10041833 0.11530051
0.05420938 -0.095534265 -0.030673735 -0.0021496823 0.024804836 0.0541034 0.06329729 -0.050146937
0.059395395 0.008531518 -0.13737217 -0.053117536 0.001709601 0.045993038 -0.041838605 -0.065499745
0.04182756 -0.08197637 -0.04881209 -0.1177879 -0.06829839 0.053176753 -0.11043349 0.10141221
-0.019009415 0.058627293 0.02783627 -0.11585673 -0.03269935 -0.089057386 0.04313429 0.119021155
0.055295754 0.05338517 0.091737896 -0.08505428 0.06060524 0.07938065 -0.096635245 -0.04741852
-0.069971256 0.057452224 -0.1057974 0.014092513 0.018177617 -0.060092956 0.029978385 -0.07963611
0.015258941 0.13844615 0.038832087 0.020936867 0.10931351 -0.039999437 -0.07048073 -0.0052598105
0.12024257 -0.03278175 0.013851271 0.07066716 0.08537087 0.037372835 -0.06961205 -0.0208309
-0.027635694 0.01312238 -0.08776609 -0.071460046 -0.03804894 0.011572545 0.108637325 -0.1352746
-0.052908715 0.09282622 0.091350734 -0.058407795 -0.019204356 0.11286545 -0.006594757 0.11758603
-0.04277751 0.012619729 0.047298573 -0.115005605 -0.012266295 0.11140246 -0.029891454 0.13063808
0.04135704 0.06602486 -0.031134374 0.0464911 0.11690506 0.12549052 0.090492114 -0.06302952
-0.0077049644 -0.072648846 -0.076903105 -0.046377916 -0.06389616 0.0733386 -0.11701102 -0.10146994
0.10172991 -0.018532593 -0.006474896 -0.011693718 -0.07233879 -0.08351034 -0.08766547 0.13433737
-0.09879457 0.0847433 0.00310415 -0.04489985 0.01620015 0.08913174 0.05066984 0.09623184
0.099280305 0.098340385 0.06333538 -0.110227056 -0.013091105 0.11417257 -0.06806471 -0.08607745
0.06958607 0.105431676 -0.033261072 -0.027763426 0.056714885 0.081296965 0.04774151 0.0997979
-0.04133547 -0.08805064 -0.096337214 -0.11460039 -0.101193056 -0.043324213 -0.058894563 0.050365575
0.079630405 0.08636144 -0.11279538 0.05961302 0.038460523 0.015946457 -0.041136473 0.10564491
-0.075752854 -0.08847076 -0.084795296 0.04223246 -0.100386836 0.00075227144 -0.10519192 -0.046560787
0.098120816 -0.10798696 -0.0561065 0.1514736 0.10886416 0.11059672 0.01971657 -0.06674398
-0.11718531 0.020202605 -0.0013430581 -0.14075884 0.08611615 0.13904798 -0.12068654 0.04931482
0.022315454 0.041314553 0.07244143 -0.006464869 0.101253696 -0.0427798 -0.058139723 0.057621654
0.030200055 0.024497561 0.061660934 -0.06252815 -0.005955805 -0.11409874 -0.15296216 0.042246938
0.044641256 0.015372127 -0.120186664 0.0119749615 -0.015473286 0.115404725 0.058291797 0.021814918
0.114422 -0.094352186 -0.07166303 0.09179499 -0.12246269 0.099617764 0.08182216 -0.0099094575
0.08707111 -0.12760593 -0.06840078 -0.0066877273 0.07933136 0.018974414 0.046875365 -0.024064125
-0.031020524 0.109458655 0.05221406 0.0022133067 -0.09669438 0.10904237 0.1063711 -0.009615484
-0.013336873 -0.09286941 -0.040181402 -0.10888013 0.006469162 -0.010027198 -0.041066214 -0.015952088
00000000: 678e f1bd fccc f8bc c892 cd3d 0e08 41bd
00000010: 75b0 03be 8264 e03c 2129 ae3d f05f f53d
00000020: 3a88 943b 2d89 ce3c 200f 6c3d 1804 c9bd
00000030: b802 163e 9293 a13d a34b e8bd ad87 a8bb
00000040: 3afe da3c 0a77 afbc 726d 87bd af8e a23d
00000050: 5989 af3d c2ee f2bc 20a8 cdbd ac22 ec3d
00000060: a80a 5e3d 78a7 c3bd 7c47 fbbc afe1 0cbb
00000070: 8333 cb3c 879b 5d3d 02a2 813d e066 4dbd
00000080: 9648 733d c8c7 0b3c 4aab 0cbe c691 59bd
00000090: b114 e03a 3263 3c3d f55e 2bbd bb24 86bd
000000a0: 6053 2b3d 3ae3 a7bd 30ef 47bd c83a f1bd
000000b0: 07e0 8bbd decf 593d f42a e2bd 34b1 cf3d
000000c0: a2b9 9bbc 2c23 703d e408 e43c 4b46 edbd
000000d0: c1ef 05bd b863 b6bd 95ad 303d 5dc1 f33d
000000e0: cd7d 623d 68aa 5a3d 14e1 bb3d f030 aebd
000000f0: 333d 783d 5292 a23d b3e8 c5bd ec39 42bd
00000100: 174d 8fbd 0653 6b3d 4fac d8bd 49e4 663c
00000110: 3ae9 943c 0824 76bd 3b95 f53c 4218 a3bd
00000120: a300 7a3c d4c4 0d3e 650e 1f3d cb83 ab3c
00000130: c3df df3d 73d6 23bd 3358 90bd 7d5a acbb
00000140: bd41 f63d 2846 06bd 71f0 623c f2b9 903d
00000150: ecd6 ae3d 4214 193d c390 8ebd 90a5 aabc
00000160: 4064 e2bc 40ff 563c b5be b3bd a559 92bd
00000170: 35d9 1bbd c69a 3d3c 3f7d de3d 6d85 0abe
00000180: cfb6 58bd ac1b be3d 1816 bb3d 033d 6fbd
00000190: 7452 9dbc 0026 e73d d518 d8bb f2d0 f03d
000001a0: 7837 2fbd fbc2 4e3c 26bc 413d 0f88 ebbd
000001b0: 92f8 48bc f926 e43d ecde f4bc fdc5 053e
000001c0: 0066 293d 0b38 873d 840d ffbc 746d 3e3d
000001d0: ec6b ef3d 9680 003e ee53 b93d 9f15 81bd
000001e0: ed79 fcbb ebc8 94bd 607f 9dbd c5f6 3dbd
000001f0: fddb 82bd 8c32 963d 79a3 efbd 79cf cfbd
00000200: c557 d03d aad1 97bc 5d2b d4bb 0297 3fbc
00000210: 5c26 94bd 7807 abbd f489 b3bd bc8f 093e
00000220: cf54 cabd e58d ad3d ff6e 4b3b e8e8 37bd
00000230: 2db6 843c b48a b63d 2e8b 4f3d 3315 c53d
00000240: 7953 cb3d af66 c93d fbb5 813d b9be e1bd
00000250: 137c 56bc 4fd3 e93d 8365 8bbd 6049 b0bd
00000260: 2483 8e3d 90ec d73d c33c 08bd 2070 e3bc
00000270: de4d 683d 067f a63d 9a8c 433d d762 cc3d
00000280: 624f 29bd e553 b4bd 724c c5bd 9cb3 eabd
00000290: 4e3e cfbd bb74 31bd 6d3b 71bd 224c 4e3d
000002a0: 4415 a33d 44de b03d 4401 e7bd c82c 743d
000002b0: c888 1d3d 25a2 823c b87e 28bd 5c5c d83d
000002c0: 5024 9bbd 2830 b5bd 28a9 adbd f2fb 2c3d
000002d0: 9d97 cdbd 1534 453a dd6e d7bd 86b6 3ebd
000002e0: 91f3 c83d 4428 ddbd eecf 65bd e51b 1b3e
000002f0: 2cf4 de3d 8880 e23d a584 a13c 11b1 88bd
00000300: dafe efbd ef7f a53c 8d09 b0ba 1623 10be
00000310: aa5d b03d 9862 0e3e 812a f7bd 56fe 493d
00000320: e6ce b63c 7339 293d 2c5c 943d 40d7 d3bb
00000330: 195e cf3d df39 2fbd eb23 6ebd af04 6c3d
00000340: 1b66 f73c 1caf c83c 2d90 7c3d c20e 80bd
00000350: ea28 c3bb 9aac e9bd 1da2 1cbe 200b 2d3d
00000360: c0d9 363d 60db 7b3c 6d24 f6bd a132 443c
00000370: aa83 7dbc 5059 ec3d 61c3 6e3d 33b5 b23c
00000380: 1556 ea3d b83b c1bd 11c4 92bd 03ff bb3d
00000390: b8cd fabd 6604 cc3d 6092 a73d 475b 22bc
000003a0: 5752 b23d 21ab 02be b515 8cbd b924 dbbb
000003b0: 7b78 a23d 3b70 9b3c 6200 403d 2122 c5bc
000003c0: c11e febc dc2b e03d 69de 553d 200d 113b
000003d0: b407 c6bd 9b51 df3d 17d9 d93d 438a 1dbc
000003e0: e682 5abc 5132 bebd 4195 24bd 8cfc debd
000003f0: 44fb d33b 1e49 24bc 0c35 28bd f4ad 82bc

sequential/dense/BiasAdd/ReadVariableOp f4 [100]
-0.0030556887 0.0060852044 0.002385343 -0.005427331 0.0041301204 0.028507294 0.0038162996 0.0344053
-0.0009824184 -0.0030266724 -0.0018903271 -0.007675939 -0.003433579 -0.00054302684 0.013145218 -0.010386156
0.0076692495 0.00042550897 0.012129476 -0.009423453 -0.004430604 0.0075999117 0.0 0.008035118
0.0 -0.006429674 0.0069773933 0.014512543 -0.005777672 0.020412544 -0.0029231007 0.007108658
0.0068496517 0.005611849 -0.005709523 -0.011031804 0.003956836 -0.017318888 -0.013943657 0.014992684
0.0066259666 -0.008256236 0.0168481 -0.014438818 0.004029501 0.024733203 -0.006886146 0.013891786
0.00345489 0.0003832777 -0.0074115447 -0.00090289745 0.004076506 -0.004508012 0.00092975877 0.001134622
0.0 0.018155959 0.028238067 0.0007561152 0.00012560037 -0.0012559989 0.015684718 -0.02069724
-0.0029078457 0.0010134438 -0.00095987105 0.0059971414 -0.004092135 -0.014871157 0.0016577631 -0.0017232368
0.010735152 -0.0022529545 -0.01819045 0.010462751 0.011579152 -0.0025757463 -0.0059500323 -0.00023062913
0.020564513 -0.0035934737 -0.0110960025 0.019168254 0.00257764 0.014173568 0.0004714868 0.009393868
-0.012025658 0.0009754188 -0.010005042 -0.00810608 -0.0022251105 0.0005676105 -0.0015539847 -0.0024459825
0.0008715978 0.0021973706 0.0 -0.0156164495
00000000: f341 48bb 6566 c73b 6a53 1c3b c1d7 b1bb
00000010: f655 873b 2188 e93c e21a 7a3b 92ec 0c3d
00000020: 7ec4 80ba 235b 46bb dac4 f7ba 7186 fbbb
00000030: e605 61bb ea59 0eba 0a5f 573c b22a 2abc
00000040: 544e fb3b d916 df39 b6ba 463c d464 1abc
00000050: 9a2e 91bb ae08 f93b 0000 0000 baa5 033c
00000060: 0000 0000 04b0 d2bb 9ea2 e43b 04c6 6d3c
00000070: a052 bdbb 3538 a73c 7e91 3fbb bfef e83b
00000080: 0b73 e03b 9ae3 b73b f316 bbbb bdbe 34bc
00000090: 59a8 813b 57e0 8dbc f073 64bc e0a3 753c
000000a0: a31e d93b 2a45 07bc 0705 8a3c cb90 6cbc
000000b0: e809 843b 499d ca3c 2ea5 e1bb 609a 633c
000000c0: 706b 623b a9f2 c839 8bdc f2bb 6cb0 6cba
000000d0: 3694 853b f2b7 93bb 0ebb 733a 99b7 943a
000000e0: 0000 0000 cebb 943c 8553 e73c 0836 463a
000000f0: 98b3 0339 54a0 a4ba 3d7d 803c 428d a9bc
00000100: 8e91 3ebb 88d5 843a db9f 7bba ab83 c43b
00000110: 5117 86bb 27a6 73bc 4d49 d93a 3bde e1ba
00000120: 7ee2 2f3c 4ea6 13bb 2304 95bc f56b 2b3c
00000130: 7cb6 3d3c dacd 28bb 7df8 c2bb 09d5 71b9
00000140: e976 a83c 7c80 6bbb 02cc 35bc be06 9d3c
00000150: a0ed 283b 4138 683c e331 f739 bde8 193c
00000160: 4407 45bc 3fb3 7f3a 30ec 23bc 5dcf 04bc
00000170: 29d3 11bb b2cb 143a 13af cbba c74c 20bb
00000180: f07b 643a c301 103b 0000 0000 23dc 7fbc

sequential/dense_3/BiasAdd/ReadVariableOp f4 [2]
-0.0062038973 0.008862823
00000000: 104a cbbb 6035 113c

sequential/dense_2/BiasAdd/ReadVariableOp f4 [10]
-0.0071998145 0.0059707197 0.013913124 -0.008802852 -0.0016027627 0.02602791 0.012758737 0.009435984
-0.0028884117 -0.0059416383
00000000: 6cec ebbb 07a6 c33b dff3 633c d639 10bc
00000010: cb13 d2ba 7c38 d53c 060a 513c 6399 1a3c
00000020: 824b 3dbb 13b2 c2bb

sequential/dense_1/BiasAdd/ReadVariableOp f4 [50]
-0.0038844314 -0.01359583 0.0073774927 -0.002941882 0.011010619 0.013438879 0.0 0.014396447
-0.00034982877 -0.0007959123 -0.010394096 0.0004335098 -0.0032390442 -0.012199316 -0.00017397915 0.003451507
-0.0101709245 0.031543873 0.0024150652 0.024482897 -0.0040399595 0.011791209 -0.021771051 -0.015224868
0.0 -0.009154637 -0.0019751035 0.013061477 -0.011369657 0.0036072405 0.010707636 0.0027222836
-0.002143184 -0.008906715 0.01782645 -0.0022455188 -0.0008412774 0.013963916 0.011094125 0.0006757905
0.005296486 0.016325533 0.009593007 0.0021424214 -0.0025759032 -0.008733909 -0.012376388 0.015621594
0.0021476091 -0.012549427
00000000: f291 7ebb 0bc1 5ebc e5be f13b 97cc 40bb
00000010: e265 343c be2e 5c3c 0000 0000 13df 6b3c
00000020: 3969 b7b9 c5a4 50ba 004c 2abc b348 e339
00000030: 2546 54bb a4df 47bc 2c6e 36b9 ae32 623b
00000040: f3a3 26bc 2634 013d 1246 1e3b 5b90 c83c
00000050: a361 84bb ea2f 413c 3459 b2bc ba71 79bc
00000060: 0000 0000 55fd 15bc bd70 01bb ceff 553c
00000070: cc47 3abc 7467 6c3b 156f 2f3c 5768 323b
00000080: a974 0cbb 78ed 11bc c608 923c 8e29 13bb
00000090: 2c89 5cba e9c8 643c 22c4 353c 8827 313a
000000a0: 258e ad3b 20bd 853c fd2b 1d3c de67 0c3b
000000b0: 7cd0 28bb ab18 0fbc 55c6 4abc b7f1 7f3c
000000c0: e7be 0c3b 1d9c 4dbc

sequential/dense/MatMul f4 [100, 128]
-0.12874538 0.09978392 -0.013723258 0.05330529 -0.015155001 -0.010944158 0.0051738583 0.11372234
-0.07846077 0.034493536 0.11054804 0.079055384 0.004866619 0.15342812 0.123874575 0.00822087
-0.03859716 0.13382046 -0.121409275 0.14058152 0.13694878 0.019796567 -0.15662472 -0.05778154
-0.08708159 -0.0855488 -0.0856061 -0.09496085 0.048563734 0.0038150572 0.111680925 -0.13330485
-0.012233115 0.12152143 -0.006242545 0.06305295 0.0708924 0.12424078 0.13139112 0.1493366
-0.018705022 -0.020133568 -0.03756441 0.08529789 -0.0067309164 -0.014632127 0.117980324 0.10865073
-0.0334119 0.024047475 -0.15838245 -0.01813739 0.076045655 0.08293805 0.036923785 -0.1089145
0.15125911 -0.1039991 -0.07160244 -0.15927982 -0.109039016 -0.14647263 -0.11117156 -0.17607427
0.03404598 0.14773956 0.09198606 -0.08473618 0.07635178 0.02332469 0.0054474855 -0.02188262
-0.004209815 0.13793316 -0.12791663 -0.06751984 0.051391535 -0.09371526 -0.14438815 0.10673904
-0.11428115 -0.013667948 -0.09788974 0.010264732 0.019978937 -0.03689878 0.15978344 -0.030346125
-0.12493427 -0.15544413 -0.11458877 -0.04403953 -0.15104404 0.08404883 -0.07283275 -0.16076386
-0.012217798 0.037990723 -0.003067422 -0.058406644 -0.0053259297 0.13823329 0.12966391 -0.07498007
-0.12275684 -0.10407969 0.1301484 0.033355035 -0.11082417 -0.0835255 -0.14177524 0.01257445
0.06816513 -0.15512705 -0.14409783 -0.082089074 -0.12836325 -0.011522541 -0.07394401 -0.061999086
0.14758027 0.11637367 0.08729492 -0.038723476 -0.04664199 -0.08799419 -0.04044372 -0.15935397
0.11066776 0.040311575 0.06925983 0.035674665 -0.07014792 0.09418905 0.12275024 0.08535503
-0.101282164 -0.12041937 0.15622343 0.11072451 -0.11683033 0.15286629 -0.03755049 0.06979135
0.051231824 0.03292986 0.07331555 -0.14549592 0.13139214 -0.12567869 0.053309403 0.07697435
0.026030036 0.0037890326 -0.00044933433 0.09376583 0.11020813 0.074180834 -0.10084257 0.02590082
-0.17308372 0.1503174 0.15336454 -0.115820535 0.029349828 -0.12434357 -0.017977223 0.15054804
-0.09482623 0.022619657 -0.100785375 0.16728929 0.10866902 -0.031185975 -0.12879212 0.044589274
0.0036171607 0.12046535 0.13691558 0.15271911 -0.13363208 0.14906979 0.07595133 0.071501896
-0.14175147 -0.06168909 0.036776997 0.013062879 0.07480172 -0.004254939 0.0073224595 0.031049361
0.107192665 -0.028361497 0.005541102 -0.050308313 0.15582371 -0.10635213 0.024045577 -0.087033786
0.05972247 -0.0687502 -0.0144035835 0.041493982 -0.08101729 0.08241786 0.08722024 -0.02061514
0.12675156 -0.08945892 0.0821922 0.08974519 0.10923829 0.093685776 0.07316188 0.12170251
0.14921232 0.1374141 -0.033322215 0.0657378 -0.016031524 0.0121412175 -0.016601175 0.13816114
-0.101870894 -0.14503594 0.16796583 0.075650975 -0.06318515 -0.08366064 -0.059848495 0.03524034
0.022600655 -0.032173388 0.14109443 0.15985605 -0.03165912 0.084123254 0.11104312 0.07485504
0.12733825 0.04104409 -0.13918918 0.081329904 -0.114238 -0.14078382 -0.05117152 0.09576923
0.017753191 -0.102776736 -0.15048015 0.0008004856 0.0001503111 -0.10969794 -0.11338065 -0.094932266
00000000: d4d5 03be 835b cc3d 84d7 60bc a656 5a3d
00000010: ae4c 78bc 204f 33bc 7889 a93b 42e7 e83d
00000020: 0ab0 a0bd 1849 0d3d 0367 e23d cae7 a13d
00000030: 2978 9f3b 431c 1d3e f4b1 fd3d d4b0 063c
00000040: 0e18 1ebd 3b08 093e 6da5 f8bd 9af4 0f3e
00000050: 4d3c 0c3e 692c a23c 3b62 20be 56ac 6cbd
00000060: d557 b2bd 3634 afbd 4052 afbd d67a c2bd
00000070: c4ea 463d 0a06 7a3b f8b8 e43d 1181 08be
00000080: 676d 48bc 3ae0 f83d 438e ccbb e821 813d
00000090: 0930 913d f371 fe3d 658b 063e b2eb 183e
000000a0: 463b 99bc 27ef a4bc 24dd 19bd a9b0 ae3d
000000b0: 058f dcbb 97bb 6fbc ab9f f13d 4684 de3d
000000c0: ebda 08bd 36ff c43c 022f 22be dd94 94bc
000000d0: d3bd 9b3d 6ddb a93d 653d 173d 910e dfbd
000000e0: abe3 1a3e 7bfd d4bd 4da4 92bd 401a 23be
000000f0: d94f dfbd ecfc 15be eaad e3bd d04c 34be
00000100: cc73 0b3d 0a49 173e 3063 bc3d 2a8a adbd
00000110: 525e 9c3d 6c13 bf3c d280 b23b 2e43 b3bc
00000120: 7df2 89bb 5a3e 0d3e 94fc 02be d847 8abd
00000130: ee7f 523d c9ed bfbd 7dda 13be ff99 da3d
00000140: 3c0c eabd 87ef 5fbc 6a7a c8bd 682d 283c
00000150: deaa a33c 2d23 17bd 459e 233e 7098 f8bc
00000160: 8add ffbd bf2c 1fbe 84ad eabd cb62 34bd
00000170: 4aab 1abe cb21 ac3d 5629 95bd 489f 24be
00000180: 292d 48bc 299c 1b3d cd06 49bb ce3b 6fbd
00000190: 2385 aebb 078d 0d3e 9ec6 043e 278f 99bd
000001a0: f067 fbbd bc27 d5bd 9f45 053e 4a9f 083d
000001b0: c8f7 e2bd 6b0f abbd 872d 11be 1105 4e3c
000001c0: 299a 8b3d a0d9 1ebe 628e 13be 511e a8bd
000001d0: a871 03be 0ac9 3cbc f56f 97bd c1f2 7dbd
000001e0: 481f 173e 5255 ee3d aec7 b23d 829c 1ebd
000001f0: ac0b 3fbd 4c36 b4bd 50a8 25bd b02d 23be
00000200: c7a5 e23d c01d 253d 19d8 8d3d 991f 123d
00000210: b6a9 8fbd 30e6 c03d 7a64 fb3d 9ece ae3d
00000220: 066d cfbd 6e9e f6bd 09f9 1f3e 88c3 e23d
00000230: bd44 efbd fb88 1c3e 8bce 19bd c4ee 8e3d
00000240: 76d8 513d 76e1 063d 7726 963d e2fc 14be
00000250: a98b 063e eab1 00be f65a 5a3d baa4 9d3d
00000260: f13c d53c 6b51 783b a294 ebb9 4d08 c03d
00000270: cdb4 e13d 1fec 973d 8d86 cebd f52d d43c
00000280: dc3c 31be ceec 193e 980b 1d3e 5133 edbd
00000290: 0d6f f03c d7a7 febd f844 93bc 4429 1a3e
000002a0: 4134 c2bd dc4c b93c 9068 cebd e24d 2b3e
000002b0: dd8d de3d bb79 ffbc 15e2 03be 3ea3 363d
000002c0: e30d 6d3b 8ab6 f63d 9933 0c3e 6662 1c3e
000002d0: d9d6 08be c0a5 183e 5f8c 9b3d 966f 923d
000002e0: 4c27 11be b3ad 7cbd 7aa3 163d b005 563c
000002f0: a531 993d 046d 8bbb 3ef1 ef3b 3b5b fe3c
00000300: d487 db3d 5f56 e8bc 2292 b53b 1710 4ebd
00000310: 4090 1f3e 25cf d9bd 3bfb c43c c53e b2bd
00000320: 8c9f 743d e8cc 8cbd 02fd 6bbc 98f5 293d
00000330: 65ec a5bd b2ca a83d 86a0 b23d 15e1 a8bc
00000340: 29cb 013e 3d36 b7bd 6254 a83d 54cc b73d
00000350: 53b8 df3d 54de bf3d e5d5 953d 2a3f f93d
00000360: 1dcb 183e 48b6 0c3e e07c 08bd 8aa1 863d
00000370: 8b54 83bc f5eb 463c 30ff 87bc 1d7a 0d3e
00000380: b0a1 d0bd 4d84 14be 3cff 2b3e e6ee 9a3d
00000390: 3767 81bd 4556 abbd b223 75bd 2d58 103d
000003a0: 0225 b93c 3ec8 03bd 0f7b 103e 4eb1 233e
000003b0: feac 01bd d048 ac3d 936a e33d 994d 993d
000003c0: f564 023e d91d 283d 9c87 0ebe 4b90 a63d
000003d0: 9df5 e9bd a229 10be 3a99 51bd a822 c43d
000003e0: 246f 913c 9c7c d2bd 7817 1abe aed7 513a
000003f0: d49c 1d39 50a9 e0bd 1d34 e8bd d96b c2bd
