rp_lidar_f1tenth/rp_f1_tenth_modelfloat16.tflite (tflite, 118904 bytes, 17 tensors)

sequential/conv1d/BiasAdd/ReadVariableOp f2 [24]
0	0x2336	0.014084
1	0x2183	0.010765
2	0x24dc	0.01898
3	0x20ab	0.00912
4	0x25c4	0.02252
5	0x1a5c	0.003105
6	0x2770	0.02905
7	0x25d6	0.0228
8	0x95aa	-0.001383
9	0x26b9	0.02626
10	0xa477	-0.01744
11	0x180a	0.001972
12	0x231a	0.01387
13	0x250a	0.01968
14	0x1d89	0.005405
15	0x908e	-0.000556
16	0x21f0	0.0116
17	0x9649	-0.001534
18	0x219d	0.01096
19	0x06ee	0.00010574
20	0xa31e	-0.0139
21	0x9897	-0.002241
22	0x286f	0.03464
23	0x9ccd	-0.00469

sequential/conv1d_1/BiasAdd/ReadVariableOp f2 [36]
0	0x220e	0.011826
1	0x0000	0.0
2	0x22a0	0.01294
3	0x2307	0.013725
4	0x9bd8	-0.00383
5	0xa455	-0.01692
6	0x260d	0.02364
7	0x2191	0.01087
8	0x0b13	0.0002159
9	0x96a3	-0.00162
10	0xa683	-0.02544
11	0x222c	0.012054
12	0x22dd	0.013405
13	0x2327	0.01397
14	0x9e3e	-0.006096
15	0x93c1	-0.0009465
16	0x21b6	0.011154
17	0x24a6	0.01816
18	0x2650	0.02466
19	0x2495	0.0179
20	0xa1c9	-0.0113
21	0x147e	0.001097
22	0x24a4	0.01813
23	0xa1f3	-0.01162
24	0x21d9	0.01142
25	0x25f2	0.02322
26	0x1dce	0.00567
27	0x1de9	0.00577
28	0x9905	-0.00245
29	0xa0f3	-0.00967
30	0x2007	0.007866
31	0xa0d5	-0.00944
32	0x1cfe	0.004875
33	0x2428	0.01624
34	0xa508	-0.01965
35	0x99c4	-0.002815

sequential/conv1d_2/BiasAdd/ReadVariableOp f2 [48]
0	0x20ab	0.00912
1	0x246a	0.01724
2	0x261c	0.02386
3	0xa057	-0.00848
4	0x229d	0.01292
5	0xa24d	-0.01231
6	0x1cb3	0.00459
7	0x2288	0.01276
8	0x9e21	-0.005985
9	0x2477	0.01744
10	0xa148	-0.010315
11	0x287a	0.03497
12	0x9358	-0.0008965
13	0x0000	0.0
14	0x9268	-0.000782
15	0x2113	0.00991
16	0x1ff7	0.00778
17	0x9d96	-0.005455
18	0x2589	0.02162
19	0x065a	9.69e-05
20	0x22fe	0.01366
21	0x2576	0.02133
22	0x1b6c	0.003624
23	0x10c3	0.0005813
24	0x1886	0.002209
25	0x2406	0.01572
26	0x1d8a	0.00541
27	0xa400	-0.01563
28	0x2293	0.01284
29	0x9869	-0.002153
30	0x26c3	0.02641
31	0x995b	-0.002615
32	0xa05b	-0.00851
33	0x2326	0.01396
34	0xa244	-0.01224
35	0x1f59	0.007175
36	0x918f	-0.0006785
37	0x276c	0.02899
38	0x9de1	-0.00574
39	0x21b1	0.011116
40	0x215a	0.01045
41	0x20e8	0.00958
42	0xa0ec	-0.00961
43	0x1d61	0.005253
44	0xa2bc	-0.01315
45	0xa2c4	-0.013214
46	0x24f4	0.01935
47	0x1fee	0.007744

sequential/conv1d_3/BiasAdd/ReadVariableOp f2 [64]
0	0x9ec4	-0.006607
1	0x99dc	-0.002861
2	0x1e70	0.006287
3	0x21d1	0.01136
4	0x9d24	-0.00502
5	0x23a4	0.01492
6	0xa18f	-0.01086
7	0x80e4	-1.36e-05
8	0x9930	-0.002533
9	0x219d	0.01096
10	0x8b7a	-0.0002282
11	0x0d84	0.0003366
12	0x2150	0.010376
13	0x1f94	0.0074
14	0x24f3	0.01933
15	0xa1ee	-0.01158
16	0x9cfb	-0.004864
17	0x2586	0.02158
18	0x2109	0.009834
19	0x8e11	-0.0003703
20	0x2595	0.0218
21	0x9b1f	-0.003477
22	0x2566	0.02109
23	0x0000	0.0
24	0x0000	0.0
25	0x0000	0.0
26	0x1a76	0.003155
27	0x287f	0.03513
28	0x1490	0.001114
29	0x99a5	-0.002756
30	0x2281	0.0127
31	0x02c7	4.24e-05
32	0xa475	-0.01741
33	0x990e	-0.002468
34	0xa0c5	-0.009315
35	0x210b	0.00985
36	0x99dd	-0.002863
37	0x12b3	0.000818
38	0x1803	0.001959
39	0x9c35	-0.00411
40	0x8c50	-0.0002632
41	0x2025	0.008095
42	0x921a	-0.000745
43	0x8660	-9.73e-05
44	0x9b8b	-0.003683
45	0x9fe1	-0.007694
46	0x1dfc	0.005844
47	0x9ec3	-0.006603
48	0x210a	0.00984
49	0x1e25	0.006
50	0x1aa0	0.003235
51	0x1e31	0.006046
52	0x19d5	0.002848
53	0x8f85	-0.000459
54	0x9e20	-0.00598
55	0x9be8	-0.00386
56	0x97f2	-0.00194
57	0x216d	0.0106
58	0x10d1	0.000588
59	0x268b	0.02556
60	0x0a45	0.0001913
61	0x1ea4	0.006485
62	0x1fcd	0.007618
63	0x9a58	-0.003098

sequential/conv1d_4/BiasAdd/ReadVariableOp f2 [64]
0	0x2341	0.01417
1	0x9b92	-0.003696
2	0x8d90	-0.0003395
3	0x969f	-0.0016165
4	0xa401	-0.01564
5	0x149d	0.001126
6	0x992c	-0.002525
7	0x14dd	0.001187
8	0x2060	0.008545
9	0x19cb	0.002829
10	0xa272	-0.01259
11	0xa3d3	-0.01528
12	0x9d2c	-0.00505
13	0x11ed	0.0007234
14	0x9a49	-0.003069
15	0x1eb9	0.006565
16	0x107f	0.000549
17	0x1fc0	0.00757
18	0xa604	-0.0235
19	0xa0e9	-0.00959
20	0x228b	0.01278
21	0x9dda	-0.005714
22	0x1a7b	0.003164
23	0x2421	0.01613
24	0x9d12	-0.00495
25	0x8dd8	-0.0003567
26	0x0df6	0.0003638
27	0x25a3	0.02202
28	0x9e36	-0.006065
29	0x24ad	0.01826
30	0xa23c	-0.01218
31	0xa2a3	-0.01296
32	0x248e	0.01779
33	0x17fc	0.001949
34	0x2572	0.02127
35	0x1ad6	0.003338
36	0x1b87	0.003675
37	0x90b9	-0.0005765
38	0x9c6b	-0.004314
39	0x214d	0.01035
40	0x1e02	0.005867
41	0x9b20	-0.003479
42	0x0000	0.0
43	0x22ba	0.01314
44	0x9c06	-0.00393
45	0x2100	0.009766
46	0x1654	0.001545
47	0x2412	0.0159
48	0xa112	-0.0099
49	0x1964	0.002632
50	0x9a24	-0.002998
51	0xa2de	-0.01341
52	0x9b5a	-0.00359
53	0x1d35	0.005085
54	0x000a	6e-07
55	0x20da	0.009476
56	0x199c	0.002739
57	0x189d	0.002253
58	0x182c	0.002037
59	0x248c	0.01776
60	0x203d	0.00828
61	0x9933	-0.002539
62	0x1415	0.000997
63	0x1701	0.00171

sequential/conv1d/Conv1D f2 [24, 1, 10, 1]
0	0x2758	0.02869
1	0xa328	-0.01398
2	0x3089	0.1417
3	0x2040	0.0083
4	0x1cf1	0.004826
5	0x2dc1	0.0899
6	0xab9b	-0.05942
7	0x2f08	0.10986
8	0x15ae	0.001387
9	0x2f44	0.1135
10	0xa449	-0.01674
11	0xaf3a	-0.1129
12	0xa6a5	-0.02596
13	0x2e18	0.0952
14	0x3114	0.1587
15	0x30bd	0.1481
16	0xae88	-0.10205
17	0x2bf6	0.0622
18	0x309e	0.1443
19	0x28be	0.03705
20	0xaf91	-0.1182
21	0x2557	0.02086
22	0x25a6	0.02206
23	0x30ec	0.1538
24	0x2fd1	0.12213
25	0xa2c7	-0.01324
26	0xb00e	-0.1267
27	0x2fcb	0.12177
28	0x2e42	0.0978
29	0xab5e	-0.05756
30	0xb02d	-0.1305
31	0xa6fa	-0.02725
32	0x250e	0.01974
33	0x2917	0.03976
34	0x25ea	0.0231
35	0x2c46	0.0668
36	0x997a	-0.002674
37	0x2fba	0.1207
38	0x2f71	0.1163
39	0x1922	0.002506
40	0x878d	-0.0001152
41	0x28ca	0.0374
42	0xaca9	-0.0728
43	0x2541	0.02052
44	0xac27	-0.0649
45	0xaa45	-0.04898
46	0x283d	0.0331
47	0x3125	0.1608
48	0xa895	-0.0358
49	0xb09b	-0.1439
50	0xb060	-0.1367
51	0xaf46	-0.11365
52	0xaa34	-0.04846
53	0x2df1	0.09283
54	0x3017	0.1278
55	0x3135	0.1627
56	0xac1b	-0.06415
57	0x27e3	0.0308
58	0xaead	-0.1043
59	0xabad	-0.05997
60	0x2fb1	0.1202
61	0x9e87	-0.006374
62	0xada2	-0.088
63	0x259e	0.02194
64	0xaeb3	-0.1047
65	0xaea7	-0.10394
66	0x3174	0.1704
67	0xafdf	-0.123
68	0xaaed	-0.0541
69	0xafc7	-0.1215
70	0x2b76	0.0583
71	0x90e8	-0.000599
72	0xa562	-0.02103
73	0xa9ab	-0.04428
74	0x30b5	0.1471
75	0x2cb4	0.0735
76	0x307b	0.14
77	0xaccd	-0.075
78	0x2884	0.03528
79	0x2a99	0.05154
80	0x30b3	0.1469
81	0x20ac	0.009125
82	0x3102	0.1565
83	0xac05	-0.0628
84	0x3067	0.1376
85	0x304e	0.1345
86	0x248a	0.01773
87	0xab45	-0.0568
88	0x2c5a	0.068
89	0x24dc	0.01898
90	0xa413	-0.01591
91	0x2de6	0.09216
92	0xac8b	-0.071
93	0xac53	-0.06757
94	0x30c1	0.1486
95	0x2ee4	0.10767
96	0xacc7	-0.07465
97	0xaaf3	-0.0543
98	0xadf2	-0.0929
99	0x30cb	0.1498
100	0xa83b	-0.03305
101	0xadd2	-0.09094
102	0x2c6f	0.0693
103	0x9379	-0.000912
104	0x284a	0.0335
105	0x27c4	0.03033
106	0x2504	0.01959
107	0x2ed1	0.1065
108	0x2466	0.01718
109	0xb0f0	-0.1543
110	0x2b9c	0.05945
111	0x2fc3	0.1213
112	0x2505	0.0196
113	0xb0d8	-0.1514
114	0x30e1	0.1525
115	0xb106	-0.157
116	0x2ce2	0.0763
117	0xa377	-0.01458
118	0x2c6a	0.069
119	0xae75	-0.1009
120	0x2c8e	0.07117
121	0x2ff4	0.12427
122	0x2ed1	0.1065
123	0x301e	0.1287
124	0x2a1d	0.04776
125	0xa394	-0.0148
126	0x2d7b	0.08563
127	0x2fe4	0.1233
128	0xa738	-0.0282
129	0xad42	-0.08215
130	0xa8ad	-0.03653
131	0xa99f	-0.0439
132	0x304b	0.1342
133	0x30bd	0.1481
134	0xad4e	-0.0829
135	0x30d7	0.1512
136	0x2cf3	0.07733
137	0x30c4	0.1489
138	0xae18	-0.0952
139	0x2dfc	0.0935
140	0xb0c2	-0.1487
141	0x1ede	0.006706
142	0x2aac	0.05212
143	0xaf91	-0.1182
144	0xa6f9	-0.02724
145	0xaeb0	-0.1045
146	0xa7c9	-0.03041
147	0x2e79	0.10114
148	0x30f3	0.1547
149	0x2478	0.01746
150	0x3006	0.1257
151	0xae36	-0.09705
152	0xaf5f	-0.1152
153	0x3019	0.128
154	0xb016	-0.1277
155	0x30f7	0.1552
156	0x29f4	0.0465
157	0xae3a	-0.0973
158	0x2866	0.03436
159	0xad61	-0.08405
160	0xb07b	-0.14
161	0xace5	-0.0765
162	0x217b	0.010704
163	0xae97	-0.10297
164	0xac87	-0.07074
165	0xacb9	-0.0738
166	0xad76	-0.0853
167	0x2c3b	0.0661
168	0x3011	0.1271
169	0xb02f	-0.1307
170	0xb0be	-0.1482
171	0x2c19	0.064
172	0x2025	0.008095
173	0xacbf	-0.07416
174	0xaac3	-0.05283
175	0x21c4	0.01126
176	0x2f8a	0.1178
177	0xaea2	-0.10364
178	0x2d16	0.07947
179	0x9a8c	-0.003197
180	0x2ac7	0.05295
181	0x2bfa	0.06232
182	0xad5a	-0.0836
183	0x2546	0.0206
184	0x2de1	0.09186
185	0x30e6	0.1531
186	0xb03f	-0.1327
187	0x943e	-0.001036
188	0x2bd3	0.06113
189	0x2e05	0.09406
190	0xa91b	-0.0399
191	0x2ef6	0.10876
192	0xac7c	-0.07007
193	0x9c5c	-0.004257
194	0xb0bc	-0.148
195	0x2dcb	0.0905
196	0x2e35	0.097
197	0xa832	-0.03278
198	0xa688	-0.02551
199	0x2551	0.02077
200	0x3008	0.126
201	0xb054	-0.1353
202	0x2611	0.0237
203	0xae6e	-0.10046
204	0xb016	-0.1277
205	0x2eaa	0.1041
206	0x3071	0.1388
207	0xaf27	-0.11176
208	0x3066	0.1375
209	0xac1c	-0.0642
210	0x245d	0.01704
211	0x95dc	-0.0014305
212	0xae0c	-0.0945
213	0x2252	0.012344
214	0x3030	0.1309
215	0xadea	-0.0924
216	0xada3	-0.0881
217	0xb0ec	-0.1538
218	0xb04e	-0.1345
219	0xab81	-0.05862
220	0x2c51	0.06744
221	0xaca9	-0.0728
222	0x2ed0	0.10645
223	0x2e2a	0.0963
224	0x2b83	0.0587
225	0xa7ba	-0.03018
226	0x27a8	0.0299
227	0xb07f	-0.1405
228	0xad09	-0.0787
229	0x3124	0.1606
230	0x1c74	0.00435
231	0xb08d	-0.1422
232	0x3084	0.1411
233	0x2893	0.03574
234	0x3095	0.1432
235	0xa434	-0.01642
236	0xadd9	-0.0914
237	0x3072	0.1389
238	0x3063	0.1371
239	0x3019	0.128

sequential/conv1d_1/Conv1D f2 [36, 1, 8, 24]
0	0x24d9	0.01894
1	0xacde	-0.07605
2	0x1c67	0.0043
3	0x9f00	-0.006836
4	0x28a4	0.03625
5	0xaed6	-0.1068
6	0xacb2	-0.07336
7	0xab65	-0.05777
8	0x2c60	0.06836
9	0xa8e1	-0.03812
10	0x9b55	-0.00358
11	0xa922	-0.0401
12	0xad3c	-0.0818
13	0x29ef	0.04636
14	0x2cd5	0.0755
15	0xa6cb	-0.02654
16	0xaa76	-0.05048
17	0xad17	-0.0795
18	0xa1ea	-0.01155
19	0xae26	-0.09607
20	0x2c89	0.07086
21	0xadfc	-0.0935
22	0x1a4b	0.003073
23	0xa768	-0.02893
24	0x21fe	0.0117
25	0xae41	-0.0977
26	0x2d4d	0.0828
27	0xaef7	-0.1088
28	0x24fc	0.01947
29	0x2d57	0.08344
30	0xafc2	-0.1212
31	0xa9ec	-0.04626
32	0xa95f	-0.04196
33	0xa991	-0.0435
34	0x24e0	0.01904
35	0x2681	0.0254
36	0x2925	0.0402
37	0x2c72	0.06946
38	0x2a41	0.04886
39	0xa69e	-0.02585
40	0xa4b1	-0.01833
41	0xaea8	-0.104
42	0xab09	-0.05496
43	0x2ac8	0.05298
44	0x2b22	0.05573
45	0x28d5	0.03775
46	0xa756	-0.02866
47	0x9f71	-0.007267
48	0xae44	-0.0979
49	0xabca	-0.06085
50	0xaa1b	-0.0477
51	0x2d2c	0.0808
52	0x2dda	0.09143
53	0xa16d	-0.0106
54	0x2b6c	0.05798
55	0x1e5a	0.006203
56	0xada4	-0.08813
57	0xa84a	-0.0335
58	0x2b2c	0.05603
59	0x2846	0.0334
60	0xad32	-0.0812
61	0x2c36	0.0658
62	0xac9f	-0.0722
63	0xad95	-0.0872
64	0xaaaf	-0.05222
65	0x24fa	0.01944
66	0x2dc0	0.08984
67	0xac3c	-0.06616
68	0xab94	-0.0592
69	0x255f	0.02098
70	0x2ded	0.0926
71	0x295c	0.04187
72	0x2692	0.02567
73	0x2499	0.01796
74	0xaff2	-0.12415
75	0xabfc	-0.06238
76	0x2daf	0.0888
77	0xae21	-0.09576
78	0x2b1d	0.05557
79	0x2b84	0.05872
80	0x2904	0.03918
81	0xaa6e	-0.05023
82	0x23db	0.01534
83	0xabe6	-0.0617
84	0x24bd	0.01851
85	0xaaed	-0.0541
86	0x2c8c	0.07104
87	0x2a70	0.0503
88	0xadda	-0.09143
89	0x2cb2	0.07336
90	0xa868	-0.03442
91	0x2a08	0.04712
92	0x2ff9	0.1246
93	0xadd7	-0.09125
94	0x2f64	0.1155
95	0x2d0c	0.07886
96	0xa523	-0.02007
97	0x22eb	0.01351
98	0xadc1	-0.0899
99	0xaac7	-0.05295
100	0x2931	0.04056
101	0x2c31	0.0655
102	0xa862	-0.03424
103	0x2d25	0.0804
104	0x2c8f	0.0712
105	0x2e23	0.0959
106	0x2ada	0.05353
107	0xa701	-0.02736
108	0x27a8	0.0299
109	0xae51	-0.0987
110	0x2bd9	0.0613
111	0x9e8c	-0.006393
112	0x28ce	0.03754
113	0xac72	-0.06946
114	0x2de3	0.092
115	0xa11b	-0.00997
116	0xad87	-0.08636
117	0xadef	-0.0927
118	0xaa17	-0.04758
119	0xaa47	-0.04904
120	0x2c1f	0.0644
121	0x95ee	-0.001448
122	0xaef5	-0.1087
123	0x2c55	0.0677
124	0x2a63	0.0499
125	0xa89f	-0.0361
126	0x26bb	0.02629
127	0x2e36	0.09705
128	0x2cb4	0.0735
129	0x2d0b	0.0788
130	0x2e0c	0.0945
131	0x2d85	0.08624
132	0x24be	0.01852
133	0xaa74	-0.0504
134	0x2c9a	0.0719
135	0x2b39	0.05643
136	0xae62	-0.09973
137	0xaa29	-0.04813
138	0xae2d	-0.0965
139	0x3050	0.1348
140	0xac5a	-0.068
141	0x07c4	0.0001185
142	0xafde	-0.1229
143	0x9e4b	-0.006145
144	0xa8ee	-0.0385
145	0xa9da	-0.04572
146	0x266f	0.02513
147	0xa394	-0.0148
148	0x2c7c	0.07007
149	0x2c86	0.0707
150	0xaa58	-0.04956
151	0xa8d8	-0.03784
152	0x1c04	0.00392
153	0x24f5	0.01936
154	0xac03	-0.0627
155	0xa9b3	-0.04453
156	0x26f2	0.02713
157	0xac57	-0.0678
158	0x26cf	0.0266
159	0x2d87	0.08636
160	0x2b42	0.0567
161	0x2de5	0.0921
162	0xacb1	-0.0733
163	0xae3a	-0.0973
164	0x2a1b	0.0477
165	0x1dad	0.005543
166	0x2bfd	0.0624
167	0xa46d	-0.01729
168	0xaef2	-0.1085
169	0xac5f	-0.0683
170	0xaa40	-0.04883
171	0xad5e	-0.08386
172	0x2d7b	0.08563
173	0xae45	-0.09796
174	0x2b94	0.0592
175	0x2eb6	0.10486
176	0x256f	0.02122
177	0x2eb6	0.10486
178	0x2c97	0.0717
179	0x2f84	0.11743
180	0xaef9	-0.10895
181	0x2a7a	0.0506
182	0xacf4	-0.0774
183	0x24ca	0.0187
184	0xa69f	-0.02586
185	0x2472	0.01736
186	0xae03	-0.09393
187	0x12bf	0.0008235
188	0x2c88	0.0708
189	0xa94e	-0.04144
190	0xa86b	-0.03452
191	0x2c7c	0.07007
192	0x9ea4	-0.006485
193	0xac28	-0.06494
194	0xaa1b	-0.0477
195	0x2576	0.02133
196	0xaec0	-0.10547
197	0xadc7	-0.0903
198	0xac29	-0.065
199	0x82c4	-4.22e-05
200	0xa500	-0.01953
201	0x240c	0.01581
202	0x2ddb	0.0915
203	0x2aa7	0.05197
204	0xaee2	-0.10754
205	0xa484	-0.01764
206	0x2a96	0.05145
207	0xa946	-0.0412
208	0xad60	-0.084
209	0xa245	-0.012245
210	0xa9ac	-0.0443
211	0x9221	-0.000748
212	0xa9cd	-0.04532
213	0xa452	-0.01688
214	0x2a89	0.05106
215	0xac31	-0.0655
216	0x2dde	0.0917
217	0xa84b	-0.03354
218	0xab39	-0.05643
219	0x2d55	0.0833
220	0x2a72	0.05035
221	0xa594	-0.02179
222	0x2d44	0.0823
223	0x2c64	0.0686
224	0xa949	-0.0413
225	0xa3a9	-0.01496
226	0x2d03	0.0783
227	0x294e	0.04144
228	0x21d1	0.01136
229	0xa444	-0.01666
230	0x9cc3	-0.00465
231	0x229c	0.01291
232	0x2e44	0.0979
233	0x1df2	0.005806
234	0x2db3	0.08905
235	0x269d	0.02583
236	0x2b98	0.05933
237	0xa89a	-0.03595
238	0xa9f3	-0.04648
239	0xa714	-0.02765
240	0x2d94	0.08716
241	0xa9a8	-0.0442
242	0xaabf	-0.0527
243	0xaab3	-0.05234
244	0x2d52	0.0831
245	0x2756	0.02866
246	0x2438	0.01648
247	0x1932	0.002537
248	0xa9cd	-0.04532
249	0x2695	0.02571
250	0x2ebb	0.10516
251	0x2612	0.02371
252	0x27ab	0.02995
253	0xae84	-0.1018
254	0x2c8f	0.0712
255	0xaeed	-0.1082

sequential/conv1d_2/Conv1D f2 [48, 1, 4, 36]
0	0x2b7e	0.05853
1	0xaf8b	-0.11786
2	0x30b3	0.1469
3	0xae99	-0.1031
4	0xa5c3	-0.0225
5	0x2ab4	0.05237
6	0x9ffa	-0.00779
7	0x2818	0.03198
8	0xad3a	-0.08167
9	0xacea	-0.0768
10	0x22ad	0.01304
11	0x9ff0	-0.00775
12	0xb07a	-0.1399
13	0xae25	-0.096
14	0x942f	-0.001021
15	0xab38	-0.0564
16	0xadab	-0.08856
17	0x29b7	0.04465
18	0x26f9	0.02724
19	0xae8b	-0.10223
20	0x2f5c	0.115
21	0xa957	-0.04172
22	0x9d38	-0.005096
23	0xad63	-0.08417
24	0xa85c	-0.03406
25	0xa842	-0.03326
26	0x2a5d	0.0497
27	0xa947	-0.04123
28	0xafe2	-0.12317
29	0x3066	0.1375
30	0xae51	-0.0987
31	0x2d2b	0.08075
32	0x303b	0.1322
33	0xa9fb	-0.04672
34	0xa639	-0.0243
35	0x2d42	0.08215
36	0xad2a	-0.0807
37	0x2af4	0.05432
38	0x2d54	0.08325
39	0x2f85	0.1175
40	0x2766	0.0289
41	0x201a	0.00801
42	0xaec6	-0.10583
43	0x2963	0.04208
44	0xa9a0	-0.04395
45	0xa36b	-0.01449
46	0xa69e	-0.02585
47	0xa7bd	-0.03023
48	0x2ffe	0.1249
49	0x2cfb	0.0778
50	0xa876	-0.03485
51	0x2867	0.0344
52	0x2927	0.04025
53	0x303d	0.1324
54	0xaeb8	-0.105
55	0xadb5	-0.0892
56	0x965e	-0.0015545
57	0xa6d5	-0.02669
58	0x2f2e	0.1122
59	0xae1a	-0.09534
60	0x1ce9	0.004795
61	0x1ccd	0.00469
62	0x26fd	0.0273
63	0x2f58	0.11475
64	0x1c4e	0.004204
65	0x2396	0.01482
66	0x2cf0	0.07715
67	0xaae6	-0.0539
68	0x3021	0.129
69	0xac48	-0.0669
70	0xa5b1	-0.02223
71	0xaaa6	-0.05194
72	0xaca3	-0.07245
73	0x2592	0.02176
74	0xae6d	-0.1004
75	0xa5c5	-0.02254
76	0xacfc	-0.0779
77	0xa489	-0.01772
78	0x2eaf	0.10443
79	0xad76	-0.0853
80	0x309a	0.1438
81	0x2def	0.0927
82	0xaec4	-0.1057
83	0xaecf	-0.1064
84	0xa20b	-0.0118
85	0xaa01	-0.0469
86	0x2605	0.02351
87	0x3001	0.1251
88	0xaee2	-0.10754
89	0xac69	-0.0689
90	0x9ae2	-0.00336
91	0xae79	-0.10114
92	0x2c77	0.06976
93	0xa56b	-0.02116
94	0x9859	-0.002123
95	0x26cb	0.02654
96	0x2e2a	0.0963
97	0x294c	0.04138
98	0xaf8c	-0.1179
99	0x2efd	0.1092
100	0x9db0	-0.005554
101	0x9a4f	-0.00308
102	0x246a	0.01724
103	0x1c95	0.004475
104	0xac21	-0.0645
105	0xa84f	-0.03366
106	0xabb5	-0.0602
107	0xa640	-0.02441
108	0x2b9a	0.0594
109	0x2afc	0.05457
110	0x308f	0.1425
111	0xaee8	-0.1079
112	0xa527	-0.02013
113	0x2f74	0.11646
114	0x291f	0.04
115	0x2766	0.0289
116	0x2e1f	0.09564
117	0xadc4	-0.0901
118	0xa422	-0.01614
119	0x9c83	-0.004406
120	0x9013	-0.0004973
121	0xa7ac	-0.02997
122	0xada3	-0.0881
123	0xaa9f	-0.05173
124	0xaa74	-0.0504
125	0x296a	0.0423
126	0x2be1	0.06155
127	0x2998	0.0437
128	0x25a6	0.02206
129	0xa9b9	-0.0447
130	0x9c41	-0.004154
131	0xa705	-0.02742
132	0xa02e	-0.00816
133	0xae2c	-0.09644
134	0x309b	0.1439
135	0x2ceb	0.07684
136	0xac23	-0.06464
137	0x9c1a	-0.004005
138	0xacc2	-0.07434
139	0x1cf3	0.004833
140	0x3095	0.1432
141	0x2e0b	0.0944
142	0x2b7d	0.0585
143	0x29ed	0.0463
144	0xace0	-0.0762
145	0x2ce9	0.0767
146	0x2609	0.02357
147	0x2a67	0.05002
148	0x28ad	0.03653
149	0xa8d0	-0.0376
150	0x2d65	0.0843
151	0xac2d	-0.06525
152	0xacc7	-0.07465
153	0xaec4	-0.1057
154	0x27e4	0.03082
155	0x2f0e	0.1102
156	0x2431	0.01637
157	0x30b9	0.1476
158	0xae3e	-0.09753
159	0xa4c3	-0.0186
160	0x27fd	0.0312
161	0xadf7	-0.0932
162	0x2cd8	0.0757
163	0x2ebd	0.1053
164	0x9ec7	-0.00662
165	0xaec5	-0.1058
166	0x2fad	0.11993
167	0xacf4	-0.0774
168	0xae06	-0.0941
169	0xa936	-0.0407
170	0xa8e4	-0.0382
171	0xa2f1	-0.01356
172	0xacba	-0.07385
173	0x2f06	0.10974
174	0x2cac	0.073
175	0x30eb	0.1537
176	0x1578	0.001335
177	0xa328	-0.01398
178	0xa9da	-0.04572
179	0x2a78	0.05054
180	0xad61	-0.08405
181	0x2af3	0.0543
182	0x2aa2	0.05182
183	0xaa3e	-0.04877
184	0x2e0a	0.09436
185	0x2ede	0.1073
186	0x3001	0.1251
187	0xa388	-0.01471
188	0xabc4	-0.06067
189	0xad99	-0.08746
190	0xa6a5	-0.02596
191	0xad84	-0.0862
192	0xac99	-0.07184
193	0xaccf	-0.07513
194	0x2866	0.03436
195	0x2ff8	0.1245
196	0xa9a2	-0.044
197	0x2d00	0.0781
198	0xa31c	-0.013885
199	0x2e31	0.09674
200	0x2b20	0.05566
201	0xa747	-0.02843
202	0xae85	-0.10187
203	0x2e67	0.10004
204	0xacca	-0.0748
205	0xade2	-0.0919
206	0xa23a	-0.01216
207	0xac81	-0.0704
208	0xaca8	-0.07275
209	0x2bea	0.06183
210	0xa5be	-0.02243
211	0x2f2d	0.1121
212	0x2f47	0.1137
213	0xad88	-0.0864
214	0x97a8	-0.001869
215	0xa901	-0.0391
216	0xae9b	-0.1032
217	0xac1e	-0.06433
218	0xaa49	-0.0491
219	0xafe3	-0.1232
220	0x2cd5	0.0755
221	0xa6da	-0.02676
222	0xadca	-0.09045
223	0x25ba	0.02237
224	0xaa45	-0.04898
225	0x2e06	0.0941
226	0xae92	-0.10266
227	0x2808	0.0315
228	0x3065	0.1373
229	0x314e	0.1658
230	0x30c3	0.1488
231	0x25ca	0.02261
232	0x2b70	0.0581
233	0x24df	0.01903
234	0xaae2	-0.05377
235	0xaf84	-0.11743
236	0xa6f2	-0.02713
237	0xafaf	-0.12006
238	0x302c	0.1304
239	0xac51	-0.06744
240	0x2d71	0.085
241	0x2ff2	0.12415
242	0xae9b	-0.1032
243	0xa98d	-0.04337
244	0x28b3	0.0367
245	0xa8c3	-0.0372
246	0x2eed	0.1082
247	0x2c3a	0.06604
248	0x2930	0.04053
249	0xadc7	-0.0903
250	0xafd2	-0.1222
251	0xaec7	-0.1059
252	0x21a9	0.011055
253	0x2f00	0.1094
254	0x3037	0.1317
255	0x308f	0.1425

sequential/conv1d_3/Conv1D f2 [64, 1, 3, 48]
0	0x2fea	0.12366
1	0x290d	0.03946
2	0xaf94	-0.1184
3	0xae0b	-0.0944
4	0xa6d9	-0.02675
5	0x270a	0.0275
6	0x2db7	0.0893
7	0x2adb	0.05356
8	0xaed6	-0.1068
9	0xae33	-0.09686
10	0xae8b	-0.10223
11	0xae84	-0.1018
12	0xa8a0	-0.03613
13	0x2c2b	0.0651
14	0xaabb	-0.05258
15	0x2671	0.02516
16	0x2ab1	0.05228
17	0xb030	-0.1309
18	0x2d82	0.08606
19	0xab9e	-0.0595
20	0x2ce9	0.0767
21	0xaf43	-0.11346
22	0xad6d	-0.0848
23	0x2f66	0.1156
24	0x9ec0	-0.00659
25	0xac90	-0.0713
26	0xacde	-0.07605
27	0x2a6f	0.05026
28	0x2afc	0.05457
29	0xa87a	-0.03497
30	0xacac	-0.073
31	0xa8da	-0.0379
32	0x2e96	0.1029
33	0xaf20	-0.1113
34	0xa07a	-0.00874
35	0x2f2c	0.11206
36	0x2b80	0.0586
37	0x9c98	-0.004486
38	0x9db6	-0.005577
39	0xa50a	-0.01968
40	0x20c1	0.009285
41	0xac21	-0.0645
42	0xa4d6	-0.01889
43	0x2cb2	0.07336
44	0xab29	-0.05594
45	0x2a8d	0.05118
46	0x2df0	0.0928
47	0x2ca5	0.0726
48	0x298d	0.04337
49	0xabd3	-0.06113
50	0x2c5f	0.0683
51	0x2aca	0.05304
52	0xacba	-0.07385
53	0xa548	-0.02063
54	0x28c6	0.0373
55	0x2b9a	0.0594
56	0xab9d	-0.05948
57	0x2932	0.0406
58	0x2aa6	0.05194
59	0x2f41	0.11334
60	0x2cd5	0.0755
61	0xa9f2	-0.04645
62	0xadbe	-0.0897
63	0x305b	0.1361
64	0x2e00	0.09375
65	0x3048	0.1338
66	0x26dd	0.02681
67	0x9a6d	-0.003138
68	0x2f4b	0.11395
69	0x284e	0.03363
70	0x29b4	0.04456
71	0xb026	-0.1296
72	0x2f4e	0.11414
73	0x3025	0.1295
74	0x300d	0.1266
75	0xa640	-0.02441
76	0x3067	0.1376
77	0xae83	-0.10175
78	0xb0ad	-0.1461
79	0xadea	-0.0924
80	0xa977	-0.0427
81	0xa592	-0.02176
82	0xac1e	-0.06433
83	0x2ff9	0.1246
84	0xaa41	-0.04886
85	0xae20	-0.0957
86	0xaaa7	-0.05197
87	0x2c11	0.06354
88	0x2b5c	0.0575
89	0xac8d	-0.0711
90	0x28c6	0.0373
91	0x2983	0.04306
92	0x2a1e	0.0478
93	0x2df3	0.09296
94	0xab5f	-0.0576
95	0xac7c	-0.07007
96	0xaaa5	-0.0519
97	0xb03f	-0.1327
98	0x2e0b	0.0944
99	0xadda	-0.09143
100	0x2c3a	0.06604
101	0xafad	-0.11993
102	0x2e6c	0.10034
103	0x2ed5	0.10675
104	0x9ca0	-0.004517
105	0xb04e	-0.1345
106	0xac88	-0.0708
107	0xacff	-0.07806
108	0xa500	-0.01953
109	0xabc0	-0.06055
110	0x2cf0	0.07715
111	0xb1a5	-0.1764
112	0x2b4e	0.05707
113	0xabd0	-0.06104
114	0x3008	0.126
115	0x9d28	-0.005035
116	0x2b15	0.05533
117	0xae9c	-0.1033
118	0x2bbd	0.06046
119	0xad40	-0.08203
120	0xacbc	-0.074
121	0xaabd	-0.05264
122	0xaba6	-0.05975
123	0xac21	-0.0645
124	0x2bb6	0.06024
125	0x2854	0.0338
126	0xab6c	-0.05798
127	0x9f56	-0.007164
128	0x2c3e	0.0663
129	0x2add	0.05362
130	0xae70	-0.1006
131	0x2ead	0.1043
132	0x21af	0.0111
133	0x2e11	0.0948
134	0xad86	-0.0863
135	0xa2b9	-0.01313
136	0x2f38	0.1128
137	0x245c	0.01703
138	0x294e	0.04144
139	0xa922	-0.0401
140	0x2de0	0.0918
141	0x2b5b	0.05746
142	0xa5f1	-0.02321
143	0x2434	0.01642
144	0x20af	0.00915
145	0x2e81	0.1016
146	0x2b0e	0.0551
147	0x2d86	0.0863
148	0xacc8	-0.0747
149	0xb04f	-0.1346
150	0xaea5	-0.1038
151	0x2d22	0.0802
152	0xa66e	-0.02512
153	0xaf77	-0.11664
154	0x3036	0.1316
155	0xa7d8	-0.03064
156	0x2cc6	0.0746
157	0x2dce	0.0907
158	0xae9f	-0.10345
159	0x252e	0.02023
160	0xaca3	-0.07245
161	0xa930	-0.04053
162	0xaf1c	-0.1111
163	0xad8f	-0.08685
164	0x2f66	0.1156
165	0x2a6f	0.05026
166	0x3028	0.1299
167	0x2ffe	0.1249
168	0xad65	-0.0843
169	0xb05c	-0.1362
170	0xae24	-0.09595
171	0xac76	-0.0697
172	0x2f48	0.1138
173	0x286c	0.03455
174	0xa239	-0.01215
175	0x2c6c	0.0691
176	0x9e02	-0.005867
177	0xaf9e	-0.119
178	0x2cf7	0.0776
179	0x9029	-0.000508
180	0x28da	0.0379
181	0x2f92	0.1183
182	0xa833	-0.0328
183	0xad6c	-0.0847
184	0xa47b	-0.0175
185	0xa60c	-0.02362
186	0x0ea1	0.0004046
187	0xa951	-0.04153
188	0xaf90	-0.11816
189	0x2ef4	0.10864
190	0xa726	-0.02792
191	0xab68	-0.05786
192	0x2c49	0.06696
193	0x2c86	0.0707
194	0x2e60	0.0996
195	0xa570	-0.02124
196	0xac3b	-0.0661
197	0xad00	-0.0781
198	0xaf7a	-0.1168
199	0xacc1	-0.0743
200	0xab40	-0.05664
201	0x2676	0.02524
202	0x8fc5	-0.0004742
203	0x2f7e	0.11707
204	0x2eb4	0.10474
205	0x19bc	0.0028
206	0x2a8e	0.0512
207	0xada9	-0.08844
208	0x2ed7	0.1069
209	0xac7c	-0.07007
210	0xae7b	-0.10126
211	0x2d77	0.0854
212	0xb022	-0.1292
213	0x21ee	0.01158
214	0xb033	-0.1312
215	0x2d6a	0.0846
216	0xaf09	-0.1099
217	0x9e7b	-0.00633
218	0x9f7c	-0.00731
219	0xb06a	-0.138
220	0x30d5	0.151
221	0xabcb	-0.06088
222	0xac49	-0.06696
223	0xb002	-0.1252
224	0xada5	-0.0882
225	0xacca	-0.0748
226	0xa70f	-0.02757
227	0xab52	-0.0572
228	0xaf29	-0.1119
229	0xa4ef	-0.01927
230	0xaff7	-0.12445
231	0xb081	-0.1407
232	0x1bae	0.00375
233	0x28b7	0.03683
234	0x1ce0	0.00476
235	0xae1d	-0.0955
236	0xa9a5	-0.0441
237	0x2b7f	0.05856
238	0xaca2	-0.0724
239	0x2c13	0.06366
240	0x2e88	0.10205
241	0x2a92	0.05133
242	0x25b9	0.02235
243	0x27a1	0.0298
244	0xa910	-0.03955
245	0xa13c	-0.01022
246	0xaeca	-0.1061
247	0x1510	0.001236
248	0x2eb6	0.10486
249	0xa48a	-0.01773
250	0xb02e	-0.1306
251	0x1428	0.001015
252	0x2d9e	0.08777
253	0x255a	0.0209
254	0x301c	0.1284
255	0xaecf	-0.1064

sequential/conv1d_4/Conv1D f2 [64, 1, 3, 64]
0	0xaf8c	-0.1179
1	0xa7c6	-0.03036
2	0x2e6d	0.1004
3	0xaa08	-0.04712
4	0xb01e	-0.1287
5	0x2703	0.02739
6	0x2d71	0.085
7	0x2fab	0.1198
8	0x1ca4	0.00453
9	0x2674	0.0252
10	0x2b60	0.05762
11	0xae48	-0.09814
12	0x30b0	0.1465
13	0x2d0d	0.0789
14	0xaf42	-0.1134
15	0x9d44	-0.005142
16	0x26d8	0.02673
17	0xa57c	-0.02142
18	0xac3b	-0.0661
19	0x2d14	0.07935
20	0x2d7c	0.0857
21	0xa797	-0.02965
22	0xae6d	-0.1004
23	0x2f61	0.1153
24	0x2af0	0.0542
25	0xae1d	-0.0955
26	0xa7da	-0.03067
27	0x9867	-0.00215
28	0x265a	0.02481
29	0x2aed	0.0541
30	0x2c0d	0.0633
31	0xaa6b	-0.05014
32	0x2b9a	0.0594
33	0x205e	0.00853
34	0xb065	-0.1373
35	0xaacd	-0.05313
36	0x1701	0.00171
37	0x29e3	0.046
38	0xa95b	-0.04184
39	0xac31	-0.0655
40	0x295b	0.04184
41	0xad3f	-0.082
42	0xaa3f	-0.0488
43	0xaf8a	-0.1178
44	0xac5f	-0.0683
45	0x2ace	0.05316
46	0xaf11	-0.1104
47	0x2e7e	0.10144
48	0xa4de	-0.01901
49	0x2b81	0.05862
50	0x2720	0.02783
51	0xaf6a	-0.11584
52	0xa82f	-0.03268
53	0xadb3	-0.08905
54	0x2985	0.04312
55	0x2f9e	0.119
56	0x2b14	0.0553
57	0x2ad5	0.05338
58	0x2ddf	0.09174
59	0xad72	-0.0851
60	0x2bc2	0.0606
61	0x2d15	0.0794
62	0xae2f	-0.0966
63	0xaa12	-0.04742
64	0xac7a	-0.06995
65	0x2b5b	0.05746
66	0xaec5	-0.1058
67	0x2337	0.01409
68	0x24a7	0.01817
69	0xabb1	-0.0601
70	0x27ad	0.02998
71	0xad19	-0.07965
72	0x23d0	0.01526
73	0x306e	0.1384
74	0x28f8	0.03882
75	0x255c	0.02094
76	0x2eff	0.1093
77	0xa91f	-0.04
78	0xac83	-0.0705
79	0x9d63	-0.00526
80	0x2fb2	0.12024
81	0xa832	-0.03278
82	0x2318	0.013855
83	0x2c86	0.0707
84	0x2d77	0.0854
85	0x28c9	0.03738
86	0xac75	-0.06964
87	0xa555	-0.02083
88	0xa713	-0.02763
89	0x22b8	0.01312
90	0xad9e	-0.08777
91	0xac93	-0.0715
92	0xa8df	-0.03806
93	0x21ed	0.01157
94	0x2ef4	0.10864
95	0xb054	-0.1353
96	0xaac6	-0.05292
97	0x2df1	0.09283
98	0x2dd9	0.0914
99	0xab7a	-0.0584
100	0xa4eb	-0.01921
101	0x2f39	0.11285
102	0x9ec1	-0.006596
103	0x2f87	0.1176
104	0xa97a	-0.0428
105	0x2276	0.01262
106	0x2a0e	0.0473
107	0xaf5c	-0.115
108	0xa248	-0.01227
109	0x2f21	0.1114
110	0xa7a7	-0.02989
111	0x302e	0.1306
112	0x294b	0.04135
113	0x2c3a	0.06604
114	0xa7f8	-0.03113
115	0x29f3	0.04648
116	0x2f7b	0.1169
117	0x3004	0.1255
118	0x2dcb	0.0905
119	0xac09	-0.06305
120	0x9fe4	-0.007706
121	0xaca6	-0.07263
122	0xacec	-0.0769
123	0xa9f0	-0.0464
124	0xac17	-0.0639
125	0x2cb2	0.07336
126	0xaf7d	-0.117
127	0xae7e	-0.10144
128	0x2e83	0.10175
129	0xa4bf	-0.01854
130	0x9ea1	-0.006474
131	0xa1fd	-0.011696
132	0xaca1	-0.0723
133	0xad58	-0.0835
134	0xad9c	-0.08765
135	0x304c	0.1343
136	0xae53	-0.0988
137	0x2d6c	0.0847
138	0x1a5b	0.003103
139	0xa9bf	-0.0449
140	0x2426	0.0162
141	0x2db4	0.0891
142	0x2a7c	0.05066
143	0x2e29	0.09625
144	0x2e5b	0.0993
145	0x2e4b	0.0983
146	0x2c0e	0.06335
147	0xaf0e	-0.1102
148	0xa2b4	-0.01309
149	0x2f4f	0.1142
150	0xac5b	-0.06805
151	0xad82	-0.08606
152	0x2c74	0.0696
153	0x2ebf	0.1054
154	0xa842	-0.03326
155	0xa71c	-0.02777
156	0x2b42	0.0567
157	0x2d34	0.0813
158	0x2a1c	0.04773
159	0x2e63	0.0998
160	0xa94a	-0.04132
161	0xada3	-0.0881
162	0xae2a	-0.0963
163	0xaf56	-0.1146
164	0xae7a	-0.1012
165	0xa98c	-0.04333
166	0xab8a	-0.0589
167	0x2a72	0.05035
168	0x2d19	0.07965
169	0x2d87	0.08636
170	0xaf38	-0.1128
171	0x2ba1	0.0596
172	0x28ec	0.03845
173	0x2415	0.01595
174	0xa944	-0.04114
175	0x2ec3	0.10565
176	0xacd9	-0.07574
177	0xadaa	-0.0885
178	0xad6d	-0.0848
179	0x2968	0.04224
180	0xae6d	-0.1004
181	0x122a	0.0007524
182	0xaebb	-0.10516
183	0xa9f6	-0.04657
184	0x2e48	0.09814
185	0xaee9	-0.108
186	0xab2e	-0.0561
187	0x30d9	0.1515
188	0x2ef8	0.1089
189	0x2f14	0.1106
190	0x250c	0.01971
191	0xac46	-0.0668
192	0xaf80	-0.1172
193	0x252c	0.0202
194	0x9580	-0.001343
195	0xb081	-0.1407
196	0x2d83	0.0861
197	0x3073	0.139
198	0xafb9	-0.12067
199	0x2a50	0.04932
200	0x25b6	0.02231
201	0x294a	0.04132
202	0x2ca3	0.07245
203	0x9e9f	-0.006466
204	0x2e7b	0.10126
205	0xa97a	-0.0428
206	0xab71	-0.05814
207	0x2b60	0.05762
208	0x27bb	0.0302
209	0x2645	0.02449
210	0x2be5	0.06168
211	0xac00	-0.0625
212	0x9e19	-0.005955
213	0xaf4d	-0.1141
214	0xb0e5	-0.153
215	0x2968	0.04224
216	0x29b7	0.04465
217	0x23df	0.01537
218	0xafb1	-0.1202
219	0x2222	0.01198
220	0xa3ec	-0.01547
221	0x2f63	0.1154
222	0x2b76	0.0583
223	0x2596	0.02182
224	0x2f53	0.11444
225	0xae0a	-0.09436
226	0xac96	-0.07166
227	0x2de0	0.0918
228	0xafd6	-0.12244
229	0x2e60	0.0996
230	0x2d3d	0.08185
231	0xa113	-0.00991
232	0x2d93	0.0871
233	0xb015	-0.1276
234	0xac61	-0.0684
235	0x9ed9	-0.006687
236	0x2d14	0.07935
237	0x24dc	0.01898
238	0x2a00	0.04688
239	0xa629	-0.02406
240	0xa7f1	-0.03102
241	0x2f01	0.10944
242	0x2aaf	0.05222
243	0x1888	0.002213
244	0xae30	-0.0967
245	0x2efb	0.1091
246	0x2ecf	0.1064
247	0xa0ec	-0.00961
248	0xa2d4	-0.013336
249	0xadf2	-0.0929
250	0xa925	-0.0402
251	0xaef8	-0.1089
252	0x1ea0	0.00647
253	0xa122	-0.010025
254	0xa942	-0.04108
255	0xa415	-0.01595

sequential/dense/BiasAdd/ReadVariableOp f2 [100]
0	0x9a42	-0.003056
1	0x1e3b	0.006084
2	0x18e3	0.002386
3	0x9d8f	-0.00543
4	0x1c3b	0.00413
5	0x274c	0.0285
6	0x1bd1	0.003817
7	0x2867	0.0344
8	0x9406	-0.000982
9	0x9a33	-0.003027
10	0x97be	-0.00189
11	0x9fdc	-0.007675
12	0x9b08	-0.003433
13	0x9073	-0.000543
14	0x22bb	0.013145
15	0xa151	-0.01038
16	0x1fda	0.007668
17	0x0ef9	0.0004256
18	0x2236	0.01213
19	0xa0d3	-0.00942
20	0x9c89	-0.00443
21	0x1fc8	0.0076
22	0x0000	0.0
23	0x201d	0.00803
24	0x0000	0.0
25	0x9e96	-0.00643
26	0x1f25	0.006977
27	0x236e	0.01451
28	0x9deb	-0.00578
29	0x253a	0.02042
30	0x99fd	-0.002924
31	0x1f47	0.007107
32	0x1f04	0.00685
33	0x1dbf	0.00561
34	0x9dd9	-0.00571
35	0xa1a6	-0.01103
36	0x1c0d	0.003956
37	0xa46f	-0.01732
38	0xa324	-0.01395
39	0x23ad	0.01499
40	0x1ec9	0.006626
41	0xa03a	-0.008255
42	0x2450	0.01685
43	0xa365	-0.01444
44	0x1c20	0.00403
45	0x2655	0.02473
46	0x9f0d	-0.006886
47	0x231d	0.01389
48	0x1b13	0.003454
49	0x0e48	0.0003834
50	0x9f97	-0.007412
51	0x9366	-0.000903
52	0x1c2d	0.004078
53	0x9c9e	-0.00451
54	0x139e	0.00093
55	0x14a6	0.001135
56	0x0000	0.0
57	0x24a6	0.01816
58	0x273b	0.02824
59	0x1232	0.0007563
60	0x081e	0.0001256
61	0x9525	-0.001256
62	0x2404	0.01569
63	0xa54c	-0.02069
64	0x99f5	-0.002909
65	0x1427	0.001014
66	0x93dd	-0.00096
67	0x1e24	0.005997
68	0x9c31	-0.004093
69	0xa39d	-0.01487
70	0x16ca	0.0016575
71	0x970f	-0.001723
72	0x217f	0.010735
73	0x989d	-0.002253
74	0xa4a8	-0.01819
75	0x215b	0.01046
76	0x21ee	0.01158
77	0x9946	-0.002575
78	0x9e18	-0.00595
79	0x8b8f	-0.0002307
80	0x2544	0.02057
81	0x9b5c	-0.003593
82	0xa1ae	-0.01109
83	0x24e8	0.01917
84	0x1947	0.002577
85	0x2342	0.014175
86	0x0fba	0.0004716
87	0x20cf	0.00939
88	0xa228	-0.012024
89	0x13fe	0.0009756
90	0xa11f	-0.01
91	0xa026	-0.0081
92	0x988f	-0.002226
93	0x10a6	0.0005674
94	0x965d	-0.001554
95	0x9902	-0.002445
96	0x1324	0.0008717
97	0x1880	0.002197
98	0x0000	0.0
99	0xa3ff	-0.01562

sequential/dense_2/BiasAdd/ReadVariableOp f2 [10]
0	0x9f5f	-0.0072
1	0x1e1d	0.00597
2	0x2320	0.013916
3	0xa082	-0.008804
4	0x9691	-0.001603
5	0x26aa	0.02603
6	0x2288	0.01276
7	0x20d5	0.00944
8	0x99ea	-0.002888
9	0x9e16	-0.005943

sequential/dense_1/BiasAdd/ReadVariableOp f2 [50]
0	0x9bf5	-0.003885
1	0xa2f6	-0.013596
2	0x1f8e	0.007378
3	0x9a06	-0.002941
4	0x21a3	0.01101
5	0x22e1	0.013435
6	0x0000	0.0
7	0x235f	0.0144
8	0x8dbb	-0.0003498
9	0x9285	-0.000796
10	0xa152	-0.01039
11	0x0f1a	0.0004334
12	0x9aa2	-0.003239
13	0xa23f	-0.0122
14	0x89b3	-0.0001739
15	0x1b12	0.003452
16	0xa135	-0.01017
17	0x280a	0.03156
18	0x18f2	0.002415
19	0x2645	0.02449
20	0x9c23	-0.00404
21	0x2209	0.01179
22	0xa593	-0.02177
23	0xa3cc	-0.01523
24	0x0000	0.0
25	0xa0b0	-0.009155
26	0x980c	-0.001976
27	0x22b0	0.01306
28	0xa1d2	-0.01137
29	0x1b63	0.003607
30	0x217b	0.010704
31	0x1993	0.002722
32	0x9864	-0.002144
33	0xa08f	-0.0089
34	0x2490	0.01782
35	0x9899	-0.002245
36	0x92e4	-0.000841
37	0x2326	0.01396
38	0x21ae	0.01109
39	0x1189	0.0006757
40	0x1d6c	0.005295
41	0x242e	0.01633
42	0x20e9	0.00959
43	0x1863	0.002142
44	0x9947	-0.002577
45	0xa079	-0.008736
46	0xa256	-0.012375
47	0x2400	0.01563
48	0x1866	0.002148
49	0xa26d	-0.01255

sequential/dense/MatMul f2 [100, 128]
0	0xb01f	-0.1288
1	0x2e63	0.0998
2	0xa307	-0.013725
3	0x2ad3	0.0533
4	0xa3c2	-0.01515
5	0xa19a	-0.01094
6	0x1d4c	0.005173
7	0x2f47	0.1137
8	0xad06	-0.0785
9	0x286a	0.0345
10	0x2f13	0.11053
11	0x2d0f	0.07904
12	0x1cfc	0.004868
13	0x30e9	0.1534
14	0x2fee	0.1239
15	0x2036	0.008224
16	0xa8f1	-0.0386
17	0x3048	0.1338
18	0xafc5	-0.1214
19	0x3080	0.1406
20	0x3062	0.137
21	0x2511	0.01979
22	0xb103	-0.1566
23	0xab65	-0.05777
24	0xad93	-0.0871
25	0xad7a	-0.0856
26	0xad7b	-0.08563
27	0xae14	-0.095
28	0x2a37	0.04855
29	0x1bd0	0.003815
30	0x2f26	0.1117
31	0xb044	-0.1333
32	0xa243	-0.01223
33	0x2fc7	0.1215
34	0x9e64	-0.00624
35	0x2c09	0.06305
36	0x2c8a	0.0709
37	0x2ff4	0.12427
38	0x3034	0.1313
39	0x30c7	0.1493
40	0xa4ca	-0.0187
41	0xa527	-0.02013
42	0xa8cf	-0.03757
43	0x2d76	0.0853
44	0x9ee4	-0.00673
45	0xa37e	-0.01463
46	0x2f8d	0.118
47	0x2ef4	0.10864
48	0xa847	-0.03342
49	0x2628	0.02405
50	0xb111	-0.1583
51	0xa4a5	-0.01814
52	0x2cde	0.07605
53	0x2d4f	0.08295
54	0x28ba	0.03693
55	0xaef8	-0.1089
56	0x30d7	0.1512
57	0xaea8	-0.104
58	0xac95	-0.0716
59	0xb119	-0.1593
60	0xaefa	-0.109
61	0xb0b0	-0.1465
62	0xaf1d	-0.11115
63	0xb1a2	-0.176
64	0x285c	0.03406
65	0x30ba	0.1477
66	0x2de3	0.092
67	0xad6c	-0.0847
68	0x2ce3	0.07635
69	0x25f9	0.02333
70	0x1d94	0.005447
71	0xa59a	-0.02188
72	0x9c50	-0.00421
73	0x306a	0.138
74	0xb018	-0.1279
75	0xac52	-0.0675
76	0x2a94	0.0514
77	0xadff	-0.0937
78	0xb09f	-0.1444
79	0x2ed5	0.10675
80	0xaf50	-0.11426
81	0xa2ff	-0.013664
82	0xae44	-0.0979
83	0x2141	0.01026
84	0x251d	0.01997
85	0xa8b9	-0.0369
86	0x311d	0.1598
87	0xa7c5	-0.03035
88	0xafff	-0.12494
89	0xb0f9	-0.1554
90	0xaf55	-0.11456
91	0xa9a3	-0.04404
92	0xb0d5	-0.151
93	0x2d61	0.08405
94	0xaca9	-0.0728
95	0xb125	-0.1608
96	0xa241	-0.012215
97	0x28dd	0.038
98	0x9a48	-0.003067
99	0xab7a	-0.0584
100	0x9d74	-0.005325
101	0x306c	0.1382
102	0x3026	0.1296
103	0xaccc	-0.07495
104	0xafdb	-0.12274
105	0xaea9	-0.10406
106	0x302a	0.1301
107	0x2845	0.03336
108	0xaf18	-0.11084
109	0xad58	-0.0835
110	0xb089	-0.1417
111	0x2270	0.01257
112	0x2c5d	0.0682
113	0xb0f7	-0.1552
114	0xb09c	-0.144
115	0xad41	-0.0821
116	0xb01c	-0.1284
117	0xa1e6	-0.01152
118	0xacbb	-0.0739
119	0xabf0	-0.062
120	0x30b9	0.1476
121	0x2f73	0.1164
122	0x2d96	0.0873
123	0xa8f5	-0.03873
124	0xa9f8	-0.04663
125	0xada2	-0.088
126	0xa92d	-0.04044
127	0xb119	-0.1593
128	0x2f15	0.11066
129	0x2929	0.0403
130	0x2c6f	0.0693
131	0x2891	0.03568
132	0xac7d	-0.0701
133	0x2e07	0.0942
134	0x2fdb	0.12274
135	0x2d76	0.0853
136	0xae7b	-0.10126
137	0xafb5	-0.1204
138	0x3100	0.1562
139	0x2f16	0.1107
140	0xaf7a	-0.1168
141	0x30e4	0.1528
142	0xa8ce	-0.03754
143	0x2c77	0.06976
144	0x2a8f	0.05124
145	0x2837	0.03293
146	0x2cb1	0.0733
147	0xb0a8	-0.1455
148	0x3034	0.1313
149	0xb006	-0.1257
150	0x2ad3	0.0533
151	0x2ced	0.07697
152	0x26aa	0.02603
153	0x1bc3	0.00379
154	0x8f5d	-0.0004494
155	0x2e00	0.09375
156	0x2f0e	0.1102
157	0x2cbf	0.07416
158	0xae74	-0.1008
159	0x26a1	0.0259
160	0xb18a	-0.1731
161	0x30cf	0.1503
162	0x30e8	0.1533
163	0xaf6a	-0.11584
164	0x2783	0.02934
165	0xaff5	-0.1243
166	0xa49a	-0.01797
167	0x30d1	0.1505
168	0xae12	-0.09485
169	0x25ca	0.02261
170	0xae73	-0.10077
171	0x315a	0.1672
172	0x2ef4	0.10864
173	0xa7fc	-0.03119
174	0xb01f	-0.1288
175	0x29b5	0.0446
176	0x1b68	0.003616
177	0x2fb6	0.1205
178	0x3062	0.137
179	0x30e3	0.1527
180	0xb047	-0.1337
181	0x30c5	0.149
182	0x2cdc	0.0759
183	0x2c93	0.0715
184	0xb089	-0.1417
185	0xabe5	-0.06168
186	0x28b5	0.03677
187	0x22b0	0.01306
188	0x2cca	0.0748
189	0x9c5b	-0.004253
190	0x1f80	0.007324
191	0x27f3	0.03105
192	0x2edc	0.1072
193	0xa743	-0.02837
194	0x1dad	0.005543
195	0xaa71	-0.05032
196	0x30fd	0.1559
197	0xaece	-0.1063
198	0x2628	0.02405
199	0xad92	-0.08704
200	0x2ba5	0.05972
201	0xac66	-0.0687
202	0xa360	-0.014404
203	0x2950	0.0415
204	0xad2f	-0.081
205	0x2d46	0.0824
206	0x2d95	0.0872
207	0xa547	-0.02061
208	0x300e	0.1267
209	0xadba	-0.0895
210	0x2d43	0.0822
211	0x2dbe	0.0897
212	0x2efe	0.10925
213	0x2dff	0.0937
214	0x2caf	0.0732
215	0x2fca	0.1217
216	0x30c6	0.1492
217	0x3066	0.1375
218	0xa844	-0.03333
219	0x2c35	0.06573
220	0xa41b	-0.01604
221	0x2237	0.01214
222	0xa440	-0.0166
223	0x306c	0.1382
224	0xae85	-0.10187
225	0xb0a4	-0.145
226	0x3160	0.168
227	0x2cd7	0.0756
228	0xac0b	-0.0632
229	0xad5b	-0.0837
230	0xaba9	-0.05984
231	0x2883	0.03525
232	0x25c9	0.0226
233	0xa81e	-0.03217
234	0x3084	0.1411
235	0x311e	0.1599
236	0xa80d	-0.03165
237	0x2d62	0.0841
238	0x2f1b	0.111
239	0x2cca	0.0748
240	0x3013	0.1273
241	0x2941	0.04105
242	0xb074	-0.1392
243	0x2d35	0.08136
244	0xaf50	-0.11426
245	0xb081	-0.1407
246	0xaa8d	-0.05118
247	0x2e21	0.09576
248	0x248b	0.01775
249	0xae94	-0.1028
250	0xb0d1	-0.1505
251	0x128f	0.0008006
252	0x08ed	0.0001503
253	0xaf05	-0.1097
254	0xaf42	-0.1134
255	0xae13	-0.0949

sequential/dense_1/MatMul f2 [50, 100]
0	0xa96c	-0.04236
1	0xb13c	-0.1636
2	0x2c08	0.063
3	0x2819	0.032
4	0x31c7	0.1805
5	0x178f	0.001845
6	0x2dfb	0.09344
7	0xa1d9	-0.01142
8	0xad53	-0.0832
9	0xadac	-0.0886
10	0x31db	0.183
11	0x2def	0.0927
12	0xad5e	-0.08386
13	0xae87	-0.102
14	0xad90	-0.0869
15	0x3096	0.1433
16	0x303d	0.1324
17	0xb0db	-0.1517
18	0xb226	-0.1921
19	0x2e23	0.0959
20	0x1f29	0.006992
21	0xb0e6	-0.1531
22	0xa928	-0.04028
23	0x202e	0.00816
24	0xb1dc	-0.1831
25	0xb25e	-0.199
26	0xb14e	-0.1658
27	0xb11d	-0.1598
28	0x316f	0.1698
29	0x2d27	0.0805
30	0x30cc	0.1499
31	0xb08e	-0.1423
32	0x283c	0.03308
33	0xadf6	-0.09314
34	0x304b	0.1342
35	0xb09c	-0.144
36	0xac4f	-0.0673
37	0x313f	0.164
38	0xacb5	-0.07355
39	0xac23	-0.06464
40	0xb1f8	-0.1865
41	0x2e7f	0.1015
42	0x31fd	0.1871
43	0xb378	-0.2334
44	0xb034	-0.1313
45	0x1148	0.0006447
46	0xacc3	-0.0744
47	0xb0a3	-0.1449
48	0xa1eb	-0.01156
49	0x2dac	0.0886
50	0xa173	-0.01064
51	0x2643	0.02446
52	0xafe2	-0.12317
53	0xa61a	-0.02383
54	0xac7f	-0.07025
55	0xb0dc	-0.1519
56	0xa5e6	-0.02304
57	0xae23	-0.0959
58	0x30d2	0.1506
59	0xa680	-0.02539
60	0x29b7	0.04465
61	0x2e4f	0.0986
62	0x30b1	0.1466
63	0x2b6e	0.05804
64	0xb0cd	-0.15
65	0x3246	0.196
66	0xb061	-0.1368
67	0x2dd5	0.0911
68	0xad79	-0.0855
69	0xaef2	-0.1085
70	0x30af	0.1464
71	0xb084	-0.1411
72	0x2ac1	0.05276
73	0xb06c	-0.1382
74	0x3197	0.1747
75	0x2bc0	0.06055
76	0x2de5	0.0921
77	0xb238	-0.1943
78	0xb268	-0.2002
79	0x2dd6	0.0912
80	0x2a6c	0.05017
81	0x3052	0.135
82	0xa87e	-0.0351
83	0xa999	-0.04373
84	0x30c7	0.1493
85	0x30c4	0.1489
86	0xb153	-0.1664
87	0x2dde	0.0917
88	0x2cd4	0.07544
89	0xa6b4	-0.02618
90	0x305f	0.1366
91	0xa45f	-0.01707
92	0x28c0	0.0371
93	0x30f1	0.1544
94	0xb12d	-0.1617
95	0x2e24	0.09595
96	0x2ec3	0.10565
97	0x319d	0.1754
98	0xb092	-0.1428
99	0xb2a2	-0.2073
100	0xad8e	-0.0868
101	0xb22a	-0.1926
102	0x3197	0.1747
103	0x31d4	0.1821
104	0xb058	-0.1357
105	0x2df6	0.09314
106	0xadec	-0.0925
107	0xab66	-0.0578
108	0x9fa9	-0.00748
109	0xb21f	-0.1913
110	0x2f16	0.1107
111	0xa60c	-0.02362
112	0x3160	0.168
113	0xb0ac	-0.146
114	0xaffe	-0.1249
115	0x2d1c	0.07983
116	0xacef	-0.0771
117	0x2c1c	0.0642
118	0xb089	-0.1417
119	0x24fc	0.01947
120	0x2c2c	0.0652
121	0x2955	0.04166
122	0xb025	-0.1295
123	0x2fe0	0.12305
124	0x308f	0.1425
125	0x2cd3	0.0754
126	0x22e4	0.01346
127	0xa6dc	-0.0268
128	0xae4f	-0.0986
129	0xa527	-0.02013
130	0xb126	-0.1609
131	0x3067	0.1376
132	0xaaba	-0.05255
133	0x2c97	0.0717
134	0x2f1c	0.1111
135	0xa0f2	-0.00966
136	0x2f19	0.1109
137	0x3233	0.1937
138	0x3329	0.2238
139	0xb21e	-0.1912
140	0x20a3	0.009056
141	0x327d	0.2028
142	0xaa0a	-0.04718
143	0xb2ba	-0.2102
144	0x3187	0.1727
145	0x2ac1	0.05276
146	0x2e8c	0.1023
147	0x303a	0.1321
148	0x299e	0.04388
149	0xb0cc	-0.1499
150	0x21c3	0.01125
151	0x2588	0.0216
152	0xaaaa	-0.05206
153	0x30bf	0.1483
154	0xb1a0	-0.1758
155	0xaaed	-0.0541
156	0xad51	-0.08307
157	0x300a	0.1262
158	0xb298	-0.206
159	0xa34c	-0.01425
160	0xb225	-0.192
161	0x283e	0.03314
162	0xadb6	-0.08923
163	0x3266	0.2
164	0x324d	0.1969
165	0x2f96	0.1185
166	0xb308	-0.2197
167	0xb133	-0.1625
168	0xb225	-0.192
169	0xa8ae	-0.03656
170	0xb1de	-0.1833
171	0xb178	-0.1709
172	0x3211	0.1896
173	0x2e17	0.09515
174	0x3152	0.1663
175	0xb003	-0.1254
176	0x3172	0.1702
177	0xb0c5	-0.149
178	0x31f8	0.1865
179	0x2751	0.02858
180	0xaf45	-0.1136
181	0xb152	-0.1663
182	0x3060	0.1367
183	0xa4db	-0.01897
184	0xb050	-0.1348
185	0x2eda	0.10706
186	0xacda	-0.0758
187	0xad81	-0.086
188	0xb115	-0.1588
189	0x2c6b	0.06903
190	0x3023	0.1293
191	0x1a85	0.003183
192	0x2d01	0.0782
193	0x2a42	0.0489
194	0xac54	-0.0676
195	0xb0fb	-0.1556
196	0x2f3a	0.1129
197	0xb19a	-0.175
198	0x2f04	0.1096
199	0xb18e	-0.1736
200	0xb0f2	-0.1545
201	0xab69	-0.0579
202	0x30cc	0.1499
203	0x2eb6	0.10486
204	0xa4ab	-0.01823
205	0xb25a	-0.1985
206	0xb2b2	-0.2092
207	0x22dc	0.0134
208	0x2fca	0.1217
209	0x31b6	0.1785
210	0x3230	0.1934
211	0x3096	0.1433
212	0xaec8	-0.10596
213	0xb2f5	-0.2174
214	0x2c22	0.0646
215	0xaed1	-0.1065
216	0x2c43	0.0666
217	0xadf4	-0.093
218	0x3201	0.1876
219	0xb0bb	-0.1478
220	0xb0e4	-0.1528
221	0x3007	0.1259
222	0x1f64	0.007217
223	0x3232	0.1936
224	0xae71	-0.10065
225	0xb0f1	-0.1544
226	0xaf84	-0.11743
227	0xa1a1	-0.010994
228	0x233b	0.01412
229	0xa432	-0.01639
230	0xb0d2	-0.1506
231	0x2c3e	0.0663
232	0x0d0b	0.0003078
233	0x3313	0.2211
234	0x3003	0.1254
235	0x2fab	0.1198
236	0x31ca	0.1809
237	0x0d83	0.0003364
238	0x312d	0.1617
239	0xa8de	-0.03802
240	0x2b09	0.05496
241	0x30a9	0.1456
242	0x2fa6	0.1195
243	0x2df5	0.0931
244	0x2241	0.012215
245	0xadb5	-0.0892
246	0xb0f5	-0.1549
247	0xaa68	-0.05005
248	0xb0d4	-0.1509
249	0xb147	-0.1649
250	0xb147	-0.1649
251	0xa88a	-0.03546
252	0x2c13	0.06366
253	0x297f	0.04294
254	0x3152	0.1663
255	0x2c75	0.06964

sequential/dense_2/MatMul f2 [10, 50]
0	0xb43d	-0.265
1	0xb407	-0.2517
2	0x21cf	0.011345
3	0xa91d	-0.03995
4	0xaa92	-0.05133
5	0x327f	0.203
6	0xa3bb	-0.0151
7	0xb4f9	-0.3108
8	0xac5c	-0.0681
9	0x3051	0.1349
10	0x2aee	0.05414
11	0xb1ed	-0.1852
12	0x27dd	0.03072
13	0x32b0	0.209
14	0xb4c7	-0.2986
15	0xb31a	-0.2219
16	0x251e	0.01999
17	0xad32	-0.0812
18	0x2caa	0.0729
19	0x25ce	0.02267
20	0xb15e	-0.1677
21	0x3358	0.2295
22	0x352d	0.3235
23	0xa3ad	-0.01499
24	0x339a	0.2375
25	0x2fb8	0.1206
26	0x33df	0.246
27	0x9bf1	-0.003878
28	0x214f	0.01037
29	0xb150	-0.166
30	0xa7f0	-0.031
31	0x3115	0.1588
32	0x2715	0.02766
33	0x2f91	0.1182
34	0xac70	-0.06934
35	0x2fd2	0.1222
36	0xb0b4	-0.147
37	0x352e	0.3237
38	0xb2a9	-0.2081
39	0x9aba	-0.003284
40	0x2f43	0.11346
41	0x3490	0.2852
42	0x2e16	0.0951
43	0x3019	0.128
44	0xb1a8	-0.1768
45	0xb029	-0.13
46	0x3564	0.337
47	0x32f9	0.2179
48	0x2567	0.0211
49	0xb08d	-0.1422
50	0xae26	-0.09607
51	0x31b0	0.1777
52	0x3297	0.2059
53	0xb502	-0.313
54	0xb40d	-0.2532
55	0x2351	0.01429
56	0xb4ab	-0.2917
57	0xb109	-0.1573
58	0xaffd	-0.1248
59	0x2307	0.013725
60	0xb523	-0.321
61	0xb199	-0.1749
62	0xb458	-0.2715
63	0x34ca	0.2993
64	0x3374	0.2329
65	0x2fa4	0.1194
66	0x3192	0.1741
67	0x33e3	0.2465
68	0x2b2c	0.05603
69	0xb495	-0.2864
70	0xa5c9	-0.0226
71	0xac08	-0.063
72	0x188b	0.002218
73	0xb2f9	-0.2179
74	0xb0d6	-0.1511
75	0xb416	-0.2554
76	0xb0b0	-0.1465
77	0xb1d2	-0.1819
78	0x2f01	0.10944
79	0x3398	0.2373
80	0xb3b7	-0.2411
81	0xb27e	-0.2029
82	0x3180	0.1719
83	0xb261	-0.1993
84	0x26c8	0.02649
85	0x3107	0.1571
86	0xb35f	-0.2303
87	0x3327	0.2235
88	0x2e27	0.0961
89	0x25a8	0.0221
90	0x33e9	0.2472
91	0xb4a8	-0.291
92	0xb2dc	-0.2144
93	0xb32b	-0.224
94	0x2658	0.02478
95	0x34c2	0.2974
96	0xb34e	-0.2283
97	0xa942	-0.04108
98	0xace9	-0.0767
99	0xb4f7	-0.3103
100	0xb3b9	-0.2413
101	0xb443	-0.2664
102	0x2ed0	0.10645
103	0xb49c	-0.288
104	0x3079	0.1398
105	0x34d0	0.3008
106	0x2715	0.02766
107	0x3335	0.2252
108	0xafad	-0.11993
109	0xb4df	-0.3044
110	0xb0b9	-0.1476
111	0x9860	-0.002136
112	0xad8c	-0.0867
113	0xb0d5	-0.151
114	0xad98	-0.0874
115	0xaf62	-0.11536
116	0xb0eb	-0.1537
117	0x346c	0.2764
118	0xad2d	-0.0809
119	0x3493	0.286
120	0xb16b	-0.1693
121	0xad66	-0.08435
122	0xb411	-0.2542
123	0x2ad4	0.05334
124	0x2edc	0.1072
125	0xb0de	-0.1521
126	0xaed2	-0.10657
127	0x343d	0.265
128	0xa41f	-0.0161
129	0x325b	0.1986
130	0x3493	0.286
131	0xafd8	-0.12256
132	0x34ef	0.3083
133	0x3550	0.332
134	0x34ea	0.3071
135	0xb44a	-0.268
136	0xb430	-0.2617
137	0x3452	0.27
138	0x3334	0.2251
139	0xae9f	-0.10345
140	0x3210	0.1895
141	0xb43d	-0.265
142	0x2821	0.03226
143	0x34fb	0.3113
144	0xb159	-0.1671
145	0xb051	-0.1349
146	0xb33b	-0.226
147	0x3556	0.3335
148	0x2f3f	0.1132
149	0xb228	-0.1924
150	0xb1de	-0.1833
151	0x3160	0.168
152	0x2aa2	0.05182
153	0x34aa	0.2915
154	0x2cc8	0.0747
155	0x31ce	0.1814
156	0x306a	0.138
157	0xb216	-0.1902
158	0xafb6	-0.1205
159	0x2f90	0.11816
160	0x267c	0.02533
161	0x2d72	0.0851
162	0x2d7c	0.0857
163	0x2fd0	0.1221
164	0x3210	0.1895
165	0xabf5	-0.06216
166	0xb3e5	-0.2467
167	0x3435	0.263
168	0xaafe	-0.05463
169	0xb3ca	-0.2434
170	0xaafd	-0.0546
171	0xab5f	-0.0576
172	0x300a	0.1262
173	0x31c9	0.1808
174	0x2a85	0.05093
175	0xa6b5	-0.0262
176	0xab18	-0.05542
177	0x1e27	0.00601
178	0xa41c	-0.01605
179	0x3436	0.2632
180	0xb469	-0.2756
181	0xb192	-0.1741
182	0x2fe7	0.1235
183	0x33c8	0.2432
184	0x3246	0.196
185	0xafdb	-0.12274
186	0x34da	0.3032
187	0xae78	-0.1011
188	0xabed	-0.06192
189	0xb199	-0.1749
190	0x34a6	0.2905
191	0xb44b	-0.2683
192	0xabf6	-0.0622
193	0xb459	-0.2717
194	0xb4c8	-0.2988
195	0x2a54	0.04944
196	0xb3bc	-0.2417
197	0xb3ed	-0.2477
198	0xafc1	-0.12115
199	0xaa80	-0.05078
200	0x3502	0.313
201	0xb04c	-0.1343
202	0xb278	-0.2021
203	0xb41b	-0.2566
204	0xb4b4	-0.294
205	0xb33d	-0.2262
206	0x2430	0.01636
207	0x2e19	0.0953
208	0x3496	0.2866
209	0xb47b	-0.28
210	0x3174	0.1704
211	0xa7c4	-0.03033
212	0x1325	0.000872
213	0x3465	0.2747
214	0xb126	-0.1609
215	0x349c	0.288
216	0x328f	0.205
217	0xb4f3	-0.3093
218	0xb0f1	-0.1544
219	0xa0aa	-0.00911
220	0xb088	-0.1416
221	0x19e5	0.002878
222	0xa407	-0.01573
223	0x34db	0.3035
224	0x341c	0.2568
225	0xb424	-0.2588
226	0x34ca	0.2993
227	0x2c32	0.06555
228	0x30de	0.1521
229	0xb4ba	-0.2954
230	0x31ca	0.1809
231	0xa900	-0.03906
232	0x3443	0.2664
233	0xb240	-0.1953
234	0xae94	-0.1028
235	0xa971	-0.0425
236	0xaba4	-0.0597
237	0x2c0e	0.06335
238	0xb1ab	-0.1771
239	0x3029	0.13
240	0x3495	0.2864
241	0xa8bf	-0.03708
242	0x2aa0	0.05176
243	0xa322	-0.01393
244	0xb449	-0.2678
245	0xb02a	-0.1301
246	0x30d0	0.1504
247	0xac0a	-0.0631
248	0x28b2	0.03668
249	0x327a	0.2024
250	0xb491	-0.2854
251	0xb14d	-0.1656
252	0xa708	-0.02747
253	0xb44b	-0.2683
254	0x3314	0.2212
255	0x3198	0.1748

sequential/dense_3/MatMul f2 [2, 10]
0	0xb469	-0.2756
1	0x37a9	0.4788
2	0xb464	-0.2744
3	0x33f3	0.2484
4	0xb811	-0.5083
5	0xb014	-0.1274
6	0xb805	-0.5024
7	0x34c9	0.299
8	0x326e	0.2009
9	0xb939	-0.653
10	0xb617	-0.3806
11	0xb8c8	-0.5977
12	0x399f	0.7026
13	0xb876	-0.5576
14	0xb543	-0.3289
15	0x3613	0.3796
16	0x35c7	0.361
17	0x393c	0.6543
18	0xb7d2	-0.4888
19	0xb883	-0.564
