models/f1_tenth_model.tflite (tflite, 234808 bytes, 18 tensors)

sequential/dense_3/MatMul f4 [2, 10]
-0.34704158 0.36476204 0.45761088 0.12343003 -0.5224187 -0.59007907 0.44973618 0.21803501
0.47180295 0.20775023 0.6703252 -0.6574423 -0.1741735 0.17556687 0.45714238 0.67419416
-0.4934921 0.21593203 -0.5594011 -0.6713628
00000000: 6faf b1be 17c2 ba3e f94b ea3e e2c8 fc3d
00000010: 3bbd 05bf 6c0f 17bf d243 e63e 9244 5f3e
00000020: 2890 f13e 7abc 543e 6f9a 2b3f 234e 28bf
00000030: 8a5a 32be cdc7 333e 910e ea3e fd97 2c3f
00000040: ffaa fcbe 491d 5d3e e934 0fbf 6fde 2bbf

sequential/dense_2/MatMul f4 [10, 50]
0.18871485 0.06130422 0.09910149 0.24944465 0.19094804 0.29297057 0.01948991 -0.19839415
-0.17591916 -0.05703378 0.09915913 -0.27002245 0.2133332 -0.15710066 0.21082523 0.19602863
0.20915301 0.2607778 0.16599843 -0.22500578 -0.05373573 0.031178333 0.005154331 -0.1918054
0.1172318 0.06444286 0.032625943 -0.26497796 -0.2680479 0.04227745 -0.036145862 -0.1045888
0.21906917 -0.29377344 0.31496504 -0.30453005 0.31768125 0.13492776 0.06568949 -0.06768928
-0.1736516 0.27121487 -0.07311709 -0.27176622 -0.09235211 0.3176067 -0.15033026 -0.025150787
-0.15995619 -0.13256693 -0.24055895 -0.11552178 -0.07280964 0.12540677 -0.120549396 0.11996911
-0.28560534 -0.28340548 -0.26750106 0.21376683 0.29091585 0.10855271 0.12904274 -0.2783473
0.123134725 -0.09674021 -0.19576514 -0.11602144 0.18368685 0.023290865 0.122973904 0.112206616
-0.13407251 0.031609602 -0.14457022 0.22096604 -0.008427506 -0.29808074 0.1684151 0.24695796
0.06492343 -0.10876287 -0.3066742 -0.17736559 -0.24498494 0.28751233 -0.32627627 -0.027413303
-0.23396093 -0.024507787 0.14559397 -0.12524588 0.22446145 0.05211495 0.043880817 -0.14659727
0.13029397 -0.27539158 -0.15516603 -0.102338605 0.16629198 0.06872795 0.2904628 0.0046046446
0.22121337 -0.30305722 -0.3226782 0.21737775 -0.04381914 0.15017138 -0.028305829 -0.26629487
0.28522003 -0.18152337 0.15702155 -0.0028229174 0.084017314 0.11639077 -0.053991735 0.28102818
0.2248514 0.11243206 0.044326536 0.043726243 -0.12462781 0.0015520435 -0.057276573 0.022365522
-0.21858822 -0.052391842 -0.090825714 0.16389553 -0.16340321 0.19653381 -0.2839008 -0.20320658
0.11555463 -0.036260538 -0.27217636 -0.042490285 -0.052736085 -0.2383202 -0.074101925 0.08741853
-0.10578598 -0.0010845141 0.31065682 0.111728 -0.20100169 -0.2898608 -0.1857822 -0.1282055
-0.06639629 0.28282815 0.23612793 0.084249526 -0.12564938 0.21117388 0.071408376 -0.20971738
0.16045709 0.04550089 -0.2478302 0.26911718 -0.16895899 0.24109745 -0.11512463 -0.081562206
-0.10159361 -0.01610179 -0.053401757 0.14416885 0.19695428 0.29646006 0.17981108 -0.10466081
0.09176451 -0.18735151 0.11232311 0.10814927 -0.093031995 -0.15515704 -0.04837959 0.028873185
0.20193069 0.06461534 -0.18325405 -0.25930786 -0.00949837 0.01965664 -0.0988755 0.3418549
-0.028203672 -0.12796642 0.28485423 0.017939316 -0.016214982 0.28264424 0.014028367 0.3142627
-0.19946998 0.17191501 0.11961766 0.21680821 0.29074997 0.28972036 -0.061841976 -0.30619034
-0.11124267 -0.013247479 -0.13088219 0.032616038 -0.02513476 -0.12901156 -0.2528303 0.042778306
0.25921687 0.10005028 -0.223725 0.2340951 0.17493536 -0.019105257 -0.13792762 0.16770199
-0.27573875 0.22820075 -0.27088875 -0.17005965 -0.25835526 -0.2722155 -0.2646401 0.13501523
0.28876477 -0.22296016 0.010117528 -0.19908202 0.21975991 -0.2546521 -0.09160831 -0.022342809
-0.14373802 -0.31393912 0.16882746 0.30314276 0.22501889 0.035558533 -0.09975741 -0.22950618
0.26936468 -0.13288714 0.2640345 -0.28651166 -0.18363631 -0.23326612 0.2026149 -0.04913045
00000000: 773e 413e 221a 7b3d b9f5 ca3d 6b6e 7f3e
00000010: e287 433e 3d00 963e 4ea9 9f3c d627 4bbe
00000020: 2724 34be 419c 69bd f113 cb3d 6240 8abe
00000030: 0574 5a3e ffde 20be 92e2 573e bbbb 483e
00000040: 352c 563e ab84 853e 7efb 293e ea67 66be
00000050: ff19 5cbd b469 ff3c aae5 a83b a368 44be
00000060: 3a17 f03d 9efa 833d c8a2 053d 31ab 87be
00000070: 933d 89be 1f2b 2d3d af0d 14bd a732 d6bd
00000080: ab53 603e 7969 96be 1943 a13e 5deb 9bbe
00000090: 1ea7 a23e 812a 0a3e 3688 863d ada0 8abd
000000a0: bad1 31be addc 8a3e 6abe 95bd f124 8bbe
000000b0: 1a23 bdbd 589d a23e 2df0 19be 0609 cebc
000000c0: 8ecb 23be a0bf 07be 1655 76be af96 ecbd
000000d0: 381d 95bd a26a 003e 9ae2 f6bd 5db2 f53d
000000e0: dd3a 92be 861a 91be e6f5 88be b1e5 5a3e
000000f0: ecf2 943e e250 de3d c823 043e 8a83 8ebe
00000100: 0f2e fc3d bb1f c6bd a876 48be a69c edbd
00000110: 6818 3c3e 7ccc be3c bed9 fb3d 95cc e53d
00000120: 4e4a 09be 1279 013d 370a 14be ec44 623e
00000130: 8613 0abc 0a9e 98be 0275 2c3e 8ce2 7c3e
00000140: 93f6 843d 11bf debd 6704 9dbe 539f 35be
00000150: 55dd 7abe d134 933e af0d a7be dd91 e0bc
00000160: 7493 6fbe 8ec4 c8bc 9616 153e 7540 00be
00000170: 39d9 653e 7c76 553d 5fbc 333d 981d 16be
00000180: c86b 053e 2000 8dbe d8e3 1ebe e796 d1bd
00000190: 7248 2a3e 3dc1 8c3d 8ab7 943e 8fe2 963b
000001a0: c285 623e 512a 9bbe 1436 a5be 4698 5e3e
000001b0: b37b 33bd 87c6 193e a0e1 e7bc cd57 88be
000001c0: 5c08 923e 43e1 39be 42ca 203e b200 39bb
000001d0: 4511 ac3d 495e ee3d 7026 5dbd ede2 8f3e
000001e0: 723f 663e c842 e63d be8f 353d 4a1a 333d
000001f0: de3c ffbd f06d cb3a d79a 6abd e637 b73c
00000200: 97d5 5fbe d498 56bd d502 babd 3bd4 273e
00000210: 2c53 27be 2940 493e 725b 91be 6315 50be
00000220: e8a7 ec3d ee85 14bd b35a 8bbe 4b0a 2ebd
00000230: cb01 58bd 360a 74be c0c2 97bd 7c08 b33d
00000240: 52a6 d8bd 4126 8eba 690e 9f3e a6d1 e43d
00000250: 63d3 4dbe a368 94be b03d 3ebe 4d48 03be
00000260: c7fa 87bd dace 903e 85cb 713e 048b ac3d
00000270: 3baa 00be f73d 583e 8e3e 923d 27c0 56be
00000280: dd4e 243e 245f 3a3d 33c7 7dbe bac9 893e
00000290: 9603 2dbe 40e2 763e 76c6 ebbd 160a a7bd
000002a0: 5010 d0bd e7e7 83bc cdbb 5abd 00a1 133e
000002b0: 62ae 493e 9dc9 973e 6520 383e 6858 d6bd
000002c0: 08ef bb3d 13d9 3fbe a909 e63d 5d7d dd3d
000002d0: 8f87 bebd 7de1 1ebe ad29 46bd 7587 ec3c
000002e0: ebc6 4e3e 0c55 843d f3a6 3bbe 00c4 84be
000002f0: 0d9f 1bbc f606 a13c 3d7f cabd 9b07 af3e
00000300: 630b e7bc a109 03be 6ad8 913e 79f5 923c
00000310: 48d5 84bc bfb6 903e 3cd7 653c 0ae7 a03e
00000320: dc41 4cbe 7d0a 303e 1bfa f43d f902 5e3e
00000330: 2edd 943e 3a56 943e 034e 7dbd fbc4 9cbe
00000340: 32d3 e3bd f40b 59bc fb05 06be 6598 053d
00000350: 6ae7 cdbc 9b1b 04be f972 81be 4e38 2f3d
00000360: 13b8 843e 29e7 cc3d 2b18 65be a0b6 6f3e
00000370: 4122 333e a182 9cbc e63c 0dbe 12ba 2b3e
00000380: a12d 8dbe 75ad 693e eeb1 8abe 1e24 2ebe
00000390: 2447 84be d45f 8bbe e87e 87be 6f41 0a3e
000003a0: fad8 933e ab4f 64be fdc3 253c 28dc 4bbe
000003b0: be08 613e c361 82be 239d bbbd 4408 b7bc
000003c0: 0f30 13be a1bc a0be 1be1 2c3e 8735 9b3e
000003d0: 5a6b 663e d3a5 113d 9d4d ccbd ab03 6bbe
000003e0: 2bea 893e 9113 08be 882f 873e a8b1 92be
000003f0: 280b 3cbe 50dd 6ebe 487a 4f3e 033d 49bd

sequential/dense_1/BiasAdd/ReadVariableOp f4 [50]
-6.879637e-05 0.0024397061 0.0044976557 0.0064468174 0.0021777744 0.0014479834 0.016501421 -0.0014362363
-0.00053436623 -0.0041075153 -0.004099144 -0.009873215 0.0017743235 -0.00056435243 0.003504144 0.01529921
0.0041370103 0.0022517745 0.0023620457 0.018120592 0.0044805515 0.0030650138 -0.00020033265 -0.0005463425
-0.005813344 -0.0010162686 -0.0035662525 -0.0056371596 -0.008660352 0.0021938924 -0.0049483 0.0014468781
-0.007421552 -0.0050915494 -0.002105937 -0.002211815 -0.0044133672 -0.004370975 -0.0002738096 0.000488596
-0.0069148093 0.0017194806 0.00071944384 0.0062837824 -2.3030902e-05 0.009083363 -0.0019495691 -0.0007273896
-0.0011908537 -0.00113343
00000000: c546 90b8 7ae3 1f3b 1261 933b d33f d33b
00000010: feb8 0e3b 43ca bd3a fd2d 873c 1840 bcba
00000020: b614 0cba 5698 86bb 1d52 86bb 44c3 21bc
00000030: 6b90 e83a 0df1 13ba c8a5 653b 8aa9 7a3c
00000040: c28f 873b 8292 133b 8dcc 1a3b a371 943c
00000050: 97d1 923b 66de 483b 6310 52b9 6d38 0fba
00000060: dd7d bebb 5134 85ba cab7 69bb ecb7 b8bb
00000070: 26e4 0dbc 68c7 0f3b 5925 a2bb 2ca5 bd3a
00000080: 7e30 f3bb 03d7 a6bb c303 0abb 19f4 10bb
00000090: 029e 90bb 653a 8fbb 1a8e 8fb9 1f15 003a
000000a0: a095 e2bb 3260 e13a 0f99 3c3a 30e8 cd3b
000000b0: 7c32 c1b7 63d2 143c af88 ffba 4aae 3eba
000000c0: 6b16 9cba 9a8f 94ba

sequential/dense_2/BiasAdd/ReadVariableOp f4 [10]
0.004622605 -0.0073450445 0.0019091732 0.0023924785 0.004398019 -0.004978239 0.00020978632 0.0057601403
-0.0036206439 -0.0011634536
00000000: 3979 973b b3ae f0bb 393d fa3a 21cb 1c3b
00000010: 421d 903b 7f20 a3bb 16fa 5b39 8fbf bc3b
00000020: 5348 6dbb 067f 98ba

sequential/dense_3/BiasAdd/ReadVariableOp f4 [2]
-0.0031536017 0.0021779193
00000000: a8ac 4ebb 6cbb 0e3b

sequential/dense/BiasAdd/ReadVariableOp f4 [100]
-0.0024217307 0.0026214821 0.004174089 -0.004666915 -0.0061464594 0.0018825157 0.0038633686 -0.0034678834
0.0021005168 0.0041894875 -0.0010213448 -0.0030141072 0.0062399283 0.013957707 -0.0069830483 0.003498614
0.0010088544 -0.0011446595 -0.0022822558 0.0068782805 -0.0031259384 -0.0043580728 -0.003109629 -0.010177061
0.0030351058 0.016188055 -0.00461138 0.0003875634 0.0013080192 -0.007118935 -0.00013175298 -0.004832091
-6.0705074e-06 -0.002051077 0.0013200706 0.00524276 -0.008961588 -0.005256645 0.0010894252 0.01445637
-0.0037778567 -0.0007361813 0.0020488747 0.0042223334 -0.00087382726 -0.0016396441 -0.010379812 0.0049508573
-0.0024039003 -0.00044148965 0.0030488458 -0.0055749416 0.0012922304 0.0035694428 -0.0056875297 0.0057907677
0.005516977 -0.001023525 0.005427512 -0.014450969 -0.0012539468 -0.0030461003 0.0095043415 -0.0016781752
0.0036207417 -0.007891537 0.0005334306 -0.0025820332 0.0044874903 -0.0031785148 0.02017108 -0.00013140705
0.011784629 -0.001734146 -0.006181415 0.0053732945 -0.005059215 -0.015184235 0.0005927978 0.0048995055
-0.0037756194 0.004595478 -0.0019096076 -0.0057617133 -0.006700666 0.00072933786 0.009835328 0.006121105
5.326882e-05 0.002855225 -0.008707508 -0.0015290182 0.0023691691 0.00087879767 0.009112742 0.0030036115
-0.0022861056 0.00056184357 -0.013630368 -0.0018804047
00000000: e6b5 1ebb 2ccd 2b3b ccc6 883b ecec 98bb
00000010: 3d68 c9bb bfbe f63a 9230 7d3b 6e45 63bb
00000020: d3a8 093b f847 893b a5de 85ba 5488 45bb
00000030: 5078 cc3b deae 643c 0ed2 e4bb 0149 653b
00000040: 893b 843a 6608 96ba e691 15bb 3363 e13b
00000050: 8bdc 4cbb 2ace 8ebb ebca 4bbb b0bd 26bc
00000060: a0e8 463b d09c 843c 0f1b 97bb e131 cb39
00000070: d771 ab3a f545 e9bb 2c27 0ab9 8456 9ebb
00000080: 43b1 cbb6 5d6b 06bb 3806 ad3a 75cb ab3b
00000090: a0d3 12bc ef3f acbb 0bcb 8e3a 69da 6c3c
000000a0: eb95 77bb 4afc 40ba 6a46 063b 805b 8a3b
000000b0: 8e11 65ba 54e9 d6ba 1610 2abc cd3a a23b
000000c0: c18a 1dbb bd77 e7b9 25cf 473b 00ae b6bb
000000d0: 0f60 a93a 50ed 693b 755e babb 7bc0 bd3b
000000e0: c2c7 b43b cd27 86ba 45d9 b13b c2c3 6cbc
000000f0: 795b a4ba 15a1 47bb 19b8 1b3c 37f6 dbba
00000100: f749 6d3b 814b 01bc ecd5 0b3a 5437 29bb
00000110: cc0b 933b a14e 50bb d23d a53c 50ca 09b9
00000120: 5114 413c 494c e3ba 788d cabb 7612 b03b
00000130: c5c7 a5bb 4cc7 78bc fd65 1b3a 088c a03b
00000140: 6270 77bb aa95 963b cc4b faba c1cc bcbb
00000150: 4391 dbbb 0931 3f3a 5b24 213c 8d93 c83b
00000160: f66c 5f38 ba1e 3b3b f0a9 0ebc 5669 c8ba
00000170: 1044 1b3b 1d5f 663a 9c4d 153c 3dd8 443b
00000180: 7dd2 15bb af48 133a e851 5fbc e977 f6ba

sequential/conv1d/BiasAdd/ReadVariableOp f4 [24]
0.016226282 0.0068517607 0.0047527496 0.005120956 -0.0043238406 0.004571039 -0.011840863 0.028953766
0.005617257 0.030933619 0.012372901 -0.024264174 0.003964878 0.011523956 0.008244223 0.0151382005
-0.004826577 0.017953204 0.005003435 0.0021726247 0.016310185 0.01355944 0.00047741344 0.00082853757
00000000: fbec 843c bc84 e03b f4bc 9b3b b1cd a73b
00000010: 01af 8dbb a8c8 953b 2e00 42bc 7330 ed3c
00000020: f810 b83b 8068 fd3c b5b7 4a3c a9c5 c6bc
00000030: cfeb 813b face 3c3c c712 073c 3706 783c
00000040: 4328 9ebb 9912 933c dbf3 a33b 9862 0e3b
00000050: f09c 853c 6a28 5e3c 594d fa39 3732 593a

sequential/conv1d_1/BiasAdd/ReadVariableOp f4 [36]
-0.00037364088 0.002429786 0.0027758898 0.009504045 0.009096847 -0.0056707957 0.011210294 0.010145557
0.026768986 -0.0019174197 0.012230887 0.00964589 0.0041838204 0.0074846996 0.0045164707 0.00460697
-0.003061339 -0.021057239 -0.0075469543 -0.0016999382 -0.0013916917 0.0012103323 0.009287544 4.3418724e-05
-0.003838462 -0.003417057 -0.013432771 -0.0034715645 -0.0041976986 0.024417883 -0.004805252 0.008899737
-0.005426795 -9.363727e-05 0.0070597436 0.023289729
00000000: 3be5 c3b9 0b3d 1f3b b4eb 353b dbb6 1b3c
00000010: f10a 153c 15d2 b9bb 62ab 373c 8d39 263c
00000020: a24a db3c ee51 fbba 0f64 483c cc09 1e3c
00000030: 6e18 893b 3642 f53b e7fe 933b 11f6 963b
00000040: bfa0 48bb 3b80 acbc 714c f7bb 76d0 deba
00000050: 6d69 b6ba 03a4 9e3a c82a 183c 801c 3638
00000060: b58e 7bbb b4f0 5fbb 2015 5cbc 3083 63bb
00000070: d98c 89bb 0308 c83c 6075 9dbb 34d0 113c
00000080: 42d3 b1bb 205f c4b8 6c55 e73b 1aca be3c

sequential/conv1d_2/BiasAdd/ReadVariableOp f4 [48]
0.018839544 -0.003133369 -0.00023692496 0.021595428 -0.0067437985 0.013478438 -0.007465453 0.0005136775
-0.0043463507 0.0022143107 -0.0018211001 0.0030558049 -0.0057056197 -0.0038403107 0.026146308 0.00045436513
0.0021477505 -0.0014618628 0.0013926781 0.0010526956 -0.010433504 0.013855286 0.0029864593 -0.0016709347
-0.002678493 0.013327949 0.020205472 0.006548074 0.009938379 -0.024572764 0.014727311 -0.00012886674
-0.007580972 -0.0047369297 0.014835086 -0.0014205629 0.000644644 0.0021748734 -0.0029861154 -0.012342479
0.00058185984 0.0036447316 -0.016191745 0.0029146518 0.024819676 0.00064103474 0.008157257 0.01708038
00000000: 6355 9a3c 3559 4dbb 0f6f 78b9 e5e8 b03c
00000010: 15fb dcbb abd4 5c3c c2a0 f4bb 50a8 063a
00000020: d56b 8ebb f81d 113b fbb1 eeba e643 483b
00000030: 35f6 babb b9ad 7bbb c830 d63c db37 ee39
00000040: 46c1 0c3b fa9b bfba 868a b63a 9afa 893a
00000050: 4af1 2abc 4801 633c 79b8 433b 4403 dbba
00000060: a889 2fbb 785d 5a3c f285 a53c 3a91 d63b
00000070: 95d4 223c d24c c9bc d24a 713c 6720 07b9
00000080: cd69 f8bb 3f38 9bbb dc0e 733c 2e32 baba
00000090: 54fd 283a 5288 0e3b b4b2 43bb 1c38 4abc
000000a0: f487 183a 73dc 6e3b 8da4 84bc be03 3f3b
000000b0: a252 cb3c 1d0b 283a 04a6 053c 27ec 8b3c

sequential/conv1d_3/BiasAdd/ReadVariableOp f4 [64]
0.000653597 -0.0028140943 0.02213648 -0.002041433 0.00039186806 -0.005371785 -0.001703752 -0.0030673563
0.0020769013 -0.0020427234 -0.007277167 0.0038804482 8.843236e-05 0.017253563 -0.0012699746 -0.0029031776
0.025510067 0.00941006 0.004385997 0.006547961 0.004791376 0.013439024 0.017750993 -0.0069677746
-0.0055994163 -0.0022618417 0.002065475 0.0001275176 0.02202656 -0.011130073 0.0015215373 -0.0026986725
0.0062382766 -0.002841199 0.013573687 -0.0011618808 0.0038249588 -0.0040753274 -0.0032449018 0.004164497
-0.008953994 -0.011259254 1.8706682e-05 0.0056300657 -0.008417983 0.0042898697 0.01415447 0.008022203
0.012604368 0.0022995013 0.005198022 0.0068652374 0.005364881 -0.0057949303 0.012607689 -0.009163574
-0.0054130764 0.010783939 0.01954204 -0.011068469 0.0013031284 -0.002231781 -0.0032246432 -0.0044441265
00000000: 2756 2b3a ab6c 38bb 9057 b53c 90c9 05bb
00000010: a473 cd39 cc05 b0bb 6e50 dfba b305 49bb
00000020: 9f1c 083b 36df 05bb 4d75 eebb 1e4f 7e3b
00000030: c374 b938 5857 8d3c 4775 a6ba 3d43 3ebb
00000040: 7dfa d03c a72c 1a3c 69b8 8f3b 4790 d63b
00000050: fa00 9d3b 5a2f 5c3c 886a 913c ee51 e4bb
00000060: 4f7b b7bb 683b 14bb ec5c 073b 3fb6 0539
00000070: 0b71 b43c e95a 36bc 526e c73a 36dc 30bb
00000080: 756a cc3b 6933 3abb 2b64 5e3c 404a 98ba
00000090: 29ac 7a3b 538a 85bb 6ba8 54bb 5576 883b
000000a0: c6b3 12bc bc78 38bc 4bec 9c37 6a7c b83b
000000b0: 94eb 09bc 0992 8c3b 26e8 673c 8f6f 033c
000000c0: 8d82 4e3c 3bb3 163b 2b54 aa3b c9f5 e03b
000000d0: e2cb af3b 66e3 bdbb 7b90 4e3c d122 16bc
000000e0: 2d60 b1bb 1eaf 303c a116 a03c 8658 35bc
000000f0: bccd aa3a 1243 12bb 8954 53bb 09a0 91bb

sequential/conv1d_4/BiasAdd/ReadVariableOp f4 [64]
0.0029444355 0.002653613 0.025728466 0.003095105 0.0009047712 0.0018502215 0.0052607865 0.005978241
-0.017768517 0.012699502 0.0022245646 -0.0034220223 -0.0001363492 -0.018535366 0.0050880853 0.012953394
0.00578278 0.0041295066 -0.0008101481 -0.00844582 0.0043959096 0.002046498 0.024779953 0.0007198365
0.018269356 0.0036819503 -0.00045364694 0.00046943963 0.004093945 0.008862625 0.023859741 0.00075702416
-0.0039763656 -0.00084947573 0.00182296 -0.00210512 0.004968628 0.01225516 -0.002321838 0.0043514147
0.0 0.013764793 0.009867473 0.0007031725 0.013076872 -0.0044225478 0.00010760843 -0.014080503
0.014126178 0.0032291682 0.026358128 0.0018762174 0.025992317 0.0073912223 -0.005044242 0.00854317
-0.0054590935 0.009114076 -0.0009246945 0.005315859 -0.015681231 0.0056434777 -0.0040649865 0.011435686
00000000: 6ef7 403b 3de8 2d3b 81c4 d23c 3fd7 4a3b
00000010: 2b2e 6d3a 2283 f23a ad62 ac3b 1fe5 c33b
00000020: 488f 91bc 9211 503c 00ca 113b 0244 60bb
00000030: f6f8 0eb9 7bd7 97bc f4b9 a63b 793a 543c
00000040: 797d bd3b d050 873b 1e60 54ba 5660 0abc
00000050: 900b 903b 8a1e 063b 54ff ca3c 69b3 3c3a
00000060: 9ea9 953c e04c 713b 76d7 edb9 1f1f f639
00000070: 8026 863b 8b34 113c 8175 c33c 0873 463a
00000080: 2c4c 82bb 5aaf 5eba 63f0 ee3a 0ef6 09bb
00000090: dfcf a23b dec9 483c fa29 18bb 5096 8e3b
000000a0: 0000 0000 ba85 613c 2eab 213c 1c55 383a
000000b0: 6040 563c 05eb 90bb d6ab e138 e9b1 66bc
000000c0: 7c71 673c 74a0 533b 00ed d73c 69eb f53a
000000d0: d7ed d43c 1132 f23b 2b4a a5bb a7f8 0b3c
000000e0: 32e2 b2bb 3553 153c 3367 72ba a830 ae3b
000000f0: ed75 80bc ecec b83b 9433 85bb be5c 3b3c

sequential/conv1d/Conv1D f4 [24, 1, 10, 1]
0.05244007 -0.09372106 -0.14466758 0.06711527 -0.11454736 0.08392888 -0.0708897 0.10074429
0.08532496 0.007044307 -0.11713788 0.07996365 -0.024134643 -0.14592983 -7.250448e-05 -0.0076073436
-0.046202477 -0.011912459 -0.05897997 0.10975704 -0.13676332 0.06817917 0.0056811683 0.06795009
-0.049650274 0.010607446 -0.05592124 -0.0929969 0.12955816 0.08508259 -0.12602982 0.08703046
-0.13010457 -0.006598463 0.12521365 0.09259495 -0.09550244 0.041705936 -0.084153704 -0.13629171
0.122059666 0.07898071 0.0035605535 -0.12247948 0.0037106224 0.08864073 0.11368433 0.12819931
0.017153196 0.070448235 -0.1266178 -0.062974855 0.080889575 -0.09865486 0.025437385 0.09729601
0.09332807 -0.045790765 -0.0053117187 -0.06708494 0.028429946 -0.057203986 -0.033433 -0.080115914
-0.09826845 -0.07719903 0.0005174291 0.081592895 0.14789307 0.07956763 0.026256228 -0.04695418
0.019024502 0.03297341 0.027752278 -0.07791515 -0.10597015 -0.02388303 -0.040942702 0.17643188
-0.12295485 0.060727034 0.09042905 -0.10670558 0.148606 0.14336465 0.004900669 -0.10690713
0.13601777 0.027760306 0.08244907 -0.10011811 0.0014176009 0.030116025 -0.026169976 -0.10045573
-0.101092145 -0.04565045 0.03070499 0.16979267 0.017166607 -0.082063414 -0.029952379 0.06722041
-0.110680774 -0.047018766 0.010179146 0.082154 0.15382937 -0.040298786 0.10946027 -0.05512072
-0.08988911 0.011748288 0.02560614 0.11236141 -0.14865455 0.1384781 0.07605732 0.063918695
0.10284622 0.06093253 0.0134705 0.1372517 0.11861943 0.01264739 -0.08969801 0.008093666
0.118428744 -0.07954291 -0.1200988 0.11093599 0.028911814 -0.12352445 -0.13920994 0.03183265
-0.05089215 0.038744576 0.082938686 0.05865472 -0.001612246 0.09787706 0.021687096 0.018554969
-0.08581336 -0.1389844 -0.05074344 0.12500715 -0.0005065587 -0.124942586 0.122199826 0.052643213
-0.09626971 -0.11152007 -0.045050193 -0.024015423 0.070055075 -0.053539634 -0.06005829 0.1114424
-0.07739498 -0.0130407 -0.14226115 0.12733422 0.14103143 0.062991254 -0.09131978 0.050382685
0.1515426 0.018118085 0.12648469 0.095747925 0.13563782 -0.034911793 -0.029655386 -0.09653141
0.15963493 -0.066279 0.06567983 -0.08207269 -0.028673017 0.11664856 0.1542865 0.08146473
0.084184326 0.15519941 -0.00046798354 0.024932386 0.12916903 -0.09357474 -0.14917332 0.109893814
-0.020194653 0.103416316 0.12319913 -0.13271628 0.1244886 -0.05184613 -0.063218884 0.1544598
-0.15410745 0.053798813 -0.13863225 0.12688796 -0.14085047 -0.035816807 -0.008816256 0.05791527
0.11891417 0.13437727 -0.05187135 0.14891775 -0.036882374 -0.14455786 0.14311843 -0.1280464
-0.08832236 0.13231194 -0.041394923 0.0082349405 -0.04365143 -0.14169095 0.09662443 -0.022272838
-0.1258338 0.10431543 -0.06405877 0.056437995 0.059579607 0.15828066 0.041485015 0.10018567
-0.08268966 -0.00915433 0.033151507 0.048479803 0.019687233 0.12609057 -0.019573057 0.0999637
00000000: 66cb 563d d4f0 bfbd bd23 14be bb73 893d
00000010: ce97 eabd e8e2 ab3d 9e2e 91bd 0653 ce3d
00000020: dabe ae3d eed3 e63b fce5 efbd fbc3 a33d
00000030: 04b6 c5bc a16e 15be 8c0d 98b8 0647 f9bb
00000040: cf3e 3dbd 792c 43bc fb94 71bd 4dc8 e03d
00000050: af0b 0cbe 85a1 8b3d 1829 ba3b 6b29 8b3d
00000060: 165e 4bbd daca 2d3c ac0d 65bd 2975 bebd
00000070: e5aa 043e c83f ae3d f60d 01be 073d b23d
00000080: 223a 05be eb37 d8bb 0238 003e 6ca2 bd3d
00000090: c996 c3bd d8d3 2a3d c758 acbd 0e90 0bbe
000000a0: 6bfa f93d a3c0 a13d 2d58 693b 86d6 fabd
000000b0: ea2d 733b 4589 b53d 54d3 e83d ae46 033e
000000c0: dc84 8c3c 2a47 903d 19a8 01be f6f8 80bd
000000d0: 6fa9 a53d 8f0b cabd 1062 d03c 2143 c73d
000000e0: ca22 bf3d 198f 3bbd ed0d aebb d463 89bd
000000f0: ebe5 e83c ba4e 6abd 0bf1 08bd d013 a4bd
00000100: f840 c9bd 861a 9ebd 14a4 073a 2d1a a73d
00000110: 4871 173e 5bf4 a23d 4d17 d73c 0753 40bd
00000120: 46d9 9b3c 200f 073d bf58 e33c fa91 9fbd
00000130: e106 d9bd 58a6 c3bc 89b3 27bd 8faa 343e
00000140: c1cf fbbd e9bc 783d de32 b93d 7588 dabd
00000150: 2c2c 183e 2fce 123e cb95 a03b 20f2 dabd
00000160: 3e48 0b3e 9569 e33c 0fdb a83d b90a cdbd
00000170: cbce b93a e2b5 f63c 6b62 d6bc bcbb cdbd
00000180: 6609 cfbd f7fb 3abd 0889 fb3c 21de 2d3e
00000190: fca0 8c3c dd10 a8bd b15e f5bc dbaa 893d
000001a0: 9aac e2bd c096 40bd 6fc6 263c 5b40 a83d
000001b0: 7285 1d3e 5710 25bd b52c e03d 44c6 61bd
000001c0: c817 b8bd e47b 403c f8c3 d13c bd1d e63d
000001d0: e638 18be 34cd 0d3e f1c3 9b3d cee7 823d
000001e0: 0aa1 d23d 6394 793d 5fb3 5c3c b68b 0c3e
000001f0: beee f23d 0037 4f3c 97b3 b7bd 4c9b 043c
00000200: c58a f23d 65e7 a2bd 5cf6 f5bd 6932 e33d
00000210: 78d8 ec3c 63fa fcbd 0d8d 0ebe f462 023d
00000220: 4974 50bd a2b2 1e3d c2db a93d ef3f 703d
00000230: 0052 d3ba c573 c83d 23a9 b13c 9700 983c
00000240: eabe afbd ed51 0ebe 5ad8 4fbd e001 003e
00000250: 94ca 04ba e6e1 ffbd e743 fa3d 69a0 573d
00000260: 0e29 c5bd a264 e4bd 8d86 38bd febb c4bc
00000270: 0979 8f3d 604c 5bbd aeff 75bd ea3b e43d
00000280: 4281 9ebd a9a8 55bc e8ac 11be e763 023e
00000290: 8b6a 103e 8f01 813d dd05 bbbd 135e 4e3d
000002a0: fc2d 1b3e 616c 943c 3485 013e 7d17 c43d
000002b0: a4e4 0a3e abff 0ebd daef f2bc 43b2 c5bd
000002c0: 5777 233e 49bd 87bd 2683 863d ba15 a8bd
000002d0: ade3 eabc 71e5 ee3d 48fd 1d3e fbd6 a63d
000002e0: d568 ac3d 98ec 1e3e b05b f5b9 013f cc3c
000002f0: e344 043e 1da4 bfbd e4c0 18be 0210 e13d
00000300: 426f a5bc efcb d33d d34f fc3d c7e6 07be
00000310: e1f3 fe3d 9c5c 54bd e778 81bd b62a 1e3e
00000320: 58ce 1dbe 255c 5c3d 9df5 0dbe ebee 013e
00000330: 1b3b 10be a5b4 12bd 0f72 10bc 9038 6d3d
00000340: 4689 f33d 329a 093e 0d77 54bd e57d 183e
00000350: f911 17bd fa06 14be a38d 123e 981e 03be
00000360: 5ae2 b4bd c87c 073e b98d 29bd d8eb 063c
00000370: d8cb 32bd 6f17 11be 07e3 c53d 8775 b6bc
00000380: 93da 00be 54a3 d53d 3f31 83bd 872b 673d
00000390: bf09 743d 5314 223e 31ec 293d 252e cd3d
000003a0: 3259 a9bd 0bfc 15bc e0c9 073d c292 463d
000003b0: 1f47 a13c e31d 013e ad57 a0bc c5b9 cc3d

sequential/conv1d_1/Conv1D i1 [36, 1, 8, 24]
26 100 -44 -82 41 -34 77 -77
42 85 25 -42 11 -104 -68 -113
42 44 -87 -43 -44 -57 61 -5
-67 28 29 22 -44 44 -103 -29
-33 109 80 -88 12 -15 80 -13
-8 -28 -89 -109 -38 -90 72 -114
52 -67 -115 41 -39 -21 -77 70
84 8 -118 -3 53 -16 -29 -74
77 10 46 -69 0 -78 3 99
-109 108 35 26 -19 60 -26 -108
101 -5 72 52 -88 -39 62 -46
82 -21 -7 23 53 -127 -61 32
9 -7 -110 52 -107 -38 -67 51
97 19 6 88 -107 48 94 26
78 89 -122 102 -88 23 -116 -20
33 -79 -29 -68 -113 10 111 108
-55 -103 15 114 -8 -15 -72 -59
17 66 -60 50 -45 39 53 -115
75 96 88 -8 -41 -105 -20 39
41 83 40 19 -105 66 -107 -4
-8 -102 -54 2 -64 -42 41 104
-34 -99 -78 18 90 37 -112 9
50 -75 46 -120 -13 109 8 36
70 28 -11 63 -30 -92 -109 113
-8 -28 60 -19 23 100 -16 22
-47 22 57 -62 17 -20 85 94
-54 80 -86 -68 -62 87 39 -15
97 -24 -96 -55 56 15 -37 60
-14 -26 46 112 -51 38 -8 5
104 38 105 -54 -68 -51 -106 -38
-23 80 -8 -66 -97 -33 -94 94
-14 -79 -114 56 -87 -59 -75 -16
00000000: 1a64 d4ae 29de 4db3 2a55 19d6 0b98 bc8f
00000010: 2a2c a9d5 d4c7 3dfb bd1c 1d16 d42c 99e3
00000020: df6d 50a8 0cf1 50f3 f8e4 a793 daa6 488e
00000030: 34bd 8d29 d9eb b346 5408 8afd 35f0 e3b6
00000040: 4d0a 2ebb 00b2 0363 936c 231a ed3c e694
00000050: 65fb 4834 a8d9 3ed2 52eb f917 3581 c320
00000060: 09f9 9234 95da bd33 6113 0658 9530 5e1a
00000070: 4e59 8666 a817 8cec 21b1 e3bc 8f0a 6f6c
00000080: c999 0f72 f8f1 b8c5 1142 c432 d327 358d
00000090: 4b60 58f8 d797 ec27 2953 2813 9742 95fc
000000a0: f89a ca02 c0d6 2968 de9d b212 5a25 9009
000000b0: 32b5 2e88 f36d 0824 461c f53f e2a4 9371
000000c0: f8e4 3ced 1764 f016 d116 39c2 11ec 555e
000000d0: ca50 aabc c257 27f1 61e8 a0c9 380f db3c
000000e0: f2e6 2e70 cd26 f805 6826 69ca bccd 96da
000000f0: e950 f8be 9fdf a25e f2b1 8e38 a9c5 b5f0

sequential/conv1d_2/Conv1D i1 [48, 1, 4, 36]
-8 -87 -49 -56 -64 -103 95 -45
23 -11 -18 21 -13 -40 -25 0
-83 120 6 36 -74 31 108 59
73 -27 -34 -58 103 32 -72 -12
-80 85 88 -25 61 48 47 22
92 112 -68 -80 127 -23 106 47
90 -126 54 113 80 -98 84 -63
-75 116 34 85 -85 -52 -47 -53
-15 27 -105 -9 8 66 105 -11
-117 -36 -39 -3 120 98 36 117
119 126 -47 -19 -98 24 -103 34
18 32 75 -101 -75 40 54 69
45 -78 -82 -58 83 -79 -37 -19
106 20 70 12 -50 -29 -58 -44
-32 12 -68 -61 14 -91 -7 -57
45 -71 18 117 21 -93 -84 111
60 -21 -64 3 105 -15 -21 -79
-15 39 -15 -98 -46 -104 -112 -67
-53 8 -94 -112 -39 -8 -74 44
58 -26 -94 17 59 1 28 35
38 19 27 58 -94 -59 64 96
-62 -61 60 -115 23 68 -83 -69
-116 17 -91 -54 35 -69 35 19
-79 -34 -61 71 67 -97 103 77
53 127 11 -53 -14 82 52 81
64 -60 -30 -108 -119 60 117 -103
115 -108 43 -106 -119 -62 71 -68
-98 -87 -19 -3 15 -6 -58 -4
32 -94 119 58 -34 22 100 -22
119 83 -24 22 -73 -17 -64 -4
93 -38 -58 65 -58 -50 109 -38
-109 119 -87 51 -80 -100 -54 87
00000000: f8a9 cfc8 c099 5fd3 17f5 ee15 f3d8 e700
00000010: ad78 0624 b61f 6c3b 49e5 dec6 6720 b8f4
00000020: b055 58e7 3d30 2f16 5c70 bcb0 7fe9 6a2f
00000030: 5a82 3671 509e 54c1 b574 2255 abcc d1cb
00000040: f11b 97f7 0842 69f5 8bdc d9fd 7862 2475
00000050: 777e d1ed 9e18 9922 1220 4b9b b528 3645
00000060: 2db2 aec6 53b1 dbed 6a14 460c cee3 c6d4
00000070: e00c bcc3 0ea5 f9c7 2db9 1275 15a3 ac6f
00000080: 3ceb c003 69f1 ebb1 f127 f19e d298 90bd
00000090: cb08 a290 d9f8 b62c 3ae6 a211 3b01 1c23
000000a0: 2613 1b3a a2c5 4060 c2c3 3c8d 1744 adbb
000000b0: 8c11 a5ca 23bb 2313 b1de c347 439f 674d
000000c0: 357f 0bcb f252 3451 40c4 e294 893c 7599
000000d0: 7394 2b96 89c2 47bc 9ea9 edfd 0ffa c6fc
000000e0: 20a2 773a de16 64ea 7753 e816 b7ef c0fc
000000f0: 5dda c641 c6ce 6dda 9377 a933 b09c ca57

sequential/conv1d_3/Conv1D i1 [64, 1, 3, 48]
-89 77 17 -116 -78 -3 65 -93
25 14 97 22 100 -85 58 -127
21 -38 5 15 100 25 -11 77
40 23 -97 73 -58 91 -2 -38
-7 -2 111 82 -27 -88 43 -21
-39 -112 -94 -53 -65 92 110 52
-86 -35 -72 -34 119 -14 -38 -9
63 29 97 -59 107 -126 107 -3
63 6 -35 54 -82 83 78 -79
-15 -5 8 -75 -11 126 -106 110
81 59 -73 7 40 -62 40 88
96 -118 -47 -103 -45 -77 114 -44
-27 59 107 2 -72 -103 -8 -35
110 -16 96 -73 -32 -37 -115 -80
67 -16 -119 84 -127 -15 120 67
95 33 99 104 -3 -22 51 105
22 16 -108 -41 22 78 -102 -17
-118 108 94 -100 121 63 34 -56
45 93 104 90 92 92 65 85
45 37 68 -13 -19 101 32 -49
58 -60 -6 -107 -21 -50 75 91
-4 -9 121 4 -106 113 -99 94
-2 -6 81 -56 63 -54 -65 68
36 -14 -91 106 65 13 -13 -18
-30 24 -90 -91 52 -72 91 -41
35 11 -112 84 -75 -16 -107 84
83 -56 77 -12 56 -54 97 83
-18 -8 127 -86 82 -14 22 -24
59 17 -61 -27 12 -70 -61 -17
40 77 28 33 -62 -35 -20 47
-66 -35 -107 14 77 -16 79 -78
43 106 40 -29 -27 31 -50 46
00000000: a74d 118c b2fd 41a3 190e 6116 64ab 3a81
00000010: 15da 050f 6419 f54d 2817 9f49 c65b feda
00000020: f9fe 6f52 e5a8 2beb d990 a2cb bf5c 6e34
00000030: aadd b8de 77f2 daf7 3f1d 61c5 6b82 6bfd
00000040: 3f06 dd36 ae53 4eb1 f1fb 08b5 f57e 966e
00000050: 513b b707 28c2 2858 608a d199 d3b3 72d4
00000060: e53b 6b02 b899 f8dd 6ef0 60b7 e0db 8db0
00000070: 43f0 8954 81f1 7843 5f21 6368 fdea 3369
00000080: 1610 94d7 164e 9aef 8a6c 5e9c 793f 22c8
00000090: 2d5d 685a 5c5c 4155 2d25 44f3 ed65 20cf
000000a0: 3ac4 fa95 ebce 4b5b fcf7 7904 9671 9d5e
000000b0: fefa 51c8 3fca bf44 24f2 a56a 410d f3ee
000000c0: e218 a6a5 34b8 5bd7 230b 9054 b5f0 9554
000000d0: 53c8 4df4 38ca 6153 eef8 7faa 52f2 16e8
000000e0: 3b11 c3e5 0cba c3ef 284d 1c21 c2dd ec2f
000000f0: bedd 950e 4df0 4fb2 2b6a 28e3 e51f ce2e

sequential/conv1d_4/Conv1D i1 [64, 1, 3, 64]
112 52 40 37 117 -30 52 -4
73 11 110 -108 99 -118 33 -6
-104 -4 65 -36 55 -14 -36 -90
-88 121 87 -34 -21 -76 40 85
81 48 84 -39 104 54 53 -44
-9 7 -71 -77 -73 127 108 -53
23 97 28 -55 121 -56 -97 17
-39 37 -81 97 56 48 -67 -22
70 -30 -10 66 74 75 -66 12
4 -118 -109 42 87 47 117 12
4 -116 -106 106 -104 -89 36 40
-103 8 -73 31 -45 -104 -7 -109
72 102 74 15 50 -67 87 102
39 82 -98 13 49 -109 -5 54
33 43 39 -121 -1 78 -71 -100
98 -45 102 77 6 -52 -10 -48
40 -91 -17 21 -9 -116 -77 -13
61 6 -25 -44 -54 -106 -81 -2
-44 54 38 94 -24 -4 -73 0
13 38 120 111 106 27 -92 60
64 116 73 105 -6 79 52 -42
34 -114 76 -104 -105 41 -119 -42
-55 28 -55 56 -108 64 -11 -36
-31 30 -106 67 -89 49 78 -48
-48 -114 -103 69 84 -97 -62 -41
30 49 -117 45 -86 117 13 -30
18 121 35 102 -49 -80 60 49
-17 -39 33 82 102 -101 -84 61
41 -47 5 -29 115 40 -55 -8
73 100 -120 81 -53 -5 -53 -10
87 -96 -47 20 118 -124 -2 70
-89 -8 -38 -99 -26 120 113 77
00000000: 7034 2825 75e2 34fc 490b 6e94 638a 21fa
00000010: 98fc 41dc 37f2 dca6 a879 57de ebb4 2855
00000020: 5130 54d9 6836 35d4 f707 b9b3 b77f 6ccb
00000030: 1761 1cc9 79c8 9f11 d925 af61 3830 bdea
00000040: 46e2 f642 4a4b be0c 048a 932a 572f 750c
00000050: 048c 966a 98a7 2428 9908 b71f d398 f993
00000060: 4866 4a0f 32bd 5766 2752 9e0d 3193 fb36
00000070: 212b 2787 ff4e b99c 62d3 664d 06cc f6d0
00000080: 28a5 ef15 f78c b3f3 3d06 e7d4 ca96 affe
00000090: d436 265e e8fc b700 0d26 786f 6a1b a43c
000000a0: 4074 4969 fa4f 34d6 228e 4c98 9729 89d6
000000b0: c91c c938 9440 f5dc e11e 9643 a731 4ed0
000000c0: d08e 9945 549f c2d7 1e31 8b2d aa75 0de2
000000d0: 1279 2366 cfb0 3c31 efd9 2152 669b ac3d
000000e0: 29d1 05e3 7328 c9f8 4964 8851 cbfb cbf6
000000f0: 57a0 d114 7684 fe46 a7f8 da9d e678 714d

sequential/dense/MatMul i1 [100, 1792] scale=0.0008618311 zero_point=0
-0.024131272 -0.0025854935 0.011203805 0.04567705 0.04395339 -0.034473244 0.041367896 -0.029302258
-0.028440427 -0.05429536 -0.03102592 0.0008618311 -0.02240761 0.03964423 0.024131272 -0.01551296
0.036196906 -0.019822115 0.029302258 -0.025854934 -0.03964423 0.0387824 -0.006032818 -0.046538882
-0.032749582 -0.033611413 0.04567705 0.018098453 0.030164089 -0.066360995 -0.035335075 0.046538882
-0.042229727 -0.046538882 -0.0525717 0.04567705 -0.05429536 0.04567705 0.018098453 -0.0008618311
-0.019822115 0.005170987 -0.016374791 0.018960284 0.013789298 -0.024131272 -0.035335075 -0.03102592
0.03102592 0.0034473245 0.025854934 0.005170987 -0.033611413 0.046538882 0.0017236623 -0.04050606
-0.0525717 0.034473244 0.023269441 -0.041367896 0.033611413 -0.042229727 0.020683948 -0.024131272
0.04395339 -0.03792057 -0.020683948 0.037058737 0.050848037 -0.049124375 0.024131272 -0.0017236623
-0.0017236623 0.0008618311 0.056880854 -0.04481522 0.051709868 0.0 0.056019023 0.03792057
0.049124375 0.055157192 -0.010341974 0.04395339 -0.024993103 0.019822115 -0.013789298 0.041367896
0.04050606 -0.010341974 0.010341974 -0.018960284 -0.049124375 -0.016374791 0.03964423 0.03964423
0.012065636 -0.01551296 -0.0017236623 0.030164089 0.00775648 0.006894649 -0.0034473245 0.014651129
-0.049124375 0.014651129 0.037058737 -0.037058737 -0.020683948 0.012065636 0.0025854935 -0.018960284
0.033611413 -0.051709868 0.02240761 0.017236622 0.025854934 0.008618311 -0.050848037 -0.00775648
0.04481522 -0.01551296 0.048262544 -0.026716765 0.010341974 -0.018960284 0.035335075 -0.033611413
0.016374791 -0.034473244 -0.018098453 -0.02240761 -0.014651129 0.026716765 -0.006894649 -0.037058737
-0.049986206 -0.027578596 0.051709868 0.008618311 0.04567705 -0.030164089 -0.050848037 0.034473244
-0.03792057 0.066360995 -0.024131272 -0.035335075 -0.0387824 0.016374791 0.00775648 0.011203805
0.0043091555 -0.023269441 -0.00775648 0.04567705 -0.014651129 -0.041367896 0.0387824 -0.0034473245
-0.010341974 0.046538882 -0.005170987 -0.04481522 -0.027578596 -0.0034473245 0.03188775 0.020683948
-0.034473244 0.024131272 -0.026716765 -0.034473244 0.030164089 0.017236622 0.019822115 0.021545779
0.060328178 -0.03964423 -0.051709868 -0.041367896 -0.057742685 -0.011203805 0.014651129 0.036196906
0.051709868 0.050848037 0.0008618311 0.028440427 -0.046538882 -0.009480142 0.037058737 -0.029302258
-0.019822115 0.048262544 0.0043091555 0.04567705 0.03964423 0.019822115 -0.036196906 -0.05429536
-0.017236622 0.006032818 -0.021545779 -0.025854934 -0.035335075 0.023269441 -0.03188775 -0.020683948
0.006032818 -0.0034473245 -0.035335075 0.014651129 -0.00775648 -0.048262544 -0.030164089 0.04395339
0.060328178 -0.023269441 -0.04395339 -0.024993103 0.041367896 -0.029302258 -0.012927467 -0.021545779
-0.01551296 0.017236622 -0.011203805 0.009480142 0.020683948 0.028440427 -0.013789298 -0.057742685
0.048262544 0.032749582 0.008618311 0.012065636 0.005170987 -0.0025854935 -0.048262544 0.037058737
-0.0387824 -0.043091558 0.051709868 0.029302258 -0.055157192 -0.019822115 0.04395339 0.042229727
-0.018960284 -0.010341974 -0.03188775 -0.023269441 -0.046538882 -0.04567705 -0.024131272 -0.018960284
00000000: e4fd 0d35 33d8 30de dfc1 dc01 e62e 1cee
00000010: 2ae9 22e2 d22d f9ca dad9 3515 23b3 d736
00000020: cfca c335 c135 15ff e906 ed16 10e4 d7dc
00000030: 2404 1e06 d936 02d1 c328 1bd0 27cf 18e4
00000040: 33d4 e82b 3bc7 1cfe fe01 42cc 3c00 412c
00000050: 3940 f433 e317 f030 2ff4 0cea c7ed 2e2e
00000060: 0eee fe23 0908 fc11 c711 2bd5 e80e 03ea
00000070: 27c4 1a14 1e0a c5f7 34ee 38e1 0cea 29d9
00000080: 13d8 ebe6 ef1f f8d5 c6e0 3c0a 35dd c528
00000090: d44d e4d7 d313 090d 05e5 f735 efd0 2dfc
000000a0: f436 facc e0fc 2518 d81c e1d8 2314 1719
000000b0: 46d2 c4d0 bdf3 112a 3c3b 0121 caf5 2bde
000000c0: e938 0535 2e17 d6c1 ec07 e7e2 d71b dbe8
000000d0: 07fc d711 f7c8 dd33 46e5 cde3 30de f1e7
000000e0: ee14 f30b 1821 f0bd 3826 0a0e 06fd c82b
000000f0: d3ce 3c22 c0e9 3331 eaf4 dbe5 cacb e4ea

sequential/dense_1/MatMul i1 [50, 100] scale=0.0018260045 zero_point=0
0.08399621 0.021912053 0.0054780133 -0.10590826 0.10225625 0.14242835 0.17347042 -0.15886238
0.07851819 0.15338437 0.18077445 0.19720848 0.16799241 -0.045650113 -0.12051629 0.07121418
-0.13512433 -0.12599431 -0.0054780133 0.03652009 -0.1625144 -0.11138627 -0.023738058 -0.18990447
0.109560266 0.22459856 0.11869029 0.11869029 0.1606884 -0.09860424 -0.19720848 0.14060235
0.18077445 0.034694087 0.20633851 -0.07304018 -0.15338437 -0.0018260045 -0.1643404 -0.09495223
-0.02008605 0.04930212 -0.09312623 -0.029216072 0.14973237 -0.089474216 0.14425436 -0.11503828
0.0 -0.047476117 -0.17164442 -0.051128127 -0.17347042 0.19720848 -0.20086049 0.0054780133
-0.21546853 -0.17529643 -0.08399621 -0.14790636 -0.15521038 -0.14973237 0.15703638 -0.08399621
0.12964632 0.19720848 -0.09860424 -0.18990447 0.014608036 0.19903448 -0.17529643 0.12964632
0.0054780133 0.03286808 0.014608036 0.15338437 -0.16981842 -0.03652009 0.018260045 -0.10043024
0.2045125 0.07304018 0.0 0.13877635 0.09495223 -0.15155837 -0.18077445 -0.0803442
0.023738058 -0.17164442 -0.10590826 0.089474216 0.003652009 -0.031042077 0.023738058 0.0803442
-0.11138627 0.03286808 -0.041998103 -0.0821702 0.16981842 0.17894843 0.15155837 -0.19173047
-0.20086049 0.12416831 0.18260045 0.047476117 -0.2045125 -0.045650113 -0.027390067 0.07851819
0.0091300225 0.09495223 -0.1606884 -0.06938817 0.15886238 -0.14973237 -0.09130023 0.018260045
0.15886238 0.17712243 -0.018260045 0.12599431 -0.0054780133 0.0091300225 0.058432143 -0.10590826
0.0401721 0.12782031 0.027390067 0.13147232 -0.15338437 0.10043024 0.14608036 -0.10590826
0.02008605 -0.01643404 -0.07121418 0.17347042 -0.027390067 0.18077445 -0.15703638 -0.05295413
0.029216072 -0.027390067 0.003652009 -0.062084153 -0.09130023 0.045650113 -0.038346093 -0.05295413
0.062084153 -0.19538248 0.07669219 -0.0821702 0.08399621 -0.1643404 0.08399621 0.1625144
-0.10043024 -0.029216072 -0.01643404 0.11503828 0.06573616 -0.10225625 -0.13877635 -0.08764821
0.0054780133 -0.19538248 -0.15155837 0.14060235 0.08582221 0.05295413 -0.029216072 0.05295413
0.11503828 -0.09130023 -0.11138627 0.09312623 -0.13147232 0.0821702 0.17529643 -0.09495223
0.15338437 0.20086049 -0.025564063 0.023738058 0.007304018 0.029216072 0.14425436 -0.18990447
-0.014608036 -0.18625246 0.08399621 -0.1223423 -0.109560266 -0.07304018 -0.08764821 -0.12782031
-0.13512433 0.07669219 0.06391016 -0.10773426 -0.10773426 -0.10043024 0.08399621 0.06756216
-0.09495223 -0.17712243 -0.0091300225 0.17894843 -0.06756216 -0.2026865 -0.16981842 0.10408226
-0.10590826 -0.07121418 -0.18260045 -0.14425436 -0.038346093 0.10043024 0.18260045 0.07304018
-0.14425436 -0.15703638 0.010956027 0.014608036 0.14242835 -0.0091300225 -0.1643404 -0.1625144
-0.18807846 0.17164442 -0.14608036 0.12416831 0.13877635 0.16616641 -0.15886238 -0.0821702
0.13695033 0.01643404 0.1625144 -0.1625144 -0.0401721 0.18625246 0.0018260045 -0.08764821
0.15703638 0.05295413 -0.031042077 0.089474216 0.14973237 -0.10773426 -0.045650113 0.16981842
00000000: 2e0c 03c6 384e 5fa9 2b54 636c 5ce7 be27
00000010: b6bb fd14 a7c3 f398 3c7b 4141 58ca 944d
00000020: 6313 71d8 acff a6cc f51b cdf0 52cf 4fc1
00000030: 00e6 a2e4 a16c 9203 8aa0 d2af abae 56d2
00000040: 476c ca98 086d a047 0312 0854 a3ec 0ac9
00000050: 7028 004c 34ad 9dd4 0da2 c631 02ef 0d2c
00000060: c312 e9d3 5d62 5397 9244 641a 90e7 f12b
00000070: 0534 a8da 57ae ce0a 5761 f645 fd05 20c6
00000080: 1646 0f48 ac37 50c6 0bf7 d95f f163 aae3
00000090: 10f1 02de ce19 ebe3 2295 2ad3 2ea6 2e59
000000a0: c9f0 f73f 24c8 b4d0 0395 ad4d 2f1d f01d
000000b0: 3fce c333 b82d 60cc 546e f20d 0410 4f98
000000c0: f89a 2ebd c4d8 d0ba b62a 23c5 c5c9 2e25
000000d0: cc9f fb62 db91 a339 c6d9 9cb1 eb37 6428
000000e0: b1aa 0608 4efb a6a7 995e b044 4c5b a9d3
000000f0: 4b09 59a7 ea66 01d0 561d ef31 52c5 e75d
